examples/minecraft/model/model.pth (torch, 13632 bytes, 4 tensors)

linear1.weight f4 [128, 17]
00000000: 8224 303e f22e 73bd 77ba a4bc 5e0a 053e
00000010: 8813 bdbd d5fa 9abc f956 2f3c 211c 21bd
00000020: 036b 00bd 9e0e a23d a3b0 d93e 3121 253e
00000030: 1901 29bd 018e acbc d5bc b33e b253 5dbe
00000040: 861a 353e deb0 3bbe dc26 7a3e 637d fb3e
00000050: faf4 cf3d 1620 8bbe 2fb9 0b3e ae63 093e
00000060: 8305 9fbd e548 603e 8786 3f3d 85fd 96be
00000070: 2764 7dbe 917a 133d 441d be3e 083a 40bc
00000080: cc75 10bd c257 c43c 668d 483e 20cd 423c
00000090: 5c7e 70bd 4615 33be 448d 8e3d 0763 44be
000000a0: 8235 b7bd 0264 d1bd 7c17 3abe a8d8 4cbd
000000b0: d790 68be 4894 03be 0002 9ebd cc2f fd3d
000000c0: fc95 9a3d 02d3 62be 6e42 c2bd 3913 36be
000000d0: dd45 f13c 8cdd ebbd 28fe fe3d 27b6 353e
000000e0: ea84 323e bddf a73e ee28 913e 62b6 babd
000000f0: 16a5 7e3e af38 09be 7c28 25bd 029b 1c3e
00000100: ce88 f6bd 83d3 17bc a0d9 93bd eec2 7bbb
00000110: 439a 51be b7d6 9abd e6dc 89bd 4bf4 e4bd
00000120: 2120 843e 7a0e 143e aff9 8fbc f012 f73c
00000130: 63c9 16be 55b4 e6bd 6470 2bbd c6ef a03e
00000140: 5105 37be b61f 06be efff da3e 0805 87bc
00000150: e14f db3d a898 bdbc 81d9 62bb c4b9 4dbe
00000160: 3d1a 243e e62a b23d 4eff 7fbd 5ffa 42be
00000170: c18f 763d 962b e13c 9a63 ee3d ddae 40be
00000180: 4c0e ddbc 6e3c 3d3e 20b9 2d3c 4ed4 d13d
00000190: deaf c4bd 92e3 d13d 7831 ff3d f3e8 703e
000001a0: 246a b33e fce1 183e 3263 12bd 0c3c 743e
000001b0: a189 58be ece1 06be 5b99 d93e 5ee4 a43c
000001c0: 7ba6 38be 2e26 43be 0bc2 03be 9e62 70be
000001d0: ad12 4abe 0642 a4bd 1eb9 2abd 603e 1b3c
000001e0: 9174 92bd c228 9cbe 7814 063e 6a84 d3bd
000001f0: 98c5 77bd dec9 493e 301b 89bb 86e0 053e
00000200: bfd0 b63d de56 953d ff5f 733e e001 9d3e
00000210: c95c 9abd e9a6 363e 806c 153c 4bb0 a13e
00000220: 100e 273d d101 113d 2e96 50be 723a 4e3d
00000230: 530b 60be d440 06be ca81 1d3e d5b3 33be
00000240: ce3d 1ebe 264e f43d ae5f 89bb 6146 343e
00000250: 151c 41be 6f87 673d 926c 783e 6ce9 143e
00000260: e30c 47bd 80e1 cbba 32f8 01bb 55a3 8cbd
00000270: e092 a0bd c2cb 483e 4075 d9bd 72b6 aa3e
00000280: a2c0 1d3e 6491 90be bbe1 873e a929 edbc
00000290: d166 b43e ced8 d7bd 2844 5a3d 0104 463e
000002a0: 3996 6ebe a18b 473d e0a2 2abd 34dc edbd
000002b0: 7b17 e7bd d1cb 3e3e 7533 11be a3d5 dd3c
000002c0: 8059 8a3e 9782 883e eb44 33be 3ae3 79bd
000002d0: c6b9 07be c426 e43d 45c2 a93e dfbe 8bbe
000002e0: dda3 293e 743d 0cbd 1d3f 5c3e b047 28bc
000002f0: b91b 323e be50 553e d291 76be 17b9 ad3c
00000300: d276 8bbe df01 bd3d f7d6 14be c31f 6f3e
00000310: 2410 00bc 9c06 a1be 5538 b8bd 9f9c 55be
00000320: 37a7 983e cb75 053e e820 34bd f7a5 a53e
00000330: d897 4f3d 6834 16bd f297 e53e e010 8dbd
00000340: 0356 7b3e c0b9 403e a424 31bb ec74 40be
00000350: 389c 903e e331 ee3c c1ba c23e 1439 d1bc
00000360: 6d41 12bd b06f a23e 8b6d 2abd 013c 05be
00000370: 3bb2 543e c088 533b b44f aabd 32e0 22be
00000380: 7c8b 653e 9c90 7bbd 0096 3bbe 9750 a8bd
00000390: 708e 2ebe 1026 1ebe 5ce4 8d3d 246b 5ebe
000003a0: 7879 7abd bfd9 bc3d 873d 443d bcc2 1dbd
000003b0: b27b 6f3e a2c9 0f3e 7849 c03d 2f05 cb3d
000003c0: 8a8b 72bd 3788 aabc c056 babc 4888 e63c
000003d0: 9f9e 3bbd aa75 923e 4c64 703e bea8 ed3c
000003e0: 3243 74bd 6137 af3d 88ac c93a 64a2 733e
000003f0: 51ba 25be 304b f6bc ab69 ef3d fc45 983d
0.17201427 -0.059370942 -0.020108445 0.12992236 -0.09232241 -0.018918434 0.010701888 -0.039333466
-0.031352054 0.07912944 0.42517576 0.16125943 -0.041260812 -0.021063806 0.35105005 -0.21613958
0.17685899 -0.18329188 0.24428886 0.491191 0.101541474 -0.27172917 0.1364486 0.13416931
-0.07764723 0.21902807 0.046759155 -0.29490295 -0.24745236 0.03600556 0.37131703 -0.011732586
-0.03526859 0.023967627 0.19585189 0.011889726 -0.058714256 -0.17488584 0.06960538 -0.19178401
-0.08945753 -0.10224153 -0.18173021 -0.050011307 -0.22711502 -0.12849534 -0.07715225 0.12362632
0.075481385 -0.22150806 -0.09485327 -0.1778077 0.029452259 -0.11516866 0.1245082 0.17745267
0.17433515 0.32787886 0.2835154 -0.09116818 0.24867663 -0.1340053 -0.040321812 0.15293506
-0.12037812 -0.009266737 -0.07219243 -0.0038415748 -0.20469002 -0.07560485 -0.06731586 -0.11179408
0.25805762 0.14458647 -0.017575113 0.030160397 -0.1472526 -0.11264864 -0.04185523 0.31432933
-0.17873122 -0.13098034 0.42773387 -0.016481891 0.10708595 -0.023144081 -0.0034614506 -0.20090395
0.16025634 0.086995885 -0.062499337 -0.19040821 0.06019569 0.027486604 0.11640091 -0.18816705
-0.026984356 0.18480083 0.010603219 0.10245572 -0.096038565 0.10248484 0.12460607 0.23526363
0.35041916 0.14929956 -0.03573913 0.23851031 -0.21146251 -0.1317212 0.42499813 0.020128425
-0.18032257 -0.19057533 -0.1286699 -0.2347512 -0.19733687 -0.080204055 -0.041680448 0.009475321
-0.071511395 -0.30499846 0.13093746 -0.1032799 -0.060491174 0.19705912 -0.004184149 0.1307393
0.08926534 0.07291959 0.23767088 0.30665493 -0.075372286 0.17837109 0.009120107 0.31579813
0.040784895 0.035402123 -0.20369789 0.050348707 -0.2187932 -0.13110667 0.15381542 -0.17549069
-0.15453264 0.11928968 -0.004192314 0.17604972 -0.18858369 0.056525644 0.24260166 0.14542168
-0.048596274 -0.0015554875 -0.0019831774 -0.068670906 -0.07840514 0.19608977 -0.10618067 0.3334232
0.15405515 -0.28235924 0.26539406 -0.02895053 0.35234693 -0.10539399 0.053287655 0.19337465
-0.23299493 0.048717145 -0.041659236 -0.11614266 -0.112837754 0.18632437 -0.14179786 0.027079409
0.27021408 0.26662132 -0.17506759 -0.061007716 -0.1325446 0.111402065 0.33156028 -0.2729406
0.16566415 -0.034238294 0.21508451 -0.010270998 0.17393388 0.20831582 -0.24079064 0.021206422
-0.2723909 0.092288725 -0.14535128 0.2335196 -0.007816348 -0.31450355 -0.089951195 -0.20860527
0.29815075 0.13033216 -0.043976694 0.32353184 0.05068192 -0.036671072 0.44842488 -0.06887984
0.2454453 0.18820858 -0.0027029896 -0.18794602 0.28244185 0.029076522 0.38033107 -0.025539912
-0.035706926 0.31725836 -0.041608375 -0.13011171 0.20771115 0.0032277554 -0.083159834 -0.15905836
0.2241649 -0.061417207 -0.18318939 -0.08218496 -0.17046523 -0.15444207 0.06928322 -0.21720558
-0.061150998 0.09221219 0.04791024 -0.03851579 0.2338703 0.1404176 0.09389013 0.09913098
-0.059215106 -0.020816905 -0.022746444 0.028141156 -0.04580557 0.28605396 0.2347576 0.029011127
-0.059634395 0.085554846 0.0015386501 0.23792416 -0.16184355 -0.03006515 0.116900764 0.074352235

linear1.bias f4 [128]
00000000: 2b37 d3bd e2ad 863e 4d75 74be fcc4 903e
00000010: 4fa5 1a3e 29df 023e 048c 5e3e bda1 493e
00000020: c8aa ebbc a220 0dbd 6a54 d13d c224 70bd
00000030: e1c9 353d a022 53be f5c7 333d 146e 7a3e
00000040: f54e a93d 4f9b 2d3a dea2 9d3e 390e ecbd
00000050: 5450 edbd 632c 453e d943 4e3e c417 bc3d
00000060: fe4a 7b3e 6c27 a03e 45e7 7d3e 0298 743c
00000070: 933d 2e3e 7918 823d ee10 103e ae97 e83c
00000080: 2954 99ba ee93 d33c f266 0d3d 797d 50be
00000090: 9509 703e c95c 4a3e d288 073e 9117 a33d
000000a0: b44e 9b3d 5193 833d eae9 6ebe e552 953e
000000b0: e9eb 7d3e d814 e93d 8716 82be 37c7 4cbe
000000c0: 6ace a73e 7113 063e 6368 be3d 0872 9e3e
000000d0: 20c1 b0bb e9a3 0b3d da1b 3c3e b4ff 973e
000000e0: 5d46 a0bd c942 a2bd 554c 8e3e 7e52 3f3e
000000f0: 76f2 4c3e 0431 b1bd 3658 aa3d e220 d1bd
00000100: 8c0e 4b3d 9284 873e aaef 39bd 5a49 b53d
00000110: 791e 3b3e 03dc 90bd e0b8 2d3e 5117 d93d
00000120: 4da3 093e 563d 703e ee0c aa3e 72b7 6abe
00000130: ab7b bbbb 81ec b13d f837 45be 4203 cd3e
00000140: e243 d3bb efc8 0f3d 98f5 afbd 90b3 473e
00000150: 79b5 babc cfea ba3e 4013 ad3d 68de f5bb
00000160: 2a17 bc3e e477 973e 1c24 113e 1e66 913e
00000170: dfdd 683e aa70 0f3d b3bc 823e 2f36 743e
00000180: 6a0b a43e 534e 9e3e 28cc 713e 0a56 3abd
00000190: e8be 523e 091b 763d 09fc a33c d5f7 6c3e
000001a0: 0115 e1bc b279 0bbe 316b 123e 0709 9f3e
000001b0: f9e6 073e 41fa ab3e e363 973e f089 6b3e
000001c0: fcad b23c bc01 be3d 6c53 a0bc a9de 10bd
000001d0: 8a1b 12bd 0ef2 a73e e0b2 953e 0ef1 0a3e
000001e0: 0f56 8c3e 9db7 f7bc 1d48 353e 6a39 51be
000001f0: 8b80 453e 7334 223e 80ce 3abe 9a3e 4e3e
-0.10313257 0.26304537 -0.23872872 0.28275287 0.15102123 0.12780441 0.21733099 0.19690605
-0.028767958 -0.03445495 0.10221179 -0.058628805 0.04438198 -0.20618677 0.043891866 0.24456054
0.08267013 0.0006622569 0.3078832 -0.1152615 -0.11587587 0.19255213 0.2014307 0.091842204
0.24540326 0.31280077 0.24795254 0.01492882 0.17015676 0.06352324 0.14068958 0.028392639
-0.0011698055 0.025827374 0.034522004 -0.20360364 0.23441155 0.19761957 0.13235787 0.07963479
0.07583371 0.06424583 -0.23331419 0.29164806 0.24797024 0.11380929 -0.25407812 -0.1999787
0.3277467 0.13093354 0.09297254 0.30946374 -0.005394116 0.034091864 0.1837 0.29687274
-0.07825921 -0.079228945 0.27792612 0.18683812 0.20014367 -0.08651927 0.08317606 -0.1021135
0.04957442 0.2646833 -0.045394577 0.08851881 0.18273343 -0.07073214 0.16965055 0.106001504
0.134412 0.23460898 0.3321299 -0.22921541 -0.0057215295 0.08687688 -0.19259632 0.40041548
-0.0064473012 0.035103735 -0.08591765 0.19502091 -0.022791611 0.3650727 0.08450937 -0.0075033195
0.36736423 0.29583657 0.14173931 0.28398222 0.22740887 0.035019554 0.2553459 0.23848794
0.32039958 0.30919132 0.23613036 -0.04549221 0.20580637 0.060084376 0.02001764 0.23141415
-0.027475836 -0.13620642 0.14298703 0.31061575 0.13271703 0.33589366 0.29568395 0.23001838
0.021811478 0.092776746 -0.019571029 -0.035368595 -0.035670795 0.3280186 0.29238033 0.13568518
0.27409407 -0.03023892 0.1770329 -0.20432058 0.19287317 0.1584032 -0.18242836 0.20141068

linear2.weight f4 [5, 128]
00000000: 8897 1abd caef 46bd 83f9 b1bd c88c d5bd
00000010: bc01 4abe 18b7 e6bc 39c7 5abc 8236 33be
00000020: 1edd f0bc 5210 58be 994f 61be 7931 2ebe
00000030: c87c adbd cd73 633d 18ad 4bbe e4d0 89bc
00000040: c838 a0bd be7e c6bc 4b95 45be 79fe 2c3d
00000050: d0c1 b9bc 91b1 3ebe ef4d e6bd ee50 ddbc
00000060: fc57 08be e40b 3ebd c0b9 12be c64d 1bbe
00000070: 0dc1 abbd d975 31bd 3d76 31be 1d40 92bd
00000080: 7983 b9bd 1c3c 14be 7916 f83b 162b 41bd
00000090: 595c ebbd 0b8d 2ebe 1e6e bdbd 2fd6 90bd
000000a0: b67b d6bd b652 a1bd b006 a63b efbf 7ebd
000000b0: 4df4 94bd e425 71bc 8cdb c23c e8fa 85bd
000000c0: 3f62 8abd 7042 91bd f647 883d 4453 a6bd
000000d0: 85b2 53be ffc7 0fbe 5a90 49be 42b6 52be
000000e0: 48be 12be 7560 35be 6d69 68be bb7a 0bbe
000000f0: 38ff eabd ffb7 7c3c 7f28 72bd 3677 21be
00000100: fdd0 4fbe f283 7fbd 500d cebd 6367 fdbd
00000110: d36a 43bd aba3 9e3d abf0 bcbb 7ab6 28be
00000120: 6a72 8fbd 6390 08be cf0a 62be fc6c 533d
00000130: c7b2 0bbd 7883 403d 0bd4 a73d a4d0 67be
00000140: 1e8b 393c 3e8d bebc a135 7abd c2b4 1bbe
00000150: 495e 1ebe f9df 48be 3d75 e3bc 0f7d 9b3d
00000160: c89c 59be b47a 72bd 6acb 3bbd cfee 0cbe
00000170: 67eb b6bd e77f 84be b207 11bd b379 f8bd
00000180: 7c9b 03be e87f 6abd 321f 2abe ebcd 53be
00000190: 2ac2 19be 3e0c 5ebd b280 b2bd 5f84 08be
000001a0: 022f a9bb 52d0 05bd 0e24 8cbd 6f51 01be
000001b0: 5cc9 45be 6d1d 1ebd ba51 0dbe ce5c c8bc
000001c0: d99f 6e3d 6f6a ab3c b81a 3a3c 6acf 30be
000001d0: 7da7 cabd 2ac5 22be 3d2f 95bd 2eb3 3fbd
000001e0: cb41 6fbe 4d8c f73d 31ee 28be 4f72 8a3d
000001f0: e21a 68be 02d0 b6bc a68a 663d b8a5 efbd
00000200: 3700 0d3c 313b 80bd d127 5dbd c889 13be
00000210: e927 4abe 5104 d3bd 9bfc cebd 656e e7bd
00000220: 5617 88bb d879 85bd 9c26 82bd bdde 293c
00000230: 93dd 52bd 4334 57bc 2b86 54bb 9abe 83bd
00000240: b250 f3bb 2bc5 3b3d 01ca 27be ad9d 30bd
00000250: 83ae d7bd 2f09 7cbd 6bce f9bd aa68 dfbc
00000260: d7a2 a1bd f789 85bd d2a5 90bd 408a fcbc
00000270: e7f1 12be 924e e6bd 20b2 6ebd 4dca d0bd
00000280: d256 3abe 2f72 3b3d cb3c eabd 7bb9 dfbd
00000290: 82c8 35be 904b b2bd 52b9 dcbd 7c63 0bbe
000002a0: 5ecd edbd ca9a 22be 5b72 3bbd a351 9abd
000002b0: 070d 0a3c 96e0 b83c 146f 83bd 6a79 55bd
000002c0: 9533 9abc 2406 7fbd 2274 93bd f216 d4bd
000002d0: 9222 17be fe55 cfbd e96c 2ebe 3e49 47bd
000002e0: bac5 0abe 3c01 f5bd 6e7a afbd 9f85 50bd
000002f0: 1e41 1bbc 3720 013d 315c 8bbc 171e 70bc
00000300: 3bc6 d5bd cd03 b0bd 79a5 13be 9f1e 92be
00000310: e6b0 38bc 7eb9 22bd fa5b ccbd 82b4 76bd
00000320: 6f1e 10be c65c 18be 9da6 8cbd 277b 02bc
00000330: 24f6 7fbd 85f2 433d a6d8 573d 6ea9 64be
00000340: 6e7a 35be 7a0f 4abd 67fd ebbd e436 0cbe
00000350: 4e2a 41be a550 43be a1fd 643c 899b 2dbc
00000360: a5ce b6bd 7ea7 9cbc 3f44 17be a655 febc
00000370: 7862 38be 62ff e9bd 9ccf 10bd 9c46 85bd
00000380: e3d0 26be c53e 97bb 4d77 debd 557e 44bc
00000390: 6092 52bd 4335 22be 2022 3bbe 8253 1fbd
000003a0: e136 00bc f343 d63c 4191 d8bd e8f8 c8bd
000003b0: bc57 47be a9da 45be 932d 0cbe 99de 0e3d
000003c0: dbfa b7bd 88c3 fabd 553b 33be 3219 cebc
000003d0: 2e2b eebd 9c81 35be 55c2 89bd a138 47be
000003e0: d630 81bd 0fe8 4bbd d286 03be 4400 3bbd
000003f0: cbd6 35bd 827a d3bc d006 55bd f693 16bd
-0.037742168 -0.048568524 -0.08690169 -0.104272425 -0.19727224 -0.028163478 -0.013353162 -0.17501262
-0.029402312 -0.21099976 -0.2200302 -0.1701106 -0.08471066 0.055530358 -0.19890249 -0.01682324
-0.0782333 -0.024230357 -0.19295232 0.04223487 -0.022675425 -0.18622424 -0.112453334 -0.02701613
-0.13314813 -0.04639806 -0.1432867 -0.15166387 -0.08386431 -0.04332528 -0.1733026 -0.07141135
-0.090582795 -0.14476055 0.0075710383 -0.04716023 -0.11492223 -0.17045991 -0.09249519 -0.07072102
-0.10472815 -0.07877104 0.005066715 -0.06219476 -0.07273159 -0.0147185065 0.023786329 -0.06541997
-0.0675702 -0.0709275 0.066543505 -0.081213504 -0.20673569 -0.14041136 -0.19683972 -0.20577338
-0.14330399 -0.17712577 -0.22696467 -0.13621037 -0.1147446 0.015424727 -0.05912065 -0.15768132
-0.20294566 -0.062381692 -0.10061133 -0.12373235 -0.047709297 0.07746061 -0.0057659945 -0.1647586
-0.070042446 -0.13336329 -0.22074436 0.051617607 -0.034106042 0.04700038 0.08194741 -0.22638184
0.011324672 -0.023260709 -0.0610863 -0.15205672 -0.15465654 -0.19616689 -0.027765865 0.075922124
-0.21251214 -0.05919905 -0.045848288 -0.13762973 -0.08931618 -0.25878832 -0.03540773 -0.12132587
-0.12852281 -0.057250887 -0.16613463 -0.2068402 -0.15015474 -0.054210894 -0.08715953 -0.13331746
-0.0051630745 -0.032669373 -0.068428144 -0.1262872 -0.19315094 -0.03860228 -0.13800707 -0.024458315
0.05825791 0.020924775 0.011358909 -0.17266622 -0.09895227 -0.15895525 -0.072844006 -0.04680174
-0.23364942 0.12087307 -0.16497113 0.06760084 -0.22666505 -0.022315983 0.05628457 -0.1170153
0.008606008 -0.0626129 -0.05399305 -0.14408028 -0.19741787 -0.10303558 -0.101067744 -0.11300353
-0.0041531725 -0.065173805 -0.063550204 0.010368046 -0.05148084 -0.013135019 -0.0032428603 -0.06432839
-0.007425391 0.04584233 -0.16385652 -0.04311912 -0.10531332 -0.061532196 -0.12197574 -0.027271587
-0.07892387 -0.06520455 -0.07062878 -0.030827641 -0.14350091 -0.11245455 -0.058275342 -0.10194836
-0.18197182 0.04576319 -0.114373766 -0.109240495 -0.17752269 -0.08705819 -0.107775345 -0.13612169
-0.11611436 -0.1587936 -0.045763355 -0.07535102 0.0084259575 0.022568028 -0.06417671 -0.052117743
-0.018823424 -0.062261716 -0.07199885 -0.10355939 -0.14759281 -0.101238236 -0.17033733 -0.048653834
-0.13551989 -0.11963126 -0.085682735 -0.05090868 -0.009475974 0.031524863 -0.017011734 -0.0146556115
-0.104382 -0.08594475 -0.14418592 -0.28538987 -0.011272645 -0.03972768 -0.09978481 -0.06023074
-0.1407411 -0.1487914 -0.068677165 -0.007963932 -0.062490597 0.047838707 0.052696846 -0.22330257
-0.17722484 -0.049331166 -0.11522942 -0.13692814 -0.18863794 -0.19073732 0.0139764855 -0.0105961645
-0.08926133 -0.019122835 -0.14772128 -0.0310467 -0.18006313 -0.114256635 -0.03535424 -0.06507608
-0.16290621 -0.004615637 -0.108625986 -0.0119930105 -0.051409125 -0.1584063 -0.18274736 -0.038898
-0.007825584 0.026155448 -0.1057458 -0.098131 -0.19467062 -0.19321693 -0.1368926 0.034880254
-0.08983394 -0.12244326 -0.17503102 -0.025158498 -0.116293296 -0.17725223 -0.06726519 -0.19455196
-0.06308143 -0.049781855 -0.12844399 -0.04565455 -0.044394296 -0.025815252 -0.05200845 -0.0367622

linear2.bias f4 [5]
00000000: 66b3 34be 68c2 08be 6e12 edbc 5cd9 99bc
00000010: f8cf 56bd
-0.1764656 -0.1335541 -0.028939452 -0.018780403 -0.05244443
