examples/minecraft/model/model2.2.pth (torch, 6720 bytes, 4 tensors)

linear1.weight f4 [64, 13]
00000000: 4ed8 c33a 6c1b 7a3e f863 f03d 3405 813d
00000010: 68cb 78be 4841 673e af19 bb3d 7d00 d73d
00000020: b0b8 83bc cd89 85be d034 4ebd ca71 27be
00000030: c99e fcbc 9f3b 0640 8667 ef3f 18a5 1340
00000040: 319b 21be aaa9 d93e dcfa c43e 0a34 0940
00000050: 1183 dabf 8e00 e3bf 27d1 d7bf 23b2 fc3e
00000060: 1b8f f83f 5331 4f3f 6074 18be 0090 c33c
00000070: 889d e2bd 1c37 c03d c02d 7bbe 6d40 12be
00000080: 8272 0a3e fb74 1b3e 442c 21be 833d 553e
00000090: e036 583c e36f bebd d6b0 11be 8534 1c40
000000a0: bf36 1940 9176 1140 7f99 663d 7066 ef3e
000000b0: e92a fa3e 4b98 1540 7a25 9bbf 9add 00c0
000000c0: 4302 c4bf c4f4 d23e e053 1240 3023 913f
000000d0: d201 373e 4a71 793e 84bb c2bd 997a 86be
000000e0: 2619 8dbe 5613 7d3e 2996 08be 4201 6bbe
000000f0: 0021 15be 40b6 a13d c872 f4bd 6cbd 53be
00000100: 348e 63bd 6d9f 0540 217d fe3f 8b48 2440
00000110: e755 c93d 62ea 233e 43fe ac3e 07cb fd3f
00000120: 3239 a1bf 59ff fabf ebbf bfbf cc82 063f
00000130: 799a f13f c6e7 753f 9f72 f03f 7971 0440
00000140: 9b66 1140 83d3 3e3d 6e51 c03e 3c8a b7bd
00000150: c976 0540 8d68 a0bf 69a3 f6bf cf10 a4bf
00000160: d22d a23e c74f ed3f 2128 793f 8b0d 0440
00000170: 20e6 fc3f d25f 2f40 182b 1abe 7ac3 eb3e
00000180: 29dc 453d 0b60 1540 990d aabf 9762 02c0
00000190: 837f bbbf b685 d13e ab6b 1740 49cd 803f
000001a0: 6979 1540 691e 1b40 b2bf 1440 c254 8abe
000001b0: 0215 843d 49f2 453e 994c 0c40 3338 8dbf
000001c0: 0212 0bc0 6697 a2bf 62e8 fd3e e7e8 0f40
000001d0: a9ca 6a3f e43b 1d40 3e33 0d40 a17b 0240
000001e0: b119 853e 8f3a 943e 9f3f 563d a9f6 1740
000001f0: d2a9 bdbf 498d 08c0 7870 c0bf 1e13 693e
00000200: cb3f f63f 7cd9 9c3f 22cd 1140 aef7 2040
00000210: 7c6c 0740 b101 963c 9228 8ebd f4ec d73e
00000220: e941 1040 b324 cabf 336d 0ac0 9d68 cabf
00000230: 6b2e 213f 2875 ee3f 35d3 7a3f cd0d 0140
00000240: fd2e 0940 3904 0140 8f75 36be 4989 ae3d
00000250: 9284 9e3d 744d 1240 2905 a8bf 3292 0ec0
00000260: fe73 b4bf acfa 453e dc21 fb3f 480d 7f3f
00000270: b865 783e bbb1 d6bc ec14 57be 3ebd 82be
00000280: 7caf cd3d 94a5 253e 79da c63d 615e 40be
00000290: 6022 b53c 2fd8 5ebe ca1f 4cbe 5796 1bbe
000002a0: e062 113d 32e3 ef3f 6cf0 0e40 df90 1940
000002b0: e059 3dbe fb8a 943e 3d71 9d3e b0bc e83f
000002c0: bed3 d3bf 7ed7 dbbf 6f88 dabf a5f5 cc3e
000002d0: eb18 0240 d615 803f 21c5 1940 2c2d 0240
000002e0: 17cc 1440 b33b 293e 03a2 923e 5189 f33d
000002f0: 50a2 0340 245e b6bf 648b 1bc0 1a37 a3bf
00000300: 6062 cb3e 6b37 0f40 f402 a53f 5539 0240
00000310: cc81 ec3f c4fd 1b40 d3e8 5c3c 691f ac3e
00000320: 9036 0d3f 4959 e83f 6587 bebf 4040 ecbf
00000330: 7ded e6bf 7b27 a03e fa8b 0840 ca2e 933f
00000340: 1ac7 0d40 6ab2 1840 017e 1540 8ab6 a13d
00000350: 2854 283d 8e85 873e 4940 1b40 635e bfbf
00000360: 6376 14c0 e7d2 a5bf 9636 dd3e 50c0 1540
00000370: 5bc9 903f 057b 1340 1037 0540 a405 0940
00000380: 23c4 4abc 3fb7 e93e 0114 533e 693d 0940
00000390: fbdb 88bf 904b 03c0 b996 9cbf ad60 753e
000003a0: fc46 ed3f 9f86 7f3f 0019 9d3a 640f d23d
000003b0: c09b f83c e4af 41bd 2430 6ebd c678 63be
000003c0: f473 85be acd5 89be 6e8b 183e 98db b83d
000003d0: 38f0 333d 5682 7dbe e47a 30be ac3b 0240
000003e0: 4a77 1d40 56d2 0340 0415 f83d 6ca6 d43e
000003f0: cbd3 3e3e 85e3 1240 67a7 9dbf 45c3 07c0
0.0014941783 0.24424523 0.117378175 0.062998205 -0.24296343 0.22583497 0.09135758 0.1049814
-0.016079277 -0.26081696 -0.050343335 -0.16352001 -0.030837433 2.097389 1.8703468 2.3069515
-0.15781857 0.42512256 0.3847264 2.1438012 -1.7071248 -1.7734544 -1.6860703 0.49354658
1.9418672 0.8093464 -0.14888144 0.023872375 -0.11065203 0.09385511 -0.24529171 -0.14282389
0.13520244 0.15181343 -0.15739542 0.20824246 0.013196677 -0.092986844 -0.14227614 2.4407055
2.3939664 2.2728617 0.05629873 0.4675784 0.48860863 2.3374202 -1.2120812 -2.0135255
-1.531319 0.41202366 2.2863693 1.1338863 0.17871788 0.24359623 -0.09508422 -0.2626541
-0.2755825 0.24714407 -0.13338532 -0.22949699 -0.1456337 0.078960896 -0.11935955 -0.20677727
-0.055555537 2.0878556 1.9881936 2.5669277 0.09830838 0.16007379 0.33787736 1.9827584
-1.259558 -1.9609176 -1.4980444 0.5254333 1.8875266 0.96056783 1.878498 2.0694258
2.2718875 0.046588432 0.37562126 -0.08961913 2.085375 -1.2531906 -1.9268619 -1.281763
0.31675583 1.8539971 0.97326857 2.0633266 1.9757729 2.7402234 -0.15055501 0.46047574
0.048305664 2.333987 -1.32854 -2.0372674 -1.4648288 0.40922326 2.3659465 1.0062648
2.3355353 2.423731 2.3242002 -0.2701779 0.064493194 0.19330706 2.1921751 -1.1032776
-2.172974 -1.2702453 0.49591357 2.2485902 0.91715485 2.4567804 2.2062526 2.0387957
0.25996163 0.28950927 0.052306768 2.37443 -1.481745 -2.1336234 -1.5034323 0.22761199
1.9238218 1.2253871 2.2781453 2.5151172 2.1159964 0.018311353 -0.06941332 0.42172968
2.2540228 -1.579245 -2.162915 -1.5813175 0.62961453 1.8629503 0.97978526 2.0164673
2.143493 2.0158827 -0.17818283 0.08522279 0.077401295 2.2859774 -1.3126575 -2.227673
-1.4097898 0.19333905 1.9619708 0.9962964 0.24257553 -0.026207795 -0.21004075 -0.25535005
0.100432366 0.16176444 0.09709639 -0.18786003 0.022111118 -0.21762155 -0.19934002 -0.15194069
0.035494685 1.874121 2.2334242 2.3994672 -0.18491316 0.29012284 0.30750456 1.8182583
-1.6548994 -1.7175138 -1.7072886 0.40031162 2.0327709 1.0006664 2.4026568 2.034007
2.3249567 0.1652668 0.2863923 0.118914254 2.0567818 -1.424748 -2.4303827 -1.2751191
0.39723492 2.2377574 1.2891526 2.0347493 1.8477111 2.4373636 0.013483244 0.33617714
0.5516138 1.8152248 -1.4885069 -1.8457108 -1.8041226 0.3128012 2.1335435 1.1498654
2.2152772 2.3858895 2.3358157 0.07896145 0.041095883 0.26469082 2.4257987 -1.495068
-2.3197258 -1.2954987 0.43205708 2.3398628 1.1311449 2.3043835 2.0814857 2.1409693
-0.012375864 0.45647618 0.206131 2.1443732 -1.0692133 -2.051487 -1.2233497 0.2396266
1.8537288 0.9981479 0.00119856 0.10256842 0.030347705 -0.047286883 -0.05815138 -0.2221404
-0.26065028 -0.2692083 0.14896938 0.09026259 0.043930262 -0.2475675 -0.17234379 2.034892
2.4604058 2.059713 0.121133834 0.4153322 0.1863548 2.2951367 -1.2316712 -2.1212933

linear1.bias f4 [64]
00000000: 6187 65be 402d 7a3f e87f 51be 0fa5 733f
00000010: 5a55 73be db9b 813f 11d4 853f f5b1 8a3f
00000020: fb6a ab3f 16d3 773f 7184 9b3f cf91 a83f
00000030: 0d8d 76be a8d0 4d3f fa39 9d3f 05fc 403f
00000040: 1e88 9f3f 3c80 903f 5210 83bd e391 803f
00000050: 3be3 8c3f bfc1 2a3f 22da 773f 22fc 5e3f
00000060: f6c9 a53f d603 323f 6957 6d3f ed55 61bc
00000070: 1490 843f fa67 09be a5c0 973f 5ab7 5d3f
00000080: 8dbc 8e3f 4bf6 a73f e812 b3bd ce06 8f3f
00000090: b02c 813f c9ff 963f d547 8c3f ffa0 25be
000000a0: 359b 823f 0ba9 5f3f 91f4 28be 63d2 3d3c
000000b0: f838 633f 55be 933f eced 813f 7981 70be
000000c0: 3dae 813f 6c20 8f3f 8ad3 923f 6691 693f
000000d0: c536 a23f 9b96 9c3f a48f 823f 2863 15be
000000e0: cc13 983f 8742 1fbe 9224 a53f 40ff 99be
000000f0: 2c4e 973f d0ca 923f 678a 813f 5e5b 8e3f
-0.22414924 0.97725296 -0.20458949 0.95173734 -0.23763028 1.0125688 1.0455343 1.0835558
1.3392023 0.96806467 1.2149793 1.3169497 -0.24077244 0.8039651 1.2283318 0.7538455
1.2463415 1.1289134 -0.06399597 1.0044521 1.1006845 0.66701883 0.9681722 0.87103474
1.2952259 0.69537103 0.927115 -0.013753396 1.0356469 -0.1341857 1.1855665 0.866079
1.1151291 1.3122038 -0.087438405 1.1173952 1.0091763 1.179681 1.0959421 -0.16174696
1.0203615 0.87367314 -0.16499545 0.011585805 0.887588 1.154246 1.0150733 -0.2348689
1.0131298 1.1181769 1.1470807 0.91237485 1.2672964 1.2233461 1.0200086 -0.14588606
1.1881042 -0.15552722 1.2901785 -0.30077553 1.1820731 1.1468143 1.0120362 1.1121633

linear2.weight f4 [5, 64]
00000000: 1ad9 f1bb 0411 a8bf 9890 7dbd 3c7d b8bf
00000010: 24f8 cd3d f7c9 9fbf e99c a5bf bd2e 92bf
00000020: 50f2 b6bf a558 bbbf 7727 b5bf d6eb a7bf
00000030: dc49 d63d a918 a6bf 54dd a4bf 39e5 adbf
00000040: 027e 97bf eb0e b3bf fc31 e9bd 136a bdbf
00000050: c903 93bf abdf c8bf dea6 98bf 0b8c afbf
00000060: 6361 b6bf e812 9fbf 024a acbf 99be d83d
00000070: de5c a7bf efd0 7fbe cdb1 a1bf e9d6 b2bf
00000080: 032f b1bf bcb1 11bf 4e57 fbbd 26ae b5bf
00000090: 834f b9bf 182d aebf e971 bfbf 4ace d4bd
000000a0: c09a a9bf eeb5 aabf f841 a93c e1f8 9bbd
000000b0: 48f6 a0bf 55eb a4bf 7869 aabf cb74 c83d
000000c0: db04 a0bf 05a7 a7bf b2b1 99bf 0bce c1bf
000000d0: d066 9fbf 6857 aabf bdb3 acbf 643e b23d
000000e0: b1b1 a8bf 60f4 843b 47f8 b1bf 2463 0abc
000000f0: e789 aebf b20b bebf deff aabf 7e5f 9ebf
00000100: 00d0 033d 60b1 afbf cffb ac3d 20e1 a0bf
00000110: 6c55 693d 138b b9bf 40cc adbf 4e47 a1bf
00000120: 5d32 b9bf 1267 aabf 2766 a7bf bda1 bbbf
00000130: 8050 9a3d babd b3bf 2110 b3bf 6b92 a6bf
00000140: 1e8d afbf b409 a1bf acd6 efbd a887 c6bf
00000150: 0243 97bf c817 54bf 1a3a abbf 043e 9ebf
00000160: 9fda c6bf 7c62 97bf 6c18 93bf ce45 ed3d
00000170: e20a a0bf e30f afbe efd6 afbf 0adf b5bf
00000180: fa17 9cbf 6d81 06bf 5a9f f93d 3890 bdbf
00000190: 7e16 bbbf 6bda a3bf c59f c1bf 187a 9bbd
000001a0: e643 a6bf 5efb afbf f1ce 78bc 8c53 01be
000001b0: c802 babf f68a c4bf 7c3e a8bf 8699 d73d
000001c0: 1d9d b9bf 35a4 bebf 0f66 b3bf d1a3 b6bf
000001d0: afb1 b9bf 8b63 9fbf 269f 9fbf 46aa afbd
000001e0: eafb afbf b23b b5bd 9661 adbf 1dcc ce3d
000001f0: 6912 babf fdc2 bdbf a3c2 a9bf 72d3 a2bf
00000200: 01b2 eabd 427e dfbf 5c27 713d 8127 a6bf
00000210: 2051 15bc bf6f a8bf 54df 9dbf 21ff 9cbf
00000220: 8db2 87bf 13d6 9dbf 7690 b8bf e442 94bf
00000230: da34 723d 67a0 e4bf 9490 80bf 3178 e0bf
00000240: e20d 99bf 0dd7 8bbf 9c4d f13d f8b0 aabf
00000250: 07c3 e4bf ddcd 03c0 1230 b6bf 7dbe 9cbf
00000260: 7543 a0bf 7793 8dbf a2a8 cb3e 2e82 9abd
00000270: e803 a8bf cf58 0740 e97d 9dbf 42c3 afbf
00000280: 0c13 c5bf 8943 e23f fa0b 893d 4ea6 a9bf
00000290: d4c2 a3bf d6b6 90bf b7a4 a3bf 5796 bf3d
000002a0: 51f8 92bf dc81 c1bf c3fc dbbd dc1b febe
000002b0: 7d4a c9bf f74a 9dbf 1c77 b2bf 5985 83bd
000002c0: 5bd8 cdbf eecc 75bf baf1 a2bf 6980 93bf
000002d0: b195 a0bf 7d91 77bf 9193 6ebf acd8 593d
000002e0: 3001 96bf 63ef 68bd c305 aebf d037 a0bd
000002f0: 9481 9cbf a5f6 8cbf 7385 afbf 8827 bdbf
00000300: f73f 0d3d 83c1 9bbf d3f3 cb3d b85c a0bf
00000310: 0cec d33d fcfe cdbf 6946 a6bf da8c e5bf
00000320: 4ef3 a1bf 2628 9cbf e9fc 9ebf 0fc3 8fbf
00000330: 3edc 313d cdb5 70bf a5fe 97bf 123d b9bf
00000340: 8a82 a8bf acb9 86bf 3a97 8a3d 04a0 a1bf
00000350: 3370 cabf 5eca 82bf fbcb dbbf c249 c0bf
00000360: 2d74 83bf 6482 04c0 a4ff 05c0 564e 373d
00000370: 5d9c c2bf c7ea 073e 621a 78bf 57d9 7ebf
00000380: 045d 85bf f428 3e40 8699 e13d 0578 b3bf
00000390: 997e 55bf 25d0 7cbf 80ab 6fbf b824 4f3d
000003a0: a0c6 c2bf 3c6f bebf cd04 953d 61a1 0abf
000003b0: 93e9 b6bf 3df5 bfbf 084c bfbf d8dc 303d
000003c0: 37c8 48bf d31a 95bf 1edb a1bf 220a 7ebf
000003d0: 3e3b a6bf e3a2 a3bf a312 8ebf e8ec b3bc
000003e0: 3a00 b4bf 3dbd cabd b1a5 9dbf 838e b03c
000003f0: b060 9abf a5d6 87bf 615f c1bf c8f7 edbf
-0.007380617 -1.3130193 -0.061905473 -1.4413218 0.10057095 -1.248351 -1.293851 -1.1420513
-1.4292698 -1.4636427 -1.4152669 -1.3118846 0.10463306 -1.2976276 -1.2880044 -1.3585578
-1.183533 -1.3988928 -0.11386487 -1.4797996 -1.148553 -1.5693258 -1.1925924 -1.3714613
-1.424847 -1.2427645 -1.3460085 0.105832286 -1.3075216 -0.24982046 -1.2632385 -1.3971835
-1.3842472 -0.56911826 -0.122725114 -1.4193771 -1.447739 -1.3607512 -1.4956638 -0.10390909
-1.3250351 -1.333677 0.02066134 -0.07615829 -1.2575159 -1.2884318 -1.3313437 0.097879015
-1.2501482 -1.3097845 -1.2007353 -1.5141004 -1.2453251 -1.3307924 -1.3492352 0.08703306
-1.3179227 0.004057452 -1.3903893 -0.0084464885 -1.3635834 -1.4847319 -1.3359334 -1.2372892
0.032180786 -1.3726006 0.08446466 -1.2568703 0.05696623 -1.4495567 -1.3577957 -1.2599885
-1.4468495 -1.3312705 -1.307805 -1.4658734 0.075348854 -1.4042275 -1.3989297 -1.3013433
-1.371494 -1.2581086 -0.11710867 -1.5510149 -1.1817324 -0.8284879 -1.3377106 -1.2362676
-1.5535468 -1.182693 -1.1491828 0.1158558 -1.2503321 -0.34191808 -1.3737468 -1.4208691
-1.2194817 -0.5254124 0.12188597 -1.4809637 -1.4616239 -1.2801031 -1.5126883 -0.07591647
-1.2989471 -1.3748586 -0.015186057 -0.12629527 -1.4532099 -1.5354908 -1.3144069 0.10527329
-1.4501072 -1.4893862 -1.4015521 -1.4268743 -1.450735 -1.2452253 -1.2470443 -0.08577399
-1.3748753 -0.088492766 -1.3545406 0.10097525 -1.4536868 -1.4825131 -1.3262523 -1.2720778
-0.11459733 -1.7460406 0.058875427 -1.2980806 -0.00911358 -1.3159102 -1.2333779 -1.2265359
-1.0601364 -1.2330955 -1.4419086 -1.1582913 0.059132434 -1.7861451 -1.0044122 -1.753668
-1.1957362 -1.0925003 0.11782381 -1.3335257 -1.7872018 -2.05944 -1.423342 -1.2245632
-1.2520586 -1.1060628 0.39777094 -0.07544361 -1.3126192 2.1147954 -1.230405 -1.3731463
-1.5396438 1.767686 0.066917375 -1.3253877 -1.2793832 -1.1305797 -1.2784642 0.09354847
-1.148203 -1.5117755 -0.1074157 -0.4963063 -1.5725857 -1.2288502 -1.3942599 -0.064219184
-1.6081651 -0.9601582 -1.2730019 -1.1523563 -1.2545682 -0.9670637 -0.9319392 0.05318515
-1.1719112 -0.056868922 -1.3595508 -0.078231454 -1.2227044 -1.101277 -1.37126 -1.4777689
0.03448483 -1.216843 0.09958615 -1.2528296 0.10347757 -1.609344 -1.2990237 -1.793361
-1.2652376 -1.2199752 -1.2420932 -1.1231402 0.04342293 -0.94027406 -1.1874586 -1.4471762
-1.3164837 -1.0525413 0.067671254 -1.2626958 -1.581549 -1.0218008 -1.7171625 -1.5022509
-1.0269829 -2.0704584 -2.093728 0.04475244 -1.5203968 0.13273154 -0.96915257 -0.99550384
-1.0419011 2.9712496 0.110156104 -1.4021002 -0.833963 -0.98755103 -0.93621063 0.050572127
-1.5216866 -1.4877696 0.07276306 -0.54152495 -1.4290031 -1.4996716 -1.4945078 0.043179363
-0.78430504 -1.1648811 -1.2644994 -0.9923421 -1.2986829 -1.2784084 -1.1099437 -0.021963552
-1.4062569 -0.098993756 -1.231619 0.02155233 -1.2060757 -1.0612379 -1.5107232 -1.8591242

linear2.bias f4 [5]
00000000: 9f4a 72bf 0982 9dbf 1ee2 26be aa82 f03d
00000010: 039e 97bf
-0.9464511 -1.2305309 -0.16297194 0.11743672 -1.1845096
