examples/minecraft/model/model.pth (torch, 280384 bytes, 4 tensors)

linear1.weight f4 [4096, 12]
-0.52530396 0.04448573 0.27778482 0.27110955 0.18807442 0.018749127 0.2666888 0.3098198
-0.19406869 -0.004295688 -0.047372546 0.4910208 -0.22341013 0.027860729 0.030990046 0.35631096
-0.22774293 0.0922801 -0.014008472 -0.3119249 0.096691765 -0.55886585 0.16763392 0.1591996
-0.5909516 0.11295674 0.0505368 0.27241436 0.16913365 -0.5329309 -0.20389089 0.5271813
0.18425818 -0.11207274 -0.058306195 -0.04427261 -0.26264614 -0.34769586 -0.5375906 -0.5188498
-0.023610096 -0.20127508 0.10607674 -0.115281396 0.18076824 0.41700786 -0.10416645 0.30132088
-0.54337114 -0.20001745 0.22097537 -0.033091664 0.33156094 0.017116133 0.2123403 0.3134407
-0.14113228 0.23197266 -0.12808934 0.36877298 0.25333995 0.108730525 0.080828466 0.09377968
-0.24810041 0.062305894 0.14783762 0.15350565 0.18401498 0.23179342 -0.3327296 0.027700344
0.2674656 0.4603505 -0.18647243 0.021178383 0.33099952 0.29408184 -0.003130211 0.0108186975
0.21847767 -0.13126221 -0.18153194 0.03796275 0.28194702 0.21544279 0.2634073 0.17714506
-0.12677029 0.12660405 0.05089522 -0.33082443 -0.27275422 0.21412875 -0.16196309 -0.33714598
0.30157447 0.24892846 -0.32130742 0.21865018 0.20451814 -0.25091097 -0.16628009 -0.18696938
-0.22770478 -0.23758556 0.24485551 -0.19604528 -0.30917382 0.044939242 0.064195275 -0.09194233
0.33125508 0.06478459 -0.4352904 0.07672999 -0.59337246 0.37332273 -0.09995365 -0.16447632
-0.060137786 -0.57603616 -0.02352189 0.0038831525 0.20014498 0.048039816 0.09831412 0.42187366
-0.00075831014 0.22596756 0.28593773 -0.08572421 0.20839605 0.6016095 -0.24449252 -0.08117995
0.29378682 -0.030033125 -0.19693577 0.08804832 -0.11891739 -0.04369091 -0.20325059 0.09001934
-0.47403443 -0.5141024 0.011494062 0.0599049 0.2651831 0.3104203 0.24442206 0.22844668
-0.3388622 0.020486172 0.045196604 0.24264148 0.10968901 -0.29408395 -0.17096497 -0.31869805
0.11394932 -0.3301926 0.29064563 0.59206736 0.25635636 0.19697553 0.29432958 -0.7099411
-0.4678429 0.14310336 0.17479756 0.08659011 -0.06141808 -0.022890054 0.08709705 0.18055448
-0.011374617 0.06982289 -0.06602005 0.30265206 0.3232751 0.0021055145 0.1160011 -0.32942712
0.021838322 -0.21541347 -0.09137258 0.1803304 0.41583103 -0.0021356973 -0.05164329 0.40935466
-0.37755543 0.025002412 0.26489106 0.29832605 0.06758682 -0.3774476 -0.020182502 0.13652728
-0.19195001 -0.035878204 -0.1478197 0.18569146 0.35211194 0.4011738 0.21518523 -0.44949734
-0.054088615 0.33353665 -0.14579366 0.21593463 0.025787335 -0.28849262 -0.044884685 0.19753452
-0.079493485 2.8396782e-05 0.007528599 0.27141073 0.19178434 -0.6884786 -0.32517987 0.43102932
0.124199875 0.1741604 -0.25937054 0.42251348 0.019078342 0.27596876 0.12349132 -0.007355624
0.2791654 -0.16366899 -0.19521207 -0.24653913 -0.18145078 0.19649436 0.17099778 -0.09740858
0.19419987 0.04814941 0.27304024 0.0055405456 0.014600525 0.16165002 0.031995792 -0.25323728
-0.32078278 0.25693288 -0.14041308 -0.32978052 -0.12681532 -0.24724002 -0.09342229 -0.07519501
00000000: 527a 06bf ab36 363d d039 8e3e dfce 8a3e
00000010: 9596 403e c597 993c 6f8b 883e b3a0 9e3e
00000020: f1b9 46be d8c2 8cbb b709 42bd 1467 fb3e
00000030: a0c5 64be 2f3c e43c d6de fd3c 646e b63e
00000040: 7135 69be 59fd bc3d ca83 65bc 9fb4 9fbe
00000050: 5506 c63d d511 0fbf 3aa8 2b3e 3805 233e
00000060: 9b48 17bf dd55 e73d adff 4e3d e579 8b3e
00000070: 5f31 2d3e 296e 08bf c6c8 50be 5bf5 063f
00000080: 2dae 3c3e 6586 e5bd 7ad2 6ebd 3257 35bd
00000090: 8e79 86be 3105 b2be 8a9f 09bf 57d3 04bf
000000a0: f669 c1bc 0e1b 4ebe c33e d93d a718 ecbd
000000b0: 4f1b 393e 0e82 d53e 3855 d5bd bb46 9a3e
000000c0: 5f1a 0bbf 60d1 4cbe 5e47 623e 208b 07bd
000000d0: 5bc2 a93e 2237 8c3c bc6f 593e 4d7b a03e
000000e0: fb84 10be 3e8a 6d3e da29 03be d0cf bc3e
000000f0: c6b5 813e 1cae de3d 6589 a53d 900f c03d
00000100: 090e 7ebe 7734 7f3d bf62 173e 9630 1d3e
00000110: 6c6e 3c3e 415b 6d3e 895b aabe d5eb e23c
00000120: 40f1 883e 10b3 eb3e a1f2 3ebe 4a7e ad3c
00000130: c578 a93e e591 963e 3a24 4dbb e840 313c
00000140: 9cb8 5f3e 9a69 06be 82e3 39be d47e 1b3d
00000150: 5c5b 903e 099d 5c3e 52dd 863e 8465 353e
00000160: 12d0 01be 7ea4 013e 8277 503d d261 a9be
00000170: 71a6 8bbe 9144 5b3e a7d9 25be 669e acbe
00000180: f867 9a3e 1ae7 7e3e 6882 a4be d5e5 5f3e
00000190: 346d 513e 6777 80be 5445 2abe e774 3fbe
000001a0: 712b 69be a149 73be 67bb 7a3e 18c0 48be
000001b0: 084c 9ebe 3612 383d d078 833d 434c bcbd
000001c0: 449a a93e c8ad 843d 62de debe 9d24 9d3d
000001d0: 42e7 17bf 2824 bf3e 80b4 ccbd 7b6c 28be
000001e0: 0a53 76bd 1b77 13bf fbb0 c0bc 7d7c 7e3b
000001f0: cef2 4c3e 66c5 443d ea58 c93d d3ff d73e
00000200: 55c9 46ba 0a64 673e 6e66 923e 2d90 afbd
00000210: c665 553e 1503 1a3f 3f5c 7abe ac41 a6bd
00000220: 3a6b 963e 0708 f6bc 88a9 49be ad52 b43d
00000230: f68a f3bd 3df5 32bd ec20 50be 0f5c b83d
00000240: a4b4 f2be 379c 03bf 9751 3c3c d75e 753d
00000250: 14c6 873e 69ef 9e3e c749 7a3e eded 693e
00000260: 597f adbe 9ed2 a73c 1320 393d 0277 783e
00000270: a2a4 e03d 2c92 96be 7111 2fbe 642c a3be
00000280: 435e e93d 010f a9be 81cf 943e ba91 173f
00000290: 2441 833e f4b3 493e 5eb2 963e b3be 35bf
000002a0: 1b89 efbe b089 123e 22fe 323e 2856 b13d
000002b0: 8691 7bbd ec83 bbbc f05f b23d 46e3 383e
000002c0: 9a5c 3abc 4eff 8e3d 8535 87bd 36f5 9a3e
000002d0: 5084 a53e acfc 093b fc91 ed3d acaa a8be
000002e0: 48e6 b23c 5995 5cbe 8c21 bbbd 88a8 383e
000002f0: cee7 d43e 0ef7 0bbb ea87 53bd ef96 d13e
00000300: f24e c1be dcd1 cc3c cd9f 873e 31be 983e
00000310: f56a 8a3d d040 c1be c655 a5bc cfcd 0b3e
00000320: 8b8e 44be 06f5 12bd 0c5e 17be e725 3e3e
00000330: 0448 b43e a766 cd3e 8459 5c3e 8424 e6be
00000340: 068c 5dbd 51c5 aa3e ef4a 15be f81d 5d3e
00000350: f63f d33c 4eb5 93be 01d9 37bd 7d46 4a3e
00000360: 7bcd a2bd a035 ee37 77b2 f63b 59f6 8a3e
00000370: 1d63 443e 2240 30bf fa7d a6be e0af dc3e
00000380: 815c fe3d 1b57 323e 37cc 84be b053 d83e
00000390: 2f4a 9c3c c74b 8d3e 04e9 fc3d 7207 f1bb
000003a0: c4ee 8e3e d898 27be ace5 47be c174 7cbe
000003b0: 3cce 39be d135 493e 0b1a 2f3e 267e c7bd
000003c0: 55dc 463e 5138 453d eecb 8b3e 778d b53b
000003d0: 0a37 6f3c 9587 253e 050e 033d 51a8 81be
000003e0: a43d a4be b58c 833e 72c8 0fbe fed8 a8be
000003f0: e0db 01be 7d2c 7dbe 3054 bfbd d7ff 99bd

linear1.bias f4 [4096]
0.36060056 0.16560726 -0.026221331 0.28375247 0.26666453 0.089453 0.013099794 -0.19015099
-0.17721334 0.4157936 0.3740831 -0.13504513 0.43634275 -0.12284279 0.3652054 -0.22402725
0.4189506 0.08967669 -0.060608346 0.07534471 -0.113391705 0.31131718 0.4684905 0.349066
0.08786506 -0.2522899 0.067668185 -0.05547196 0.15101829 -0.20300718 -0.027961235 0.09375861
0.10924364 0.11346415 0.26542258 0.3135272 -0.25465724 -0.06078482 0.27311844 -0.03101454
-0.2670797 0.076791346 0.22250348 0.27744576 0.25836316 -0.15952246 -0.24008389 0.34951448
-0.05611536 0.3049232 0.40068623 0.18880469 0.15611605 0.17126475 0.4036984 0.3968124
0.19342284 0.21277757 0.35115612 -0.17785205 0.097748004 0.049687497 -0.15882412 0.15910429
-0.16201049 -0.16193764 -0.025197424 0.33243993 -0.27928543 -0.12000677 0.28679124 -0.13829336
-0.03542132 0.1610085 0.036027856 0.45900342 0.35544062 0.22619854 0.3815194 0.17298494
0.006300227 -0.19914763 -0.03744852 0.42252555 0.11520006 -0.07999367 0.40593356 0.29775923
0.048441608 0.1376114 0.13859798 0.04554924 -0.09845408 0.3693948 0.28771132 0.041532215
0.32405597 0.19144122 -0.049622625 0.45520425 0.37389573 0.04477341 0.46488968 0.3257573
0.20797773 0.07703748 -0.13339736 0.2464243 -0.25522494 0.3208717 0.18644388 0.4347503
0.17080995 0.19819881 0.06431878 -0.03618577 0.10044069 0.1251063 0.0026916359 -0.18809201
-0.13387413 -0.0021975774 0.35395718 -0.24491142 -0.04580956 -0.06589686 0.19143641 -0.108546615
0.4664906 -0.025282443 0.34589484 0.02481255 0.42571518 -0.07587158 -0.11441268 0.34395584
-0.009835482 0.32559285 -0.07121186 0.13710783 0.0880015 0.6795279 -0.3636345 0.4284734
0.16972841 -0.019889137 0.22163673 0.3831526 0.358203 -0.22858612 0.18253654 0.13451846
0.35314003 0.36669204 0.37154275 -0.21740036 -0.16555826 0.42170662 -0.22763188 -0.09357376
-0.21318229 0.17164065 -0.026073188 0.06207434 0.28170797 0.19061624 0.2147294 0.024247123
0.33364242 0.22220819 0.2628977 0.24801616 0.24259686 -0.2851128 -0.12780462 0.22401372
-0.15762964 0.36921003 0.1323944 0.011634798 -0.009990014 0.22798438 -0.14863062 0.037402496
0.115349285 0.084682636 -0.11417337 0.22039881 -0.10828419 -0.33266282 0.3884452 -0.10881395
-0.24781065 0.29424107 -0.012776555 0.055673383 0.40860888 -0.021285197 0.28903782 0.017093254
0.3467518 -0.30929136 -0.006400683 -0.17866257 0.42924345 -0.017372888 0.07178346 -0.07862359
0.12866709 0.40615496 -0.021541279 0.5091212 0.39379665 -0.115755185 0.37876323 -0.06792301
0.14328526 -0.1956437 -0.15777689 0.25399992 0.096531644 0.46404487 0.17438431 -0.03919534
0.14892417 0.08952086 0.21641015 -0.21519233 0.32564664 0.40391967 0.31853124 -0.026822083
0.35477442 -0.1491544 -0.34605256 0.11013758 0.31636453 0.4016631 0.15669554 0.44119838
0.10582543 -0.028768832 -0.14488865 -0.3118272 0.04947311 -0.10317609 -0.060063295 -0.15763757
-0.25875315 0.44985422 0.3951202 0.34126103 -0.049296834 0.4367457 0.37229648 0.13139501
00000000: a3a0 b83e f394 293e 1ece d6bc 0148 913e
00000010: 4188 883e 2233 b73d 85a0 563c f1b6 42be
00000020: 6a77 35be e6e2 d43e d287 bf3e 4549 0abe
00000030: 5168 df3e 0095 fbbd 34fc ba3e 6667 65be
00000040: b180 d63e 6aa8 b73d 7540 78bd 544e 9a3d
00000050: e939 e8bd f764 9f3e fddd ef3e c7b8 b23e
00000060: 99f2 b33d 242c 81be 9e95 8a3d 9136 63bd
00000070: 8aa4 1a3e 1de1 4fbe f60e e5bc 8404 c03d
00000080: 21bb df3d e45f e83d 78e5 873e a386 a03e
00000090: 6f62 82be 81f9 78bd 2ed6 8b3e 3412 febc
000000a0: acbe 88be c844 9d3d f4d7 633e 5f0d 8e3e
000000b0: 2d48 843e db59 23be 8dd8 75be 90f3 b23e
000000c0: 38d9 65bd e51e 9c3e bf26 cd3e 0456 413e
000000d0: e3dc 1f3e 0760 2f3e 8fb1 ce3e ff2a cb3e
000000e0: a310 463e 5de2 593e bcca b33e d91e 36be
000000f0: 1b30 c83d 1e85 4b3d caa2 22be 3cec 223e
00000100: 14e6 25be fbd2 25be d46a cebc 9135 aa3e
00000110: 80fe 8ebe 1cc6 f5bd 4dd6 923e c69c 0dbe
00000120: f215 11bd 6adf 243e f291 133d 7f02 eb3e
00000130: 50fc b53e 97a0 673e 8356 c33e f722 313e
00000140: 2272 ce3b 5bed 4bbe 9f63 19bd 4555 d83e
00000150: 02ee eb3d b9d3 a3bd 86d6 cf3e e673 983e
00000160: b56a 463d 01ea 0c3e a1ec 0d3e d791 3a3d
00000170: 4ba2 c9bd 5121 bd3e e64e 933e af1d 2a3d
00000180: aaea a53e 2b09 443e 1841 4bbd 8810 e93e
00000190: 436f bf3e 5364 373d 0506 ee3e a9c9 a63e
000001a0: 1df8 543e d4c5 9d3d 5199 08be a756 7c3e
000001b0: d8ac 82be 4c49 a43e 25eb 3e3e 9797 de3e
000001c0: cee8 2e3e a1f4 4a3e 91b9 833d 8837 14bd
000001d0: d9b3 cd3d de1b 003e 2866 303b 319b 40be
000001e0: 4d16 09be 3b05 10bb e039 b53e 0fca 7abe
000001f0: cea2 3bbd eff4 86bd e807 443e b04d debd
00000200: dbd7 ee3e 201d cfbc 2119 b13e b043 cb3c
00000210: 57f7 d93e 8f62 9bbd 3251 eabd fb1a b03e
00000220: 0025 21bc 1bb4 a63e 86d7 91bd ff65 0c3e
00000230: 213a b43d 8af5 2d3f 4d2e babe de60 db3e
00000240: 49cd 2d3e 8bee a2bc bdf4 623e 942c c43e
00000250: 6266 b73e 7b12 6abe dcea 3a3e 35bf 093e
00000260: c5ce b43e 0fbf bb3e da3a be3e 339e 5ebe
00000270: 1b88 29be eee9 d73e 5518 69be 99a3 bfbd
00000280: 754c 5abe 91c2 2f3e 7097 d5bc aa41 7e3d
00000290: 073c 903e e730 433e 06e2 5b3e e7a1 c63c
000002a0: 2ed3 aa3e 8b8a 633e 879a 863e f3f7 7d3e
000002b0: 506b 783e 4efa 91be 37df 02be da63 653e
000002c0: aa69 21be 1909 bd3e 6692 073e e19f 3e3c
000002d0: 28ad 23bc bd74 693e a032 18be 5c33 193d
000002e0: 3f3c ec3d 176e ad3d bad3 e9bd 3ab0 613e
000002f0: 1ac4 ddbd c852 aabe 4ae2 c63e d9d9 debd
00000300: 13c2 7dbe c4a6 963e c154 51bc c609 643d
00000310: 2f35 d13e 4b5e aebc c4fc 933e 2707 8c3c
00000320: 7489 b13e 705b 9ebe d2bc d1bb 52f3 36be
00000330: ccc5 db3e 9651 8ebc 3503 933d 6805 a1bd
00000340: 4ec1 033e 8bf3 cf3e 5677 b0bc c455 023f
00000350: b79f c93e 0e11 edbd 41ed c13e 381b 8bbd
00000360: 5fb9 123e d256 48be 4490 21be 470c 823e
00000370: 62b2 c53d 4a97 ed3e cd91 323e 4b8b 20bd
00000380: 947f 183e b656 b73d 9f9a 5d3e 615b 5cbe
00000390: 28bb a63e 8fce ce3e 8716 a33e fcb9 dbbc
000003a0: fea4 b53e eebb 18be cd2d b1be d08f e13d
000003b0: 88fa a13e c9a6 cd3e cc74 203e c1e4 e13e
000003c0: 01bb d83d 9dac ebbc b15d 14be d1a7 9fbe
000003d0: 51a4 4a3d fc4d d3bd ee04 76bd be6b 21be
000003e0: 4b7b 84be 4b53 e63e 324d ca3e c4b9 ae3e
000003f0: 7aeb 49bd 229d df3e a59d be3e 6a8c 063e

linear2.weight f4 [4, 4096]
-0.017093467 0.3894245 -0.03609701 0.3084459 -0.056568507 -0.079422444 -0.078276694 -0.09761406
-0.034915816 0.002074416 0.057164896 -0.09771903 0.052193727 0.24220888 -0.033594333 0.08863303
0.041440573 -0.022848846 0.07429451 -0.046826344 -0.008075335 0.033998385 0.020741502 0.02367092
-0.04889514 0.16487812 -0.030687628 -0.13462213 -0.02722061 0.010797922 -0.045547258 0.002736966
0.05165324 0.20242265 0.09032932 0.104134426 0.13581821 0.012390349 0.014589851 0.03202647
-0.11242652 0.08294742 0.1924477 -0.004427579 -0.027693735 -0.03221389 -0.01626156 -0.006761966
-0.045861598 -0.008339585 0.015403098 0.04084296 0.24315046 0.052420236 0.09838873 0.16865592
0.0876634 0.028357627 0.41085312 -0.1139359 0.117308825 0.035357855 -0.0378676 0.12536334
0.055165514 -0.09703507 0.0057093916 0.107092105 0.18720648 0.08035394 -0.026709331 0.03326862
0.17718548 0.044268917 -0.04451354 0.17426616 -0.03330153 0.020856654 0.07070003 -0.04343641
0.14216535 -0.060384825 -0.043025587 -0.01996463 0.09509877 0.012167727 0.036747586 0.13316578
0.07232927 0.040683426 0.045849536 -0.02901939 0.03833833 0.012864209 -0.022438237 -0.008406084
0.06171915 0.24940823 0.11808783 0.15548645 0.12127338 0.1690059 0.34332582 0.14868632
0.018892141 0.014495205 -0.05856786 -0.033441465 0.027985185 0.1326043 -0.041512284 0.05347256
0.284345 0.06598629 0.015712155 0.08707499 -0.06001902 -0.02327989 0.1791597 0.0759702
0.058378294 0.19574463 -0.06402667 -0.12795475 -0.0033174318 -0.088143304 -0.04932435 -0.093416266
0.008582427 0.18313296 0.13159116 0.22186549 0.05717336 0.010600237 0.029380241 0.1909832
-0.09063698 -0.021153176 -0.099192075 -0.043882422 -0.08182309 -0.03656824 0.041499052 0.12278286
-0.028876878 -0.07848584 0.27959496 0.3533436 -0.085357375 -0.0046319496 0.020476071 -0.027163649
0.0011986016 0.024930572 0.13951835 -0.046333827 0.0014355393 0.035548337 -0.11374036 0.2507846
-0.08914842 0.33487174 0.14720963 -0.10308343 0.122788064 0.13064542 -0.04203511 0.009704299
0.1963147 -0.07993042 0.12875006 0.11378447 0.0495524 -0.006489415 -0.0876261 -0.1358988
-0.05844329 0.05285388 0.23108754 -0.0709279 0.03652766 0.03207771 0.24636765 0.046044175
-0.018312575 -0.051686443 -0.12629125 0.008234506 -0.11387455 -0.06263831 0.1142276 -0.07861808
0.10057844 0.0296547 0.09779776 -0.010115054 0.01221317 -0.0026816668 0.059486482 0.05200896
0.3549378 -0.073197894 -0.09005286 -0.052892003 0.04772277 -0.07472055 0.37758517 0.2702223
-0.0027036904 -0.015767008 -0.029396547 -0.078010164 0.25021142 -0.004293721 0.00090544217 -0.12500432
-0.050319646 -0.096153945 0.14822894 0.036285937 0.028227612 0.023434477 0.123575434 -0.09364032
0.109935224 0.0043974137 0.14231509 -0.12133128 0.21708532 0.004243036 0.06095054 0.097898535
0.1035733 -0.017479597 -0.019473685 -0.049871147 0.055921 0.34149057 0.00738314 0.16804908
0.24622464 -0.081977144 -0.062131803 -0.02960468 0.07705885 -0.12906262 -0.08048734 -0.0453044
-0.15796366 0.11940531 0.084093906 0.30658358 -0.031455234 0.014908674 0.07109351 0.05060846
00000000: 9907 8cbc a662 c73e 75da 13bd 9fec 9d3e
00000010: 61b4 67bd 3ca8 a2bd 884f a0bd e1e9 c7bd
00000020: e303 0fbd edf2 073b bd25 6a3d ea20 c8bd
00000030: 17c9 553d 9b05 783e 369a 09bd 3c85 b53d
00000040: 97bd 293d 812d bbbc b827 983d fbcc 3fbd
00000050: 694e 04bc e441 0b3d 15ea a93c 84e9 c13c
00000060: 4546 48bd cfd5 283e 9f64 fbbc 62da 09be
00000070: c2fd debc c4e9 303c c38f 3abd ab5e 333b
00000080: 5992 533d e247 4f3e 94fe b83d 6e44 d53d
00000090: ee13 0b3e e400 4b3c 450a 6f3c 302e 033d
000000a0: e03f e6bd 56e0 a93d 0311 453e 3a15 91bb
000000b0: f9dd e2bc b6f2 03bd f736 85bc 7b93 ddbb
000000c0: 5fd9 3bbd c1a2 08bc 475d 7c3c f34a 273d
000000d0: 6ffc 783e 9ab6 563d 0880 c93d 23b4 2c3e
000000e0: de88 b33d 414e e83c 575b d23e 3a57 e9bd
000000f0: 9c3f f03d 66d3 103d 0e1b 1bbd 3f5f 003e
00000100: 3cf5 613d 53ba c6bd d915 bb3b 1b53 db3d
00000110: 0eb3 3f3e 9b90 a43d 87cd dabc ad44 083d
00000120: 1c70 353e 5353 353d d453 36bd d472 323e
00000130: 2f67 08bd 93db aa3c 2dcb 903d 61ea 31bd
00000140: cb93 113e 1456 77bd 993b 30bd dd8c a3bc
00000150: 25c3 c23d 255b 473c a384 163d 9c5c 083e
00000160: 5e21 943d aaa3 263d b9cc 3b3d 12ba edbc
00000170: a708 1d3d 67c4 523c 65d0 b7bc acb9 09bc
00000180: 38cd 7c3d df64 7f3e 08d8 f13d d737 1f3e
00000190: 2e5e f83d e20f 2d3e 67c8 af3e 3a41 183e
000001a0: b1c3 9a3c 4c7d 6d3c dae4 6fbd ebf9 08bd
000001b0: 3041 e53c 6cc9 073e c908 2abd 0b06 5b3d
000001c0: ab95 913e d223 873d c7b6 803c 5f54 b23d
000001d0: 81d6 75bd 78b5 bebc a475 373e 4496 9b3d
000001e0: 141e 6f3d 4871 483e 6a20 83bd 9206 03be
000001f0: 4569 59bb 7a84 b4bd 5408 4abd 0751 bfbd
00000200: 4f9d 0c3c 3587 3b3e d5bf 063e b530 633e
00000210: 9d2e 6a3d 9eac 2d3c d5ae f03c 1a91 433e
00000220: e29f b9bd 6d49 adbc 3725 cbbd 0ebe 33bd
00000230: dd92 a7bd 94c8 15bd e9fa 293d 9575 fb3d
00000240: 348f ecbc 2fbd a0bd 1227 8f3e 74e9 b43e
00000250: d9cf aebd 9cc7 97bb 6fbd a73c 4d86 debc
00000260: 651a 9d3a 333b cc3c e6dd 0e3e 8ac8 3dbd
00000270: b528 bc3a 229b 113d b5f0 e8bd d766 803e
00000280: 7293 b6bd 4f74 ab3e 1fbe 163e 681d d3bd
00000290: 4f78 fb3d eac7 053e 022d 2cbd c8fe 1e3c
000002a0: b906 493e 8fb2 a3bd 0ed7 033e d507 e93d
000002b0: 75f7 4a3d 29a5 d4bb 5075 b3bd 0e29 0bbe
000002c0: 3b62 6fbd 4f7d 583d 36a2 6c3e a642 91bd
000002d0: 079e 153d eb63 033d cd47 7c3e d198 3c3d
000002e0: 4104 96bc 2ab5 53bd 7e52 01be 05ea 063c
000002f0: 0f37 e9bd 8448 80bd 29f0 e93d 8402 a1bd
00000300: 12fc cd3d 6aee f23c 314a c83d 9db9 25bc
00000310: bf19 483c e7be 2fbb 19a8 733d 5907 553d
00000320: 68ba b53e c7e8 95bd a26d b8bd 49a5 58bd
00000330: f478 433d 1607 99bd d852 c13e 945a 8a3e
00000340: 6630 31bb d029 81bc 07d1 f0bc cbc3 9fbd
00000350: b61b 803e 58b2 8cbb 325b 6d3a 2201 00be
00000360: f91b 4ebd 5cec c4bd 54c9 173e 90a0 143d
00000370: 983d e73c a9f9 bf3c 1e15 fd3d 7fc6 bfbd
00000380: b825 e13d 2e18 903b 0cbb 113e 897c f8bd
00000390: 9d4b 5e3e 2a09 8b3b 46a7 793d 077f c83d
000003a0: 3d1e d43d 5f31 8fbc 4787 9fbc b045 4cbd
000003b0: 6b0d 653d dad7 ae3e 44ee f13b 0f15 2c3e
000003c0: 5022 7c3e a2e3 a7bd eb7d 7ebd 8485 f2bc
000003d0: 08d1 9d3d fe28 04be 8cd6 a4bd 1b91 39bd
000003e0: 3ac1 21be c58a f43d 6d39 ac3d 86f8 9c3e
000003f0: 34d7 00bd 8343 743c 7999 913d d14a 4f3d

linear2.bias f4 [4]
0.069767 0.08436733 0.14633012 -0.0448857
00000000: 00e2 8e3d c7c8 ac3d 90d7 153e 11da 37bd
