examples/minecraft/model/model3.pth (torch, 6720 bytes, 4 tensors)

linear1.weight f4 [64, 13]
0	0x3f166a9f	0.5875644
1	0xbe11d049	-0.1423961
2	0x3f372cea	0.7155291
3	0xbec21818	-0.37909007
4	0x3edba068	0.42895818
5	0xbe58b539	-0.21162881
6	0x3e9e9401	0.30972293
7	0x3e9babd9	0.30404547
8	0xbe02a92d	-0.12759848
9	0x3e753ae0	0.2394824
10	0x3ec24aa8	0.37947583
11	0x3f0d3da2	0.5517217
12	0xbe6d77d4	-0.23190242
13	0x3ee9d79a	0.45672303
14	0x3eb9bca7	0.36276743
15	0xbcdab2ad	-0.026696527
16	0x3ed35241	0.41273692
17	0x3e1ce580	0.15321922
18	0x3e945fa9	0.28979233
19	0x3e390053	0.1806653
20	0x3f0d6069	0.55225235
21	0x3f3eb5ba	0.7449604
22	0xbdd7d7d4	-0.10539213
23	0x3f09571b	0.5364854
24	0x3dfb735b	0.12277862
25	0x3dd04d35	0.10170976
26	0xbe7eef28	-0.24895918
27	0x3f2bfaf7	0.67179817
28	0xbc260721	-0.010133536
29	0x3d7de4c8	0.06198576
30	0xbed32165	-0.41236416
31	0x3f0a3166	0.53981626
32	0xbeb25fb8	-0.34838653
33	0xbf1018f1	-0.5628806
34	0x3dd764d3	0.105172776
35	0x3e73239c	0.23744053
36	0x3e03fdc2	0.1288977
37	0xbe92cd2c	-0.2867216
38	0xbe432576	-0.19057259
39	0xbed72836	-0.42022866
40	0x3f89f85f	1.0778922
41	0xbd642193	-0.05569608
42	0x3f14d9f1	0.5814505
43	0x3d8b3716	0.06797616
44	0x3e471ca9	0.19444527
45	0x3e8458ab	0.25848898
46	0xbf067ea6	-0.52537
47	0xbeab86da	-0.3350132
48	0x3e963672	0.29338413
49	0x3e5983e5	0.2124172
50	0xbeae3deb	-0.34031615
51	0x3e9bbb7f	0.30416486
52	0xbe1ede86	-0.15514573
53	0xbe569130	-0.20953822
54	0x3cb66820	0.022266448
55	0xbe820ee6	-0.25401992
56	0xbe0ad1e8	-0.13556635
57	0xbe848cb8	-0.2588861
58	0xbd94e0b8	-0.07269424
59	0xbbbb4600	-0.0057151318
60	0xbda6489c	-0.08119318
61	0xbe5e3554	-0.2170003
62	0xbb666c80	-0.0035159886
63	0xbdfdcbf2	-0.12392415
64	0x3e0dd220	0.13849688
65	0xbdb2b53e	-0.087259755
66	0x3f705d69	0.9389253
67	0xbe8c2c3d	-0.273775
68	0x3e9ca117	0.30591652
69	0x3e37f688	0.17965138
70	0x3efb13e0	0.490386
71	0x3e773d12	0.2414439
72	0xbf0737e7	-0.52819675
73	0xbe5bf349	-0.21479525
74	0x3eec4c34	0.46151888
75	0x3ddee116	0.108827755
76	0xbea39db4	-0.31956255
77	0x3e6e21b7	0.23255049
78	0x3f39289b	0.72327584
79	0x3d7c6881	0.0616231
80	0x3f465f29	0.7748895
81	0xbe62e4b1	-0.22157551
82	0x3e7c8de7	0.24663506
83	0xbd69720c	-0.05699353
84	0x3f2fe186	0.68703496
85	0x3f9ef9a0	1.241993
86	0x3ed240d5	0.41065088
87	0x3f1bb2f4	0.60819936
88	0x3eb7da73	0.3590885
89	0x3f591f02	0.8481294
90	0x3d9cb8d3	0.0765244
91	0x3e2af9bb	0.16696827
92	0x3ec0051a	0.37503892
93	0x3e2d4393	0.16920309
94	0x3f116eb6	0.56809556
95	0x3e387e3a	0.18016902
96	0x3e0fd620	0.14046526
97	0xbe2743e2	-0.16334489
98	0xbe11078f	-0.1416304
99	0x3d3c3f51	0.04595882
100	0xbb6640f7	-0.0035133937
101	0xbe5a03c2	-0.21290496
102	0xbdc97684	-0.09837058
103	0x3df57ec3	0.119870685
104	0xbe47e103	-0.19519429
105	0x3ecaf59b	0.39640507
106	0xbef8a6a2	-0.4856463
107	0x3f181fdd	0.5942362
108	0xbe41d052	-0.18927124
109	0x3e753ce3	0.23949008
110	0xbed5767d	-0.41691962
111	0xbecc0bf5	-0.39852872
112	0x3ebf2b65	0.37337795
113	0xbd740844	-0.059578195
114	0x3eb62b5b	0.35579953
115	0xbef1f09a	-0.47253877
116	0x3e84cf44	0.2593938
117	0x3e227f06	0.15868768
118	0xbc707ac0	-0.014677703
119	0xbce03b70	-0.027372092
120	0xbe4b985c	-0.19882339
121	0xbd869e62	-0.06573178
122	0xbe24a0ce	-0.16076967
123	0x3dd081fc	0.101810426
124	0xbb81b100	-0.0039578676
125	0x3df2c9b8	0.11854881
126	0xbddee15e	-0.10882829
127	0xbdd1af1e	-0.10238479
128	0xbd09b5cc	-0.03362064
129	0x3c792700	0.015207052
130	0x3ef7cd9a	0.4839905
131	0x3e3fe51e	0.18739745
132	0x3f4a9502	0.7913362
133	0xbe2de570	-0.16982055
134	0x3ee0de43	0.43919572
135	0x3ede7243	0.4344655
136	0x3f7bd9e6	0.9837936
137	0x3f8c79fa	1.0974724
138	0x3edba5a5	0.42899814
139	0x3f01fdd5	0.5077794
140	0x3f46e7cf	0.7769746
141	0x3edc65e1	0.43046477
142	0xbdf59e86	-0.119931266
143	0x3f466b59	0.7750755
144	0x3ee4ddce	0.44700474
145	0x3f840e33	1.0316833
146	0xbde11ac8	-0.10991436
147	0x3f368751	0.71300226
148	0x3edc5618	0.43034434
149	0x3f7a7486	0.9783405
150	0x3fb5408b	1.4160322
151	0x3f59d12c	0.85084796
152	0x3e3a4019	0.18188514
153	0x3ec9d577	0.39420673
154	0x3f93ea0e	1.1555803
155	0xbdaaab3a	-0.0833344
156	0x3f4488d0	0.7677126
157	0x3eafee85	0.34361663
158	0x3f235016	0.63794076
159	0xbe940c66	-0.2891571
160	0x3f5afa10	0.85537815
161	0x3ef09bc2	0.46993834
162	0x3f34137b	0.70342225
163	0x3fa7b8b9	1.3103248
164	0x3f69c96d	0.91322976
165	0x3e9e0778	0.30865073
166	0x3f1a4036	0.6025423
167	0x3f8a48ef	1.0803508
168	0xbe944d0b	-0.2896503
169	0x3f0b3211	0.5437327
170	0x3f10f979	0.56630665
171	0x3f00b201	0.5027161
172	0x3e4a72ae	0.1977031
173	0x3d095d01	0.03353596
174	0x3f1bb40f	0.6082162
175	0x3f899d6a	1.0751164
176	0x3f1c26cb	0.60996693
177	0x3f4dfe26	0.80465925
178	0x3e6a854a	0.22902408
179	0x3f43e45e	0.76520336
180	0x3e90f82b	0.28314337
181	0xbde29a90	-0.11064637
182	0x3bd2ca49	0.0064328057
183	0x3e86f927	0.26361963
184	0xbdee101b	-0.116241656
185	0x3ec6a31e	0.38796324
186	0xbeb0184e	-0.34393543
187	0xbd81cf8d	-0.06338415
188	0x3e426b85	0.18986328
189	0xbe3503ea	-0.17677274
190	0xbe30b0a8	-0.17254889
191	0x3d04d24c	0.032427117
192	0x3eab8c79	0.3350561
193	0xbeb188ad	-0.34674588
194	0x3e3bf20f	0.18354057
195	0x3f355e14	0.70846677
196	0x3d874228	0.06604415
197	0x3f16336e	0.58672225
198	0xbe5f54c0	-0.21809673
199	0x3f22217b	0.6333234
200	0x3d560d1f	0.052258607
201	0x3f7322a2	0.9497472
202	0x3f9f665f	1.2453116
203	0x3f3dd0e0	0.7414684
204	0x3eabc281	0.33546832
205	0x3e826e6b	0.25474867
206	0x3f6127ee	0.8795155
207	0xbda5511b	-0.0807211
208	0xbf0611e9	-0.5237108
209	0x3f896f4d	1.0737091
210	0x3d004f74	0.031325772
211	0x3e2f74ae	0.17134354
212	0x3e46f710	0.19430184
213	0xbd3142c0	-0.04327655
214	0x3e0b854b	0.13625066
215	0x3d2e2a2c	0.042520687
216	0xbe94aeb5	-0.2903954
217	0x3e936418	0.28787303
218	0x3e025f04	0.12731558
219	0xbe2a02a2	-0.16602567
220	0x3eb917c1	0.36150935
221	0x3f411e53	0.75436896
222	0x3e3ee106	0.18640527
223	0x3f49845b	0.78717583
224	0x3d3c2010	0.045929015
225	0x3ebbcc6b	0.36679396
226	0x3e3a133e	0.18171403
227	0x3f401687	0.75034374
228	0x3f83381e	1.0251501
229	0x3f3bb643	0.73324984
230	0x3eb0047e	0.34378427
231	0x3ecf3cf6	0.40476197
232	0x3f7e11fb	0.99246186
233	0xbe8348f1	-0.25641587
234	0x3f04976e	0.51793563
235	0xbbedd0d5	-0.0072575607
236	0x3f142db8	0.5788226
237	0xbe47c4a3	-0.19508605
238	0x3ee6eaf1	0.4510112
239	0xbd67001b	-0.056396585
240	0x3f76f0ee	0.9646138
241	0x3f86a830	1.0520077
242	0x3eb1aa68	0.34700322
243	0x3dc39407	0.09549718
244	0x3e6eb93d	0.2331285
245	0x3f64b396	0.89336526
246	0xbdd3c96f	-0.10341155
247	0x3f52ff46	0.82420766
248	0x3ebcf00f	0.369019
249	0x3f1fd369	0.6243196
250	0xbd8f19bb	-0.069873296
251	0x3f4cfd64	0.80074143
252	0x3f06944c	0.52570033
253	0x3f6e67d4	0.9312718
254	0x3fafe3e6	1.3741424
255	0x3f6eedd7	0.93331665

linear1.bias f4 [64]
0	0x3d898fa4	0.067168504
1	0x3dee217d	0.11627481
2	0x3f0f11fc	0.55886817
3	0x3dcf3174	0.10116854
4	0xbe367218	-0.17816961
5	0xbe41af9c	-0.18914646
6	0x3ef7fcbf	0.48435017
7	0xbd670d63	-0.05640925
8	0x3efe287c	0.49640262
9	0xbe6ddcc2	-0.23228744
10	0x3f3e5119	0.74342495
11	0x3f19f6c4	0.6014216
12	0x3e844749	0.25835636
13	0x3f46e698	0.7769561
14	0x3ebe1280	0.3712349
15	0x3efc6a5b	0.49299893
16	0xbe4bbe0d	-0.19896717
17	0x3f16c61b	0.58896035
18	0x3ea22727	0.31670496
19	0x3f0953a8	0.53643274
20	0x3e2634c9	0.16231073
21	0x3ed60b7e	0.41805643
22	0xbe449a92	-0.19199589
23	0x3f09a8e3	0.53773326
24	0x3f1e66e7	0.61875767
25	0x3ee1c332	0.44094235
26	0x3f27a131	0.65480334
27	0x3eac09a0	0.33601093
28	0x3ef1ffd0	0.47265482
29	0x3f1a34c1	0.60236746
30	0x3f1eab82	0.6198045
31	0x3f16bc05	0.58880645
32	0xbe1a4bb3	-0.1506794
33	0x3ee24786	0.44195193
34	0x3f07071d	0.5274523
35	0x3eaa5917	0.33271095
36	0x3edf5b93	0.43624553
37	0x3f3df4bf	0.7420158
38	0x3ed3e5bb	0.41386208
39	0xbde04b1a	-0.109518245
40	0x3edfaa61	0.43684676
41	0x3f15d8bc	0.58533835
42	0xbe0656b4	-0.13119012
43	0x3ee3e05d	0.44507113
44	0x3eb888db	0.36041912
45	0xbe015501	-0.12630083
46	0x3e418962	0.18900064
47	0x3e9c4487	0.30521032
48	0x3edf3da7	0.43601725
49	0xbe40c59b	-0.1882538
50	0x3e9de717	0.3084037
51	0x3e08c3bc	0.13355917
52	0x3eef176f	0.46697566
53	0x3d870104	0.065919906
54	0x3f3b5190	0.7317133
55	0x3f24dd54	0.6440022
56	0x3f142bcb	0.5787932
57	0x3e0bb8ea	0.13644758
58	0x3eaa0acd	0.33211365
59	0x3f28ad55	0.65889484
60	0x3ebb1789	0.36541393
61	0x3ecc6936	0.3992402
62	0xbe63be51	-0.22240569
63	0x3ef29bdc	0.47384536

linear2.weight f4 [5, 64]
0	0xbeba75e9	-0.36418083
1	0xbefe68b4	-0.49689257
2	0xbe33117f	-0.17487143
3	0xbc9c8590	-0.019106656
4	0xbd1b1bd4	-0.037868336
5	0x3dc7d7d6	0.09757964
6	0xbeee4b04	-0.46541607
7	0x3d75d2ba	0.060015418
8	0xbe0d84b8	-0.1382016
9	0x3cfa0918	0.030521914
10	0xbeed4d4b	-0.46348032
11	0xbef83654	-0.4847895
12	0xbf1c170a	-0.60972655
13	0xbec77a70	-0.389606
14	0xbe59323d	-0.2121057
15	0xbeef84f0	-0.4678111
16	0xbe30fd4c	-0.17284125
17	0xbf22eae8	-0.6363969
18	0xbec7f615	-0.39054933
19	0xbf1436ce	-0.57896125
20	0xbf1fd61f	-0.624361
21	0xbe9ed746	-0.31023616
22	0x3caab072	0.020836089
23	0xbe8792e0	-0.26479244
24	0xbe9eab8c	-0.30990255
25	0xbecc4d61	-0.39902785
26	0xbf04e359	-0.51909405
27	0xbe7bbc9f	-0.24583672
28	0xbf049a6e	-0.5179814
29	0xbf03aad2	-0.51432526
30	0xbe416a82	-0.18888286
31	0xbdae7e9e	-0.08520244
32	0x3d5cf6d0	0.053946316
33	0xbeb53086	-0.35388583
34	0xbf0beb1b	-0.5465562
35	0xbe46cfde	-0.19415233
36	0xbe73ec03	-0.238205
37	0xbf0b1c9d	-0.54340535
38	0xbee1632d	-0.44020978
39	0xbd4b0d9b	-0.049573522
40	0xbe826a50	-0.25471735
41	0xbef46e86	-0.47740573
42	0x3d88cffa	0.066802934
43	0xbe833cd1	-0.25632337
44	0xbe462a1c	-0.19352001
45	0xbe796c46	-0.2435771
46	0xbeca1718	-0.39470744
47	0xbf07c380	-0.53032684
48	0xbed560bc	-0.41675365
49	0xbd7607cc	-0.06006603
50	0xbed07409	-0.40713528
51	0xbe133fe7	-0.14379846
52	0xbe533a49	-0.20627703
53	0x3c570a87	0.0131250685
54	0xbeb74f14	-0.3580252
55	0xbf0c50b7	-0.5481066
56	0xbf068e83	-0.52561206
57	0xbf4064d5	-0.7515386
58	0xbdaa00bf	-0.083009236
59	0xbedc2d06	-0.430031
60	0xbf1bdf31	-0.6088744
61	0xbe1f3c30	-0.15550303
62	0x3d0fbafe	0.03509044
63	0xbef0622b	-0.46949896
64	0xbe9bd9f3	-0.3043972
65	0xbefee442	-0.49783522
66	0xbe406bd3	-0.18791132
67	0xbe9a42e4	-0.30129158
68	0x3d62763c	0.05528854
69	0xbe5fc235	-0.21851428
70	0xbefaf3ad	-0.49014035
71	0xbe4b533d	-0.19855972
72	0xbe745bdb	-0.23863165
73	0xbd640b84	-0.055675045
74	0xbef1fcbc	-0.47263134
75	0xbef145c5	-0.47123542
76	0xbef6f123	-0.48230848
77	0xbf012585	-0.50447875
78	0xbeefa36d	-0.4680437
79	0xbf0044a1	-0.5010472
80	0xbe825d3a	-0.2546175
81	0xbeba9117	-0.3643882
82	0xbf0476a3	-0.51743525
83	0xbf113e57	-0.5673575
84	0xbee9958f	-0.45621917
85	0xbec7bca0	-0.39011097
86	0x3bd5b7a0	0.006522134
87	0xbdc6199c	-0.09672853
88	0xbe3d2a52	-0.18473175
89	0xbde449c7	-0.111468844
90	0xbf130777	-0.57433265
91	0xbee65650	-0.44987726
92	0xbebc5c3c	-0.3678912
93	0xbefc58c4	-0.49286473
94	0xbe8495e8	-0.2589562
95	0xbdf6342b	-0.12021669
96	0xbcd36ba0	-0.025808156
97	0xbf14d384	-0.5813525
98	0xbeb94229	-0.3618329
99	0xbec27a5a	-0.37983972
100	0xbe8f741a	-0.28018266
101	0xbef3bad0	-0.47603464
102	0xbf001d1d	-0.50044423
103	0xbe235d16	-0.15953478
104	0xbe795d75	-0.24352057
105	0xbf0a18be	-0.53944004
106	0x3d8f8a5c	0.07008812
107	0xbe658db8	-0.22417343
108	0xbec7a1f1	-0.3899074
109	0xbe75cbaf	-0.2400348
110	0xbea5ab71	-0.32357362
111	0xbee89f04	-0.4543382
112	0xbef48bf5	-0.4776303
113	0xbd5ca37c	-0.05386685
114	0xbf06116e	-0.52370346
115	0xbe792b83	-0.24333005
116	0xbe223041	-0.1583872
117	0xbe75079c	-0.23928684
118	0xbf0372df	-0.51347154
119	0xbed9f17b	-0.42567047
120	0xbf01ed67	-0.5075287
121	0xbf01a6c2	-0.5064508
122	0xbee2f19a	-0.44324952
123	0xbf0c9928	-0.549212
124	0xbf0ad26b	-0.5422732
125	0xbe3e58d8	-0.18588579
126	0xbbc63990	-0.0060493425
127	0xbf06dcc8	-0.52680635
128	0x3dac0996	0.08400266
129	0xbf2326c6	-0.6373104
130	0x3e0ed7d6	0.13949522
131	0x3e801996	0.2501952
132	0xbd4fe3a4	-0.050754204
133	0xbbec70de	-0.0072156033
134	0xbecc3036	-0.39880532
135	0x3e6ce11d	0.23132749
136	0xbd882d01	-0.06649209
137	0xbda77c96	-0.0817806
138	0xbe83b316	-0.2572257
139	0xbefc3ccd	-0.49265137
140	0xbf2658f5	-0.6497949
141	0xbefa2b49	-0.4886115
142	0x3b69e6d8	0.0035690572
143	0xbee9b83e	-0.45648378
144	0x3e362697	0.17788158
145	0xbec1fb36	-0.3788697
146	0xbeb07b75	-0.3446919
147	0xbf2535c8	-0.6453519
148	0xbf28e4b3	-0.6597397
149	0xbee3d696	-0.44499654
150	0xbcf9172d	-0.030406559
151	0xbdbf33bc	-0.093360394
152	0x3e807eab	0.2509664
153	0x3daac0ec	0.08337578
154	0xbee512cf	-0.44740912
155	0xbcab1de2	-0.020888273
156	0xbf0c9605	-0.5491641
157	0xbeb2da55	-0.349322
158	0x3d76b386	0.0602298
159	0x3dabec2b	0.08394655
160	0xbdd26644	-0.10273412
161	0xbf1b3fd4	-0.6064427
162	0xbf0e3da8	-0.5556283
163	0xbdbfe659	-0.09370107
164	0xbe00b7cb	-0.12570111
165	0xbf0dffed	-0.55468637
166	0xbeb31cdb	-0.34982952
167	0x3dfae84f	0.122513406
168	0x3cf6c904	0.030125149
169	0xbf10853b	-0.56453294
170	0x3cf3b0b0	0.029747337
171	0xbdb70aa5	-0.08937577
172	0xbe51eaf9	-0.20499791
173	0x3d929dea	0.07159026
174	0xbedf7eee	-0.43651527
175	0xbed9fcf0	-0.42575788
176	0xbf1640e3	-0.5869276
177	0xbcfd5e78	-0.030928835
178	0xbf153838	-0.5828891
179	0x3d4cd0ef	0.050003942
180	0x3ef3b945	0.47602287
181	0xbbb0721f	-0.005384698
182	0xbe85bcc0	-0.26120567
183	0xbf14a7ca	-0.58068526
184	0xbf0f5418	-0.5598769
185	0xbf242d14	-0.64131284
186	0xbe379ce8	-0.17930949
187	0xbededdc6	-0.43528575
188	0xbf02c4de	-0.51081645
189	0x3dc972f8	0.09836382
190	0x3d532188	0.05154565
191	0xbee541c5	-0.4477674
192	0xbef8c46e	-0.48587364
193	0x3d5dc968	0.054147154
194	0x3f1d8ebd	0.61545926
195	0x3f028b52	0.50993836
196	0xbd83b012	-0.06430067
197	0x3f22f6bf	0.63657755
198	0xbeea1702	-0.4572068
199	0x3eb061c3	0.34449586
200	0x3f90784c	1.1286712
201	0xbdc122c2	-0.09430458
202	0xbea42c0a	-0.3206485
203	0xbf11c25e	-0.56937206
204	0xbf2a91c5	-0.66628677
205	0xbe1f450b	-0.15553682
206	0x3e4be5d6	0.19911894
207	0xbf2459b6	-0.6419939
208	0x3f1e02a8	0.61722803
209	0xbefd164f	-0.49431083
210	0xbf1f2c9c	-0.62177444
211	0xbf1f70cc	-0.6228149
212	0xbf337573	-0.7010109
213	0xbe07e6a0	-0.1327157
214	0xbe20ea52	-0.15714386
215	0x3f6d12bc	0.9260671
216	0x3f35cd97	0.7101683
217	0x3f8627d3	1.0480903
218	0xbed2902b	-0.41125616
219	0x3f115937	0.56776756
220	0xbebdeed2	-0.37096268
221	0xbebca68f	-0.36845824
222	0x3f588b5f	0.84587663
223	0x3f4965b6	0.78670824
224	0xbdefbff8	-0.11706537
225	0xbeff584e	-0.4987206
226	0xbf2cfcda	-0.6757332
227	0x3eb1a873	0.3469883
228	0x3f2e4b02	0.680832
229	0xbe93b76f	-0.28850886
230	0xbf4620b5	-0.77393657
231	0x3ca37d8a	0.019957323
232	0x3f185d56	0.5951742
233	0x3df63b59	0.120230384
234	0xbd897fb7	-0.06713813
235	0x3f2ea5ed	0.6822193
236	0x3d1323b1	0.03592271
237	0x3ec1a0ae	0.378179
238	0xbdcfc7ef	-0.10145556
239	0xbf3a6d33	-0.72822875
240	0xbf0347a7	-0.5128121
241	0xbdb570a6	-0.088593766
242	0xbf270a27	-0.65249866
243	0x3ed229ae	0.41047424
244	0x3f7952b4	0.9739182
245	0x3e0ffadc	0.14060539
246	0xbeab883a	-0.3350237
247	0xbf073380	-0.5281296
248	0xbf17c046	-0.5927776
249	0xbf1aeb27	-0.60515064
250	0x3ebd4b51	0.36971524
251	0xbf0a7391	-0.5408259
252	0xbf139eba	-0.5766407
253	0x3f45489a	0.77063906
254	0x3da8ed69	0.082484074
255	0xbf433951	-0.7625933

linear2.bias f4 [5]
0	0xbe4e3948	-0.20139039
1	0xbef76dfc	-0.483261
2	0xbe2a6f28	-0.16643965
3	0x3e15a687	0.14614306
4	0xbea994ed	-0.33121434
