examples/minecraft/model/model.pth (torch, 25408 bytes, 4 tensors)

linear1.weight f4 [256, 17]
0	0x3e5c9448	0.2154094
1	0x3e044968	0.12918627
2	0xbde0c724	-0.10975483
3	0x3dc2de28	0.09515029
4	0xbe59f662	-0.21285394
5	0x3e438f97	0.19097744
6	0x3e2111f5	0.15729506
7	0x3c21837a	0.009858007
8	0xbcb6e0ee	-0.022324052
9	0xbd88435e	-0.06653474
10	0x3d93b494	0.07212177
11	0xbe7051ce	-0.23468706
12	0x3d67360c	0.056448027
13	0x3e814b07	0.25252554
14	0x3e7201fd	0.23633571
15	0xbc48c5b0	-0.012254164
16	0x3eb1cff2	0.34728962
17	0x3ccd2960	0.025044143
18	0x3e01259c	0.12612003
19	0xbe64642b	-0.22303836
20	0xbe779597	-0.24178158
21	0x3d8843fc	0.06653592
22	0xbe11d9cf	-0.14243244
23	0x3d0a7a2f	0.03380793
24	0x3e7f220b	0.2491533
25	0x3bc4c5b5	0.006005014
26	0xbe441ca2	-0.19151548
27	0x3dc5b220	0.09653115
28	0xbdaf4e6d	-0.085598804
29	0xbdc4657f	-0.09589671
30	0x3d0c55a7	0.034261372
31	0xbe3e8efc	-0.18609232
32	0x3e1e51be	0.1546087
33	0x3e2d356d	0.16914912
34	0xbe60f62e	-0.2196891
35	0xbe64d988	-0.22348607
36	0x3e1c125a	0.15241376
37	0xbe62e61d	-0.22158094
38	0xbe39eca0	-0.18156672
39	0xbe35fa26	-0.17771205
40	0x3b852e15	0.0040643313
41	0xbe558e40	-0.20855045
42	0xbe15af8e	-0.1461775
43	0xbe681152	-0.22662857
44	0x3d88ebe8	0.066856205
45	0xbe55fdb6	-0.20897564
46	0x3e873df4	0.26414454
47	0x3d7622c0	0.060091734
48	0x3d4ac238	0.049501628
49	0xbd14615c	-0.03622566
50	0xbceb9a3b	-0.028760066
51	0x3c125220	0.008930713
52	0x3e509268	0.2036835
53	0xbd16446c	-0.036686346
54	0x3dc37b74	0.09545031
55	0xbd2bc9c4	-0.041940466
56	0x3e4a5da0	0.19762278
57	0xbe2ec4c9	-0.17067255
58	0x3cb393ea	0.021921117
59	0x3e2dd57e	0.16975972
60	0xbdcac280	-0.09900379
61	0xbe866d8c	-0.26255453
62	0x3db69c3b	0.08916517
63	0x3db1cea3	0.08681991
64	0x3b0f5c75	0.0021875177
65	0xbe21390c	-0.15744418
66	0xbe6de995	-0.23233636
67	0x3e4b6b94	0.19865257
68	0x3e40861c	0.18801159
69	0xbe3fc5cc	-0.18727797
70	0xbe508fd0	-0.2036736
71	0xbe28d224	-0.16486412
72	0x3dd8d22c	0.10586962
73	0x3e9ada2f	0.30244586
74	0x3c987124	0.018608637
75	0xbdbcd7c2	-0.0922084
76	0x3e05b268	0.13056338
77	0xbcdbefa0	-0.02684766
78	0xbdd034d2	-0.10166325
79	0xbe3a0e90	-0.18169618
80	0x3de90a89	0.113789625
81	0x3e58537d	0.21125598
82	0xbe4e5944	-0.2015124
83	0xbe4fb435	-0.20283587
84	0xbd348fdf	-0.04408252
85	0x3dbd4038	0.092407644
86	0xbe008cf4	-0.1255377
87	0x3c6b4ae0	0.014361113
88	0xbdb7729c	-0.08957407
89	0x3bfc2940	0.007695347
90	0x3e537f91	0.20654131
91	0xbdcef38a	-0.10105045
92	0xbe05fa1a	-0.13083687
93	0xbdf36470	-0.11884391
94	0xbd33b950	-0.0438779
95	0x3cbad6e0	0.022807539
96	0xbd87152c	-0.06595835
97	0xbe5d6086	-0.21618852
98	0x3d6070c1	0.05479503
99	0x3c816abb	0.015797963
100	0xbe61bdc6	-0.22045049
101	0x3e91f3c1	0.28506282
102	0xbd80fabe	-0.06297825
103	0xbe1afdfe	-0.15135953
104	0xbd4004d8	-0.04687962
105	0x3e32eba4	0.17472702
106	0xbe0e825e	-0.13916919
107	0xbe1f3498	-0.15547407
108	0xbccdd5a8	-0.025126293
109	0xbe25fecc	-0.16210479
110	0xbe73b670	-0.23800063
111	0x3e4ca6d6	0.19985518
112	0xbe60d2d9	-0.21955432
113	0x3cdaf0f0	0.026726216
114	0xbe5b2eab	-0.21404521
115	0xbbe2ea60	-0.0069249123
116	0xbe6481d2	-0.22315148
117	0xbe0b6614	-0.13613158
118	0x3b828ee0	0.003984317
119	0xbde6857e	-0.1125593
120	0x3c0e8e60	0.008700937
121	0x3c0aa500	0.008462191
122	0xbe539214	-0.20661193
123	0xbd91cc20	-0.07119012
124	0x3eb068ea	0.34455043
125	0xbd79d7e7	-0.060996916
126	0x3dc95a11	0.09831632
127	0x3ca1f5fb	0.019770613
128	0xbe46d3de	-0.19416758
129	0x3e302f88	0.17205632
130	0xbe77fe2d	-0.24218054
131	0x3dec4f89	0.115386076
132	0x3e7123b0	0.2354877
133	0x3e018cda	0.12651387
134	0xbde5bf96	-0.11218183
135	0x3e39b026	0.18133602
136	0xbe2c0490	-0.16798615
137	0x3dc789c4	0.097430736
138	0x3b9257c0	0.004466027
139	0xbe2bd464	-0.1678024
140	0xbba4b5c0	-0.005026549
141	0x3c43b1a0	0.011944205
142	0xbe4241d8	-0.1897043
143	0x3df42bdc	0.11922428
144	0xbe5452a1	-0.20734645
145	0xbe4518ac	-0.19247693
146	0xbe097fa2	-0.13427594
147	0x3d9e5759	0.07731504
148	0x3da050bc	0.07827899
149	0xbe331a0c	-0.17490405
150	0x3dc0130d	0.09378634
151	0x3b2e7fc0	0.0026626438
152	0xbc1a7038	-0.009426169
153	0xbe2b6e82	-0.16741374
154	0x3d973b1c	0.07384321
155	0x3d92d294	0.07169071
156	0xbdef2f08	-0.116788924
157	0x3dc49358	0.09598416
158	0xbe048b6b	-0.12943809
159	0x3e7c5e21	0.24645282
160	0xbe536f98	-0.20648038
161	0xbe42df1d	-0.19030423
162	0x3ddea294	0.10870853
163	0xbe4cc494	-0.19996864
164	0x3d8264e3	0.06366899
165	0x3debeb22	0.115194574
166	0x3e5ba47f	0.21449469
167	0xbdfdafe4	-0.12387064
168	0xbe3bc4e6	-0.1833683
169	0x3c61b3e1	0.013775797
170	0x3de96c58	0.11397618
171	0x3e6e3e78	0.23266017
172	0xbd0ad324	-0.033892766
173	0x3e718f48	0.23589814
174	0xbe72b294	-0.23700935
175	0x3e5e3504	0.21699911
176	0xbdf8d851	-0.12150634
177	0xbe2f192d	-0.17099448
178	0x3c94475e	0.018100437
179	0x3e187350	0.14887738
180	0xbe4da906	-0.20084009
181	0xbdcac9e7	-0.09901791
182	0xbddf4306	-0.109014556
183	0x3d2cd084	0.042191043
184	0xbdea88d1	-0.11451877
185	0x3d5589a8	0.052133232
186	0xbe02f40a	-0.12788406
187	0xbe1a6865	-0.15078886
188	0xbc51c3d0	-0.012803033
189	0xbe5a4e43	-0.21318917
190	0xbd214c34	-0.039379314
191	0xbdedd26e	-0.11612402
192	0x3d41709a	0.047226526
193	0x3cc2d147	0.023781432
194	0x3e6320e5	0.22180517
195	0xbd9280a3	-0.07153442
196	0x3de61338	0.112341344
197	0x3cc120c7	0.0235752
198	0xbe061a0b	-0.13095872
199	0x3b28e68d	0.0025772185
200	0x3e07bb06	0.13254938
201	0x3dc032da	0.09384699
202	0x3e509b6e	0.20371792
203	0x3e515443	0.204423
204	0xbdda5ba0	-0.10662007
205	0x3e6de63e	0.23232362
206	0xbd2d96ec	-0.04238026
207	0x3e32c00a	0.1745607
208	0xbe3f0e9f	-0.18657921
209	0x3cd78bf0	0.026311845
210	0xbe59bf19	-0.21264304
211	0xbdd7b126	-0.10531835
212	0x3c3f6ce0	0.011683673
213	0x3e653298	0.22382581
214	0xbe597379	-0.21235456
215	0xbe4f2088	-0.20227253
216	0x3e132fc0	0.14373684
217	0x3e23e598	0.16005552
218	0x3b478cc0	0.0030448884
219	0x3d6456e0	0.055746913
220	0xbe23180e	-0.15927145
221	0xbdb69e84	-0.08916953
222	0x3e0a9b8e	0.13535902
223	0xbc60b0a0	-0.013713986
224	0xbe28ba16	-0.16477236
225	0x3d41d4a0	0.047321916
226	0x3dd1e268	0.10248262
227	0x3e846312	0.25856835
228	0xbe028fc6	-0.12750158
229	0x3d53805e	0.051636092
230	0x3c6d82c0	0.014496505
231	0x3e67d1e9	0.22638668
232	0xbe2c0a38	-0.16800773
233	0x3e5336f5	0.20626433
234	0xbddb2ff4	-0.10702506
235	0xbd9353ba	-0.07193704
236	0xbd22f4cc	-0.039784238
237	0x3d664e97	0.056227293
238	0xbcb09af0	-0.021558255
239	0xbd80ee50	-0.062954545
240	0x3e4a99cc	0.19785231
241	0x3e076e82	0.13225749
242	0x3dc36208	0.09540182
243	0xbdb08db5	-0.086207785
244	0xbe1bf2d2	-0.15229347
245	0x3dcd4c45	0.10024313
246	0xbce2e74f	-0.027698187
247	0x3be2d260	0.0069220513
248	0x3e56da12	0.20981625
249	0xbe4e9dd2	-0.20177391
250	0xbdc78f30	-0.09744108
251	0x3d579bf6	0.05263897
252	0xbd8ed548	-0.06974274
253	0x3e15b754	0.14620715
254	0x3e61cc9b	0.22050707
255	0xbd969c4c	-0.0735403

linear1.bias f4 [256]
0	0x3e9a74d0	0.30167246
1	0x3d8b54c2	0.06803276
2	0xbdc74234	-0.09729424
3	0x3eac375b	0.33635983
4	0x3e402c9a	0.18767014
5	0xbd5aa014	-0.05337532
6	0xbdac604c	-0.08416805
7	0x3e58c2c3	0.21168046
8	0xbe389e7f	-0.18029211
9	0x3e373c7e	0.1789417
10	0x3e64bac7	0.22336875
11	0x3ea65de0	0.32493496
12	0xbe54e702	-0.20791247
13	0xbdebd1fa	-0.11514659
14	0xbdfbf5c6	-0.12302737
15	0x3e104f3e	0.14092728
16	0x3e529587	0.20564853
17	0x3e9a0868	0.30084538
18	0x3e8f9263	0.28041372
19	0x3ec55973	0.38544807
20	0xbe73679f	-0.23769997
21	0xbdf0bd36	-0.11754839
22	0x3d25f94d	0.040520955
23	0x3d000e58	0.03126368
24	0x3d25d69c	0.04048787
25	0x3e5562b9	0.20838441
26	0x3e80a4d0	0.25125742
27	0x3eb2c2a8	0.34914136
28	0xbe0fe17f	-0.14050864
29	0x3e85180b	0.25994906
30	0x3eb57585	0.35441223
31	0x3e69a6d3	0.22817545
32	0x3c97cd26	0.01853044
33	0x3ed4f6bb	0.4159449
34	0xbd756c3b	-0.05991767
35	0xbd6fa60a	-0.058507957
36	0x3dfc8b33	0.12331238
37	0x3d9b8c1e	0.075950846
38	0x3e499a2c	0.19687718
39	0xbd96329f	-0.07333874
40	0x3ebc22a9	0.36745194
41	0x3d6c1f9f	0.057647344
42	0x3da15682	0.07877828
43	0x3de64fa5	0.1124566
44	0x3d62ae6d	0.055342127
45	0x3e2f1e0c	0.17101306
46	0x3eb67765	0.35637966
47	0x3e57a4c2	0.21058944
48	0x3d71f372	0.05907006
49	0xbe7555cb	-0.23958509
50	0x3e565e2b	0.2093436
51	0x3defb58a	0.11704548
52	0x3a04d387	0.00050669204
53	0x3d0c0f59	0.034194324
54	0x3db61437	0.088905744
55	0x3ea864bc	0.32889354
56	0x3eaf4626	0.34233207
57	0x3ddb879b	0.10719224
58	0x3e606879	0.21914853
59	0xbda7aac2	-0.08186866
60	0x3ea6a96c	0.32551134
61	0x3e915431	0.28384545
62	0x3e83a229	0.25709656
63	0x3eafe2f5	0.34352842
64	0xbdc0acee	-0.09407984
65	0xbe747699	-0.23873366
66	0x3e352259	0.17688884
67	0x3ebf479f	0.3735933
68	0x3e9ea87d	0.3098792
69	0x3e5b3b2e	0.21409294
70	0x3e7ce2e2	0.24695924
71	0x3e1846b8	0.14870727
72	0x3e37c171	0.17944886
73	0x3e6c6437	0.23085104
74	0x3d982f69	0.07430918
75	0x3eb299b6	0.34882897
76	0xbe25d68b	-0.16195123
77	0xbe03ff5a	-0.12890378
78	0x3db41ff7	0.08795159
79	0x3ea8f33a	0.32998067
80	0x3e2a4352	0.16627243
81	0x3dd99f39	0.106260724
82	0x3e984b3d	0.29744902
83	0xbd8e3ee0	-0.06945586
84	0x3dd69366	0.10477333
85	0xbd41ccbd	-0.047314394
86	0x3e8bbc88	0.27292275
87	0xbe55b673	-0.2087038
88	0x3d719b3e	0.05898594
89	0x3e00f742	0.12594321
90	0x3ebf37e1	0.3734732
91	0xbda32a87	-0.07967096
92	0xbe592cdf	-0.21208523
93	0x3ea01194	0.3126341
94	0x3d8978a8	0.067124665
95	0xbe29ad0d	-0.1656992
96	0xbc926724	-0.017871447
97	0xbe3b3516	-0.1828197
98	0xbdcf1ace	-0.101125345
99	0xbdde3916	-0.10850732
100	0x3d94bb99	0.07262344
101	0x3e874a8a	0.26424056
102	0x3e056dc3	0.13030152
103	0x3eac99a7	0.33710977
104	0xbe73d6fc	-0.23812479
105	0xbdbf3f35	-0.09338228
106	0x3e8da9fa	0.27668744
107	0x3e3958e7	0.1810032
108	0x3e4dea71	0.20108964
109	0x3d5d0ccd	0.053967286
110	0x3e86fe1e	0.2636575
111	0x3c862594	0.01637534
112	0x3dee2078	0.11627287
113	0x3e9904be	0.2988643
114	0x3ea27f3b	0.31737694
115	0xbe36703f	-0.17816256
116	0xbd63738d	-0.05553012
117	0xbe1e5e4e	-0.15465662
118	0x3e25e1f8	0.16199481
119	0x3d9902f2	0.07471265
120	0x3ea05316	0.3131339
121	0x3e713781	0.2355633
122	0xbcd4d51a	-0.025980521
123	0x3ea0a880	0.31378555
124	0x3ec467e9	0.38360527
125	0x3e756743	0.23965172
126	0xbe648f53	-0.22320299
127	0xbe1038e7	-0.14084207
128	0x3e44b197	0.1920837
129	0x3e863c13	0.26217708
130	0x3e3fdbcc	0.1873619
131	0x3e884eaf	0.2662253
132	0xbd9e2551	-0.07721961
133	0xbe3264bb	-0.17421238
134	0x3e75a623	0.23989157
135	0x3e0bc2fe	0.13648602
136	0x3eb81efe	0.35961145
137	0x3cad7137	0.02117215
138	0x3e3c1aac	0.1836955
139	0x3e9c561a	0.3053444
140	0x3e5e8d46	0.21733579
141	0xbdb21910	-0.086961865
142	0x3ec21fd7	0.37914917
143	0xbd40119b	-0.04689179
144	0x3de53cbf	0.11193227
145	0xbe3f3e19	-0.18676032
146	0xbdda6a59	-0.106648155
147	0x3e18f460	0.14936972
148	0x3e90c292	0.28273445
149	0xbe3d8e7b	-0.18511383
150	0x3e3f4c43	0.18681435
151	0x3eda8d6b	0.42686018
152	0xbe3ea9c7	-0.18619452
153	0x3e8d19aa	0.27558643
154	0x3ebb569a	0.3658951
155	0x3dbbfd1e	0.09179138
156	0x3e6fe239	0.23426141
157	0x3e7a7ee4	0.24462467
158	0xbbe4c161	-0.0069810604
159	0x3db567a2	0.08857657
160	0x3e82f46d	0.25577107
161	0xbe10ad62	-0.1412864
162	0xbe2d0caa	-0.16899362
163	0x3e2c4a57	0.16825233
164	0x3e5f66d4	0.2181657
165	0x3ebd6267	0.36989138
166	0xbe33a8d4	-0.17544872
167	0x3e4b9dec	0.19884461
168	0xbe61bb8a	-0.22044197
169	0x3e0b1a33	0.13584213
170	0x3e83a60e	0.25712627
171	0x3d2154b4	0.03938742
172	0xbe739818	-0.23788488
173	0xbe32a53f	-0.17445849
174	0xbd1757a5	-0.03694882
175	0x3e1cc05a	0.15307751
176	0x3d16abb4	0.036784843
177	0x3e820ef4	0.25402033
178	0x3ea10b6d	0.3145403
179	0x3cb390a5	0.021919558
180	0xbd4d61f8	-0.05014226
181	0xbc009a50	-0.007849291
182	0x3ba23ad1	0.004950859
183	0xbe4857dd	-0.19564767
184	0xbdc3ab3f	-0.09554147
185	0xbdef4a4a	-0.116840914
186	0x3e7dfe26	0.24803981
187	0x3e8dec6d	0.2771944
188	0xbd79dfea	-0.061004557
189	0xbda766ad	-0.08173881
190	0x3e85e8e9	0.2615426
191	0x3e2c3082	0.1681538
192	0x3e611ff9	0.21984853
193	0x3eb85a07	0.36006185
194	0x3ca7b0b0	0.020469993
195	0x3ea0305b	0.31286892
196	0xbddd36de	-0.10801481
197	0x3d93c648	0.072155535
198	0x3e3fce71	0.18731095
199	0x3dd96239	0.106144376
200	0x3e4fc8e3	0.20291476
201	0xbdec9a16	-0.11552827
202	0x3e7dcad3	0.24784403
203	0x3da96d6c	0.08272824
204	0x3e435bed	0.19078036
205	0xbe2e7faf	-0.17040895
206	0x3e2dc7a8	0.16970694
207	0xbd49eca6	-0.04929795
208	0x3d30f683	0.043203842
209	0x3e9b4f9c	0.30334175
210	0x3cb9a431	0.0226613
211	0x3e14b8e6	0.14523658
212	0x3e9595f0	0.29215956
213	0x3d85f9ce	0.06541787
214	0x3e8353e2	0.25649935
215	0xbd113c1c	-0.035457715
216	0x3ec0c974	0.37653697
217	0xbd239d5c	-0.03994499
218	0x3e3c9bd1	0.18418814
219	0x3d83cc4b	0.0643545
220	0xbcc20f12	-0.023688827
221	0x3de2f007	0.11080938
222	0x3e99544d	0.2994713
223	0xbcfb35ca	-0.030665297
224	0x3c7b110b	0.015323888
225	0x3cd7ea55	0.026356855
226	0xbe206618	-0.15663946
227	0x3e8b0aac	0.2715658
228	0x3eba048b	0.3633159
229	0x3cecb904	0.028896816
230	0x3e95b317	0.29238197
231	0x3e7fdbb1	0.2498615
232	0xbd338817	-0.043830957
233	0xbbef4d73	-0.007302934
234	0xbdc1d998	-0.09465331
235	0xbe45bd6e	-0.19310543
236	0x3e08129e	0.13288352
237	0x3eaabca1	0.33347037
238	0x3e8d5be7	0.27609178
239	0x3ed0b07f	0.40759656
240	0xbdfdc766	-0.12391548
241	0x3e689e82	0.22716716
242	0x3e436c44	0.19084269
243	0x3eca9ca2	0.39572626
244	0x3e30aff7	0.17254625
245	0x3e94824c	0.2900566
246	0x3e2f3952	0.1711171
247	0x3dc39f2b	0.09551843
248	0xbdc7e6c3	-0.09760811
249	0x3e81c579	0.25345972
250	0x3e77e439	0.24208154
251	0x3d9a4f71	0.075346835
252	0x3e7e5b0f	0.24839424
253	0x3ecf9ab2	0.4054771
254	0x3d9023cf	0.0703808
255	0x3ea60a7b	0.3242987

linear2.weight f4 [5, 256]
0	0xbe04c023	-0.1296392
1	0xbd5dbd24	-0.054135457
2	0x3d7040ef	0.058655676
3	0xbe1ccfe9	-0.15313686
4	0xbdb7e397	-0.08978956
5	0xbd93f322	-0.07224108
6	0x3cdfae38	0.027304754
7	0xbdf12266	-0.11774139
8	0xbc68b170	-0.014202461
9	0xbd008139	-0.031373236
10	0xbd03f526	-0.032216214
11	0xbd93760f	-0.07200252
12	0xbd2d4e9c	-0.042311296
13	0x3d79299e	0.060830705
14	0xbd561e30	-0.052274883
15	0xbe213d8b	-0.15746133
16	0xbe4c8ba0	-0.19975138
17	0xbe25ead9	-0.16202869
18	0xbc4d6d87	-0.01253832
19	0xbde7a12e	-0.113100395
20	0x3bfba080	0.007679045
21	0xbc84e704	-0.016223438
22	0xbce50887	-0.027958168
23	0xbe13a998	-0.14420164
24	0xbdae9a87	-0.085255675
25	0xbdb2210e	-0.08697711
26	0xbdb51008	-0.08840948
27	0xbe028ca4	-0.12748963
28	0xbd019222	-0.031633504
29	0xbe506e4a	-0.20354572
30	0xbe097d7d	-0.13426776
31	0xbe500104	-0.20312887
32	0xbcacf8f1	-0.021114798
33	0xbe30eee5	-0.17278631
34	0xbcbb51a8	-0.022866085
35	0xbdf27c92	-0.11840166
36	0xbda5f780	-0.081038475
37	0xbe0e74d6	-0.13911757
38	0xbd912135	-0.07086412
39	0xbd39a2f2	-0.045321412
40	0xbe434686	-0.19069871
41	0xbd5a50a2	-0.053299554
42	0xbd7388de	-0.0594567
43	0xbdcbfe50	-0.09960616
44	0xbe2e4d7e	-0.17021748
45	0xbc7287f1	-0.014802919
46	0xbdd62ce2	-0.104577795
47	0xbe11daae	-0.14243576
48	0xbd9e1732	-0.07719268
49	0x3b7fdc9b	0.0039041403
50	0xbce22694	-0.027606286
51	0xbc254f30	-0.010089681
52	0xbd75cee0	-0.060011744
53	0x3c90a1ef	0.017655341
54	0xbdec00cb	-0.11523589
55	0xbd8287cd	-0.06373558
56	0xbdf778ac	-0.12083563
57	0xbd8f1dd0	-0.06988108
58	0xbe29d661	-0.16585685
59	0x3ccfaf0c	0.025352024
60	0xbe487ca2	-0.19578794
61	0xbe33a39b	-0.1754288
62	0xbd8311f4	-0.06399909
63	0xbe49dc5a	-0.19712964
64	0xbd0b6694	-0.034033373
65	0x3ca92505	0.020647535
66	0xbdff2755	-0.12458674
67	0xbe1895dd	-0.14900918
68	0xbe137024	-0.14398247
69	0xbdd16f21	-0.10226274
70	0xbd6678e0	-0.05626762
71	0xbdf4b675	-0.119488634
72	0xbe498c05	-0.1968232
73	0xbdc53ba8	-0.09630519
74	0xbd815630	-0.06315267
75	0xbdff6d57	-0.12472027
76	0xbd13b404	-0.03606035
77	0xbd360f10	-0.04444796
78	0xbd9bac63	-0.076012395
79	0xbdf718e1	-0.12065292
80	0xbd0c215e	-0.03421151
81	0xbe1b3d27	-0.15160047
82	0xbe14d4e7	-0.14534341
83	0xbdfa5e60	-0.12225032
84	0xbe3c5ba3	-0.18394332
85	0xbb581a4e	-0.0032974663
86	0xbe1c8899	-0.15286483
87	0x3d2f9350	0.042865098
88	0x3a9e8400	0.0012093782
89	0xbe100415	-0.14064057
90	0xbdc7ed9f	-0.097621195
91	0xbd5476f0	-0.05187124
92	0x3989ac00	0.00026258826
93	0xbe290af6	-0.16508088
94	0xbcd86013	-0.026413
95	0xbd414cb4	-0.04719229
96	0xbdb5dfcf	-0.08880579
97	0x3ca2da61	0.019879522
98	0xbc58ee78	-0.013240449
99	0x3c952846	0.01820768
100	0xbd7d8106	-0.061890624
101	0xbe04476c	-0.1291787
102	0xbe20a7e0	-0.15689039
103	0xbe49c9d1	-0.19705893
104	0x3d62d0da	0.055374958
105	0x3d21de85	0.03951885
106	0xbe46b0c6	-0.19403371
107	0xbdc8e5fc	-0.09809491
108	0xbdfa31e6	-0.122165486
109	0x3d427854	0.047478035
110	0xbe4125d8	-0.18862092
111	0xbe2f80a6	-0.17138919
112	0xbd9c0dcb	-0.07619818
113	0xbe2d6a81	-0.1693516
114	0xbd926c5b	-0.071495734
115	0x3a340c4b	0.0006868287
116	0xbd9f7007	-0.077850394
117	0x3cdc5838	0.026897535
118	0xbde986e5	-0.11402682
119	0xbd9c4b3f	-0.076315396
120	0xbdeddff9	-0.11614985
121	0xbdcccbdd	-0.09999821
122	0xbd0aacbd	-0.033856142
123	0xbd427e0c	-0.04748349
124	0xbe2ca4f5	-0.16859801
125	0xbca2d324	-0.01987607
126	0x3d7e98f8	0.0621576
127	0x3d0f8126	0.035035275
128	0xbc7a4eb6	-0.015277555
129	0xbddb71d3	-0.107150696
130	0xbe2c20d8	-0.16809404
131	0xbe3ff063	-0.18744044
132	0xbe3c3f38	-0.18383491
133	0xbd0134ea	-0.031544603
134	0xbd839d06	-0.06426434
135	0xbd70d5bd	-0.058797587
136	0xbddb0df4	-0.10696021
137	0xbd7bed4f	-0.061505612
138	0xbe31f582	-0.1737881
139	0xbe4e083d	-0.2012033
140	0xbe0ad3f0	-0.1355741
141	0x3c779ba8	0.015112795
142	0xbde6e75d	-0.11274598
143	0x39a34f00	0.00031148642
144	0xbd8f320b	-0.06991967
145	0x3baf5ddf	0.0053517665
146	0x3cca3034	0.024681188
147	0xbe2dfe70	-0.16991591
148	0xbcfae0b1	-0.03062472
149	0xbd8c1c25	-0.06841306
150	0xbe072d9f	-0.13200997
151	0xbe546e22	-0.20745137
152	0x3d4bbc64	0.04974021
153	0xbdc18f93	-0.09451213
154	0xbbcab104	-0.0061856527
155	0xbd9bbed7	-0.07604759
156	0xbde7b792	-0.1131431
157	0xbe143e33	-0.14476852
158	0xbe3c61be	-0.1839666
159	0xbcdd6b77	-0.027028782
160	0xbdc75d5d	-0.097346045
161	0xbd45619c	-0.04818879
162	0x3cc34d9c	0.023840718
163	0xbd4b1a60	-0.0495857
164	0xbd62f4ab	-0.055409115
165	0xbe45cbad	-0.19315977
166	0x3c8397b1	0.016063543
167	0xbe1a0bce	-0.15043566
168	0xbc841ae0	-0.016126096
169	0xbd96914a	-0.073519304
170	0xbdaf1c9c	-0.08550379
171	0xbe335542	-0.17512992
172	0xbd4e71c6	-0.05040147
173	0x3d612660	0.054968238
174	0xbd574ef0	-0.052565515
175	0xbe4a86ab	-0.19777934
176	0xbd0a24af	-0.03372639
177	0xbe138495	-0.14406045
178	0xbcdffe37	-0.027342899
179	0xbdb911e6	-0.09036617
180	0xbced6384	-0.028978117
181	0xbda544f9	-0.08069796
182	0xbd5f74e4	-0.054554835
183	0xbd0cfe38	-0.03442213
184	0xbcb8ada4	-0.022543736
185	0xbd0ffa8b	-0.035151046
186	0xbd6b02ec	-0.057375833
187	0xbde64b43	-0.11244824
188	0xbda905dc	-0.08253071
189	0xbd96169d	-0.07328532
190	0xbdef3656	-0.11680286
191	0xbdcc5aeb	-0.09978279
192	0xbe593feb	-0.21215789
193	0xbde8b667	-0.113629155
194	0x3d07cd7c	0.03315495
195	0xbe16b143	-0.14716057
196	0xbd628450	-0.055301964
197	0xbdab48f0	-0.08363521
198	0xbe166f26	-0.14690837
199	0xbdaf904b	-0.085724436
200	0xbd698ce6	-0.057019137
201	0xbce12704	-0.027484424
202	0xbe0219d1	-0.1270516
203	0xbe184c0c	-0.1487276
204	0xbdba2476	-0.090889856
205	0x3c88c2fa	0.016694535
206	0xbda3f6f4	-0.08006087
207	0x3d3fd94c	0.04683809
208	0xbda564a1	-0.08075834
209	0xbe1dfdae	-0.15428802
210	0xbe17adae	-0.14812347
211	0xbd4aac2f	-0.049480613
212	0xbd8f7e0e	-0.07006465
213	0xbd433afe	-0.04766368
214	0xbdfcf8cc	-0.12352142
215	0xbd42afd1	-0.047530953
216	0xbded7c38	-0.115959585
217	0x3d02f72e	0.03197401
218	0xbd920bc7	-0.071311526
219	0xbe504043	-0.20337014
220	0xbdc0e4f9	-0.09418673
221	0xbd836c39	-0.06417126
222	0xbe34e9aa	-0.17667261
223	0xbcd1c96a	-0.025608737
224	0xbe0885f3	-0.13332348
225	0xbdf66eef	-0.12032878
226	0xbbeceda0	-0.0072304755
227	0xbe231630	-0.15926433
228	0xbe15ed98	-0.14641416
229	0xbd8cc1cf	-0.068729036
230	0xbd1b6595	-0.037938673
231	0xbe205fdd	-0.15661569
232	0xbd3c1a78	-0.04592368
233	0xbd83f36e	-0.06442915
234	0xbcd1dc50	-0.025617748
235	0xbd5a8b30	-0.053355396
236	0xbe22dcd0	-0.15904546
237	0xbe44ba9d	-0.19211812
238	0xbda6b973	-0.081408404
239	0xbe314918	-0.1731304
240	0xbd26ff45	-0.040770788
241	0xbe26953e	-0.16267869
242	0xbe0c81d7	-0.13721405
243	0xbe4a1374	-0.19733983
244	0xbd8336e7	-0.06406956
245	0xbdd2072f	-0.102552764
246	0xbdc6f79f	-0.09715199
247	0xbe10d698	-0.14144361
248	0x3d5f0b02	0.054453857
249	0xbda96163	-0.08270528
250	0xbe03f402	-0.1288605
251	0xbde11c1a	-0.10991688
252	0xbdc14f99	-0.0943901
253	0xbe331f67	-0.17492448
254	0xbdcf4685	-0.101208724
255	0xbe231c7f	-0.15928839

linear2.bias f4 [5]
0	0xbe0f49b4	-0.1399296
1	0xbd97d8dd	-0.0741441
2	0xbe2dfa25	-0.16989954
3	0x3d432aaf	0.047648128
4	0xbb138cd8	-0.002251437
