examples/minecraft/model/model3.pth (torch, 13632 bytes, 4 tensors)

linear1.weight f4 [128, 17]
000000 c3 92 c7 3f 0e d7 c1 3f c0 de 97 3e 2f e8 a1 3e
       1.5591663 1.5143754 0.29662132 0.31622455
000010 e5 3b 9d 3d 24 4f a6 3e 9f 06 b5 3f 24 9e 3e 3f
       0.076774396 0.32482255 1.4142646 0.74460053
000020 d3 94 23 bd 6e d3 2b 3d 66 94 80 3f 8e 82 e2 3f
       -0.03993685 0.041949682 1.0045288 1.7696092
000030 d5 82 ce 3e aa 6f 4d 3f 80 40 42 3f 0f 1c cf 3f
       0.40334192 0.8024851 0.7587967 1.6180438
000040 b6 4b 69 3f 96 85 c9 3f e7 19 aa 3f e6 e4 f0 3d
       0.9113115 1.5743892 1.3289155 0.11762409
000050 72 09 73 3d 2a d7 3d 3e 50 3e 1c 3f f0 aa b8 3f
       0.05933518 0.1853911 0.6103258 1.4427166
000060 39 e8 3f 3f 7d 96 14 be 45 7e 9f 3d ad 97 4b 3f
       0.7496372 -0.14510532 0.07787756 0.79528314
000070 36 e9 a6 3f aa 0e 13 3f 48 83 ce 3e e5 58 53 3f
       1.303992 0.5744425 0.40334535 0.8255752
000080 b3 44 9c 3f 2f 44 99 3f 36 ad d7 3f ab ab b5 3f
       1.2208465 1.1973933 1.6849735 1.4193014
000090 1b 98 06 bc 18 78 e2 bc 4c 4c b7 3e 44 fe 9d 3e
       -0.008214976 -0.027645156 0.35800397 0.30858052
0000a0 2e c6 d1 3f fb 5f 26 3f d7 7a 02 be e4 39 0c be
       1.6388605 0.64990205 -0.12742172 -0.13693959
0000b0 57 35 47 3f 71 a7 de 3f e6 5d 6e 3e 04 69 19 3f
       0.77815765 1.7394849 0.23278007 0.59925866
0000c0 14 d0 49 3f 59 18 c3 3f 03 32 a6 3f af 0c dc 3f
       0.7883313 1.5241805 1.2984012 1.7191371
0000d0 aa 0d e7 3f e4 59 c7 3d a4 11 91 3e d5 75 cc 3e
       1.8051045 0.09733942 0.2833377 0.3993365
0000e0 db bd de 3e a4 fb d5 3f 98 25 09 3f 23 db 13 3e
       0.43504223 1.671742 0.5357299 0.14439063
0000f0 11 ea e5 bd e0 9b 8f 3f 42 cd d7 3f 4d 82 c9 3e
       -0.11226285 1.1219444 1.6859515 0.39357224
000100 72 0c 35 3f c1 15 35 3f 80 87 c7 3f 08 b0 93 3f
       0.70722115 0.7073632 1.5588226 1.1538095
000110 de 7d da 3f c6 51 e0 3f db 37 14 3e c2 29 d9 3e
       1.7069662 1.7524955 0.14474432 0.4241467
000120 e4 e1 8a 3e 07 49 f2 3e 9d cc b2 3f bf 76 3f 3f
       0.27125466 0.4732134 1.3968693 0.7479057
000130 b0 80 19 bd 63 94 4c be bc 70 7d 3f 3b a0 b5 3f
       -0.03747624 -0.1997848 0.99000144 1.4189523
000140 51 dd f0 3e 79 18 3b 3f 55 b5 62 3f 7d 09 c0 3f
       0.4704385 0.7308422 0.8855794 1.5002896
000150 e3 f4 85 3f d5 a3 d1 3f 1d ad e5 3f 92 25 55 3e
       1.0465358 1.6378123 1.7943455 0.20815113
000160 69 5f b2 bc 5f 44 07 3e 63 f7 d8 3e fc e1 bb 3f
       -0.02177401 0.13209675 0.4237624 1.467834
000170 f2 fc 0a 3f 19 ce 2b be 95 33 ab 3c d7 f6 99 3f
       0.54292214 -0.16777839 0.02089862 1.2028455
000180 b5 03 b6 3f 30 f7 7b 3e 3b 6a f8 3e 8c 3a 62 3f
       1.4219881 0.24606013 0.48518547 0.88370585
000190 3b d1 bc 3f 4d 2e 98 3f 0c cd d4 3f 54 83 db 3f
       1.4751352 1.188913 1.6625075 1.7149453
0001a0 42 a9 8d 3e cd a7 0e bd e3 c1 14 3e ea a2 b0 3e
       0.27668196 -0.034827996 0.14527087 0.34499294
0001b0 b7 d6 c2 3f e0 e5 2a 3f be eb 16 be 95 9e 21 be
       1.5221776 0.6675701 -0.14738366 -0.1578315
0001c0 5a 8c 52 3f 81 f0 b7 3f 69 cb 9f 3d 0d 85 41 3f
       0.8224541 1.4370271 0.07802469 0.75593644
0001d0 34 15 7d 3f e5 78 c1 3f a0 10 62 3f a7 33 90 3f
       0.9886048 1.5115019 0.8830662 1.1265763
0001e0 9c 4b a8 3f 68 00 d2 3e 42 ae 2a 3e 71 de 1c 3f
       1.3148074 0.41015935 0.16668037 0.6127692
0001f0 64 49 13 3f 49 f8 8e 3f 90 7b 17 3f c5 1b 08 bd
       0.5753386 1.1169521 0.59172916 -0.033229608
000200 b0 16 a4 bd be dc 5b 3f ab 35 c4 3f 14 4f ff 3e
       -0.0801214 0.858837 1.5328878 0.4986502
000210 b7 89 51 3f 1a ca 24 3f c7 ac 89 3f dc 68 7e 3f
       0.8185076 0.6437088 1.0755852 0.9937875
000220 ba dd d0 3f ec fb b3 3f 8d 53 53 3e 97 c9 92 3e
       1.6317666 1.4061255 0.20637341 0.28669426
000230 29 8f cb 3e ad ab 6d 3e 5f 1a c3 3f b7 65 2d 3f
       0.3975766 0.2321002 1.5242423 0.6773333
000240 80 3f e1 bd 69 a3 2a 3d 96 b4 83 3f d7 43 cd 3f
       -0.1099844 0.041659746 1.0289485 1.6036328
000250 aa fa 39 3e 5b be 3b 3f e1 4f 66 3f 63 7b ca 3f
       0.18162027 0.73337334 0.89965636 1.5818905
000260 94 9d 9d 3f 28 30 c5 3f f1 e3 c9 3f 57 4c 93 3e
       1.2313714 1.5405321 1.5772687 0.2876918
000270 28 71 58 3e 16 0a c3 3e 34 e1 d4 3e a9 d3 d3 3f
       0.21136916 0.38093632 0.41578066 1.6548969
000280 82 23 18 3f e1 6f db bd b3 df 68 3e 3a 7f 55 3f
       0.5942918 -0.107146986 0.22741584 0.8339726
000290 a0 4a e9 3f bb 3f 71 3e 1a f6 52 3f 41 e8 25 3f
       1.8225899 0.23559467 0.8240677 0.64807516
0002a0 1f 86 a5 3f b8 a6 98 3f ed ce d0 3f 75 27 cf 3f
       1.2931556 1.1925879 1.6313149 1.6183916
0002b0 fe 43 2a 3e bc e2 6b 3e a4 74 d5 3d 0f 2d 30 3e
       0.166275 0.23035711 0.10422638 0.17204688
0002c0 b3 53 d2 3f b7 8e 2b 3f 2e 4d 0c 3e ef ec 1a be
       1.6431793 0.6701464 0.13701317 -0.15129445
0002d0 e5 bd 9e 3f d1 2e e1 3f fb 39 b8 3e aa 28 62 3f
       1.2401701 1.7592412 0.35981736 0.883433
0002e0 45 b5 29 3f 86 cf bb 3f fe 48 ac 3f ff 1f b8 3f
       0.6629222 1.4672706 1.3459775 1.4384764
0002f0 d7 72 a6 3f 4c c0 34 3e e5 79 ee 3e 77 5c c6 3e
       1.3003796 0.1765148 0.46577373 0.3874242
000300 db 13 bf 3d 2f 8b ca 3f 35 b9 2f 3f 18 4b 1d 3e
       0.09329959 1.5823725 0.6864198 0.15360677
000310 b2 6f 57 3c 24 ff 8b 3f cf 04 c0 3f e4 6b d4 3d
       0.013149189 1.0937238 1.5001467 0.10372141
000320 9e 90 50 3f da e2 62 3f ca 3a a1 3f 5d 17 91 3f
       0.8147067 0.886274 1.2596066 1.1335255
000330 82 86 d3 3f d7 1e b5 3f 57 f3 21 bd 55 9a 91 3b
       1.6525424 1.4150037 -0.039538708 0.0044434466
000340 9d 52 f8 3d d9 ca b7 3e ef 6a d3 3f db 09 fd 3e
       0.12125132 0.35896948 1.6517009 0.49421582
000350 b5 70 2b 3e c8 80 0a be 5f 95 46 3f f0 47 d0 3f
       0.16742213 -0.13525689 0.7757167 1.6271954
000360 9c 5c ed 3e ec 3b 00 3f f1 ea 8b 3f 5a 7f c7 3f
       0.46359718 0.50091434 1.0931073 1.558574
000370 81 fb a3 3f 63 24 a7 be ed bd 14 3f 1a ad 78 bd
       1.2811128 -0.32644948 0.58102304 -0.060711958
000380 21 29 ab 3e 76 84 8f 3e 5f 94 6f bd 7e a2 2a be
       0.33429816 0.28030747 -0.058491107 -0.16663548
000390 ad c2 7c 3e 3a 4c 0e 3d 13 0c 19 3e 52 e2 30 be
       0.24683638 0.034740664 0.14946012 -0.17273834
0003a0 0f 7f ac 3d cb b2 14 be 54 97 73 bc a7 a2 d3 3d
       0.08422672 -0.14521329 -0.014867622 0.10333758
0003b0 53 27 85 be 6d 99 20 bd 6e cf ac 3f 2b a4 d6 3f
       -0.26006564 -0.03920882 1.3500803 1.676885
0003c0 f6 b2 77 3e 77 4b 6d 3e 02 a7 ef 3e f3 74 19 3e
       0.24189362 0.23173319 0.46807104 0.14986019
0003d0 8f 2f c2 3f d4 e2 53 3f 5b 29 97 3d 8c 71 6b bc
       1.5170764 0.8276799 0.07380935 -0.014370333
0003e0 39 5c 79 3f b4 35 cb 3f 05 b6 d6 3e fc 9c 41 3f
       0.97406346 1.5875764 0.41935745 0.75630164
0003f0 f9 a1 88 3f 34 9a b9 3f d3 3a 90 3f 54 f0 c4 3f
       1.067443 1.4500184 1.1267952 1.5385842

linear1.bias f4 [128]
000000 68 24 11 40 2a 21 19 40 80 29 26 40 ba 3e 12 40
       2.267847 2.3926492 2.596283 2.2850785
000010 9e db 06 40 c8 e1 20 40 08 2c 17 40 ed 3d 07 40
       2.1071544 2.5137806 2.3620625 2.1131546
000020 b6 40 19 40 26 cf 1d 40 d5 b8 1d 40 d4 19 19 40
       2.3945746 2.4657683 2.4644063 2.3922014
000030 84 3e 05 40 67 8b 19 be 47 74 0e 40 42 14 17 40
       2.0819407 -0.14994584 2.225847 2.3606114
000040 4a 55 16 40 89 75 84 38 59 6a da 3f 98 45 5d be
       2.3489556 6.316143e-05 1.7063705 -0.21608579
000050 8f 60 0a 40 cd 28 01 40 7e 02 30 be 2e 21 0b 40
       2.1621435 2.0181153 -0.1718845 2.1739001
000060 6f e6 23 40 d7 46 2c 40 74 ce 25 40 4c 09 05 40
       2.5609396 2.6918237 2.590726 2.0786924
000070 84 63 01 40 43 15 05 40 5c 64 2a 40 d5 5b 04 40
       2.021699 2.0794227 2.6623755 2.068105
000080 b1 9b 2c 3a e8 1d 2b 40 1b 37 1d 40 18 26 fc 3f
       0.0006584479 2.6737003 2.4564884 1.9699125
000090 ed 66 c6 3f 15 de 90 3f e8 8d 22 40 05 44 0a 40
       1.550016 1.1317774 2.5399113 2.1604016
0000a0 78 f1 0b 40 2e 0e 09 40 9a 28 1a 40 09 fa 06 40
       2.186613 2.1414905 2.4087281 2.109011
0000b0 8d bd 22 40 b5 07 02 40 d8 27 ec 3f dd d6 15 40
       2.5428193 2.0317204 1.8449659 2.3412392
0000c0 11 47 17 40 c5 93 04 40 29 32 f1 3f 6e 74 10 40
       2.3637125 2.0715191 1.8843433 2.2571063
0000d0 68 e0 1d 40 1e 65 25 40 55 1e 16 40 8a 6a 8d 3f
       2.4668217 2.5842967 2.3456013 1.1048138
0000e0 d9 24 82 3f 9d e3 09 40 cc 74 09 40 ad f7 14 40
       1.0167495 2.1545174 2.1477537 2.327617
0000f0 f0 11 0f 40 85 27 26 40 6b b2 27 40 6f 01 18 40
       2.2354698 2.596162 2.6202648 2.3750875
000100 a3 ef 20 40 07 51 10 40 2e c5 25 40 18 6e 61 3f
       2.5146263 2.2549455 2.59016 0.88058615
000110 65 4e 22 40 be e0 c7 3f 7f 86 20 40 26 dd 06 40
       2.5360348 1.5615461 2.508209 2.1072478
000120 62 d8 11 40 17 f2 12 40 87 e9 0d 40 37 f4 20 40
       2.278832 2.296026 2.2173784 2.5149057
000130 27 75 22 40 04 9b 2f 40 c1 e8 1f 40 f2 d1 20 40
       2.5384004 2.7438364 2.4985812 2.512814
000140 58 a9 18 40 0b 7e 19 40 04 d5 18 40 50 e1 2b 40
       2.385336 2.398318 2.3880014 2.685627
000150 12 c2 05 40 53 9f 0d 40 74 e7 43 ba 10 15 95 be
       2.08997 2.2128494 -0.0007473149 -0.29117632
000160 f9 42 1b 40 c8 59 b8 3f 43 67 0c 40 5f a4 23 40
       2.4259627 1.4402399 2.1938026 2.5569074
000170 b9 f9 1b 40 0a 14 27 40 0e 84 0c 40 5d 38 23 40
       2.4371169 2.610598 2.19556 2.5503151
000180 58 bc 18 40 98 e4 21 40 f1 39 1b 40 9d 74 25 40
       2.3864956 2.5295773 2.4254115 2.5852425
000190 21 ba 17 40 a4 38 0a 40 f3 70 1b 40 99 f4 13 40
       2.3707354 2.159707 2.4287689 2.311804
0001a0 f8 58 11 40 7b fc f6 3f d0 d9 18 40 60 7f 13 40
       2.2710552 1.9295801 2.3882942 2.3046494
0001b0 e9 28 15 40 33 b8 de 3f ad 06 25 40 99 50 f4 3f
       2.330622 1.7399963 2.5785325 1.9087096
0001c0 27 42 01 40 b4 bd 0b 40 e0 6d 15 40 94 96 15 40
       2.0196626 2.1834536 2.3348312 2.3373156
0001d0 8e 2a 0a 40 b7 02 12 40 86 85 e1 3f 10 48 0d 40
       2.1588473 2.2814157 1.7618873 2.2075233
0001e0 28 d3 1b 40 52 06 1b 40 19 79 0d 40 33 2d 22 40
       2.434763 2.4222608 2.2105162 2.5340087
0001f0 c6 4b 0e 40 6d 70 ee 3f 52 3b 21 40 88 ed f3 3f
       2.2233748 1.862806 2.5192456 1.9056864

linear2.weight f4 [5, 128]
000000 32 8f 9c bf b4 ad a2 bf 47 59 91 bf 68 bd 9d bf
       -1.22312 -1.270926 -1.135537 -1.2323427
000010 d9 7a a5 bf d4 36 9a bf f5 e4 90 bf 6f ed 97 bf
       -1.2928115 -1.2047982 -1.1319872 -1.1869334
000020 13 34 98 bf a2 51 9b bf 70 fe 92 bf 17 ac 99 bf
       -1.1890892 -1.2134287 -1.1483898 -1.2005643
000030 c1 91 a6 bf cf 5e 4f 3d d3 4d a2 bf ae 06 9e bf
       -1.301323 0.050627526 -1.268 -1.2345788
000040 91 31 95 bf ff 2c 12 bf d0 1b 8f bf a2 c6 16 3d
       -1.1655751 -0.5709991 -1.1180363 0.036810525
000050 9b f7 ad bf 78 fd 94 bf 90 4a 40 bd 7e 5e 9a bf
       -1.3591188 -1.1639853 -0.04694611 -1.2060087
000060 b1 2b 9a bf 7c 3e 95 bf 40 71 99 bf 2f 06 9c bf
       -1.2044584 -1.1659694 -1.1987686 -1.2189387
000070 eb b0 9b bf 18 94 98 bf a7 8e 93 bf 22 be a1 bf
       -1.2163366 -1.1920195 -1.1527909 -1.2636149
000080 44 2e b3 be 50 ef 8f bf da d5 92 bf 7f 67 98 bf
       -0.34996235 -1.1244907 -1.1471512 -1.1906585
000090 4f c5 53 bf b6 35 66 bf 72 c0 9a bf cb 7b a1 bf
       -0.82722944 -0.89925706 -1.208998 -1.2615904
0000a0 cc 9f a0 bf 81 01 a7 bf d1 11 a3 bf dd 06 97 bf
       -1.2548766 -1.3047334 -1.2739812 -1.179897
0000b0 59 d3 9d bf 31 38 a0 bf c0 e6 96 bf 05 5d a6 bf
       -1.2330123 -1.2517148 -1.1789169 -1.2997137
0000c0 4a f1 a0 bf dc 7f 9f bf 4e 1e 8f bf 6c 39 95 bf
       -1.2573636 -1.2460895 -1.1181123 -1.1658149
0000d0 aa 9e 9a bf 07 ff 9f bf 02 fd a3 bf d6 1f 4c bf
       -1.207967 -1.2499703 -1.2811587 -0.7973608
0000e0 72 95 4b bf 9b 80 93 bf d3 7d 91 bf ef d0 9b bf
       -0.7952491 -1.1523622 -1.1366524 -1.2173136
0000f0 dd d5 90 bf 47 37 9e bf 51 78 96 bf 5c 32 9b bf
       -1.1315266 -1.2360619 -1.1755468 -1.2124743
000100 b5 32 90 bf 2f 19 8a bf ef a3 98 bf 38 98 5d bf
       -1.1265475 -1.0788935 -1.1925029 -0.8656039
000110 49 32 8c bf e0 8f 66 bf 2e b7 9e bf 77 20 a1 bf
       -1.0952846 -0.90063286 -1.2399652 -1.2588032
000120 15 f9 94 bf 60 bc 96 bf e5 d2 a0 bf 27 61 a4 bf
       -1.1638514 -1.1776237 -1.256436 -1.2842149
000130 79 80 9a bf c9 06 94 bf 0c cb 96 bf 7f 9d 99 bf
       -1.2070457 -1.1564571 -1.1780715 -1.2001189
000140 d0 15 a1 bf cc 86 99 bf 67 ea a1 bf 1a 10 99 bf
       -1.2584782 -1.1994262 -1.2649659 -1.1958039
000150 2f 62 ab bf c9 3c 98 bf 27 71 e9 be 52 2a 10 3d
       -1.3389338 -1.189355 -0.4559414 0.03519661
000160 ca 48 97 bf b2 84 47 bf d2 2c 99 bf 8f ce 9f bf
       -1.1819088 -0.7793685 -1.1966803 -1.2484912
000170 16 a9 a5 bf ba 6f 96 bf 4c 1a 8c bf c7 80 9e bf
       -1.2942226 -1.1752846 -1.0945525 -1.238305
000180 94 16 9f bf 1e 3f 9a bf e6 47 9f bf 2c 8d 98 bf
       -1.2428765 -1.2050512 -1.2443817 -1.1918082
000190 ac ed 97 bf da 77 98 bf 54 29 9d bf 35 80 93 bf
       -1.1869407 -1.1911576 -1.2278237 -1.1523501
0001a0 ea 81 92 bf 4a a9 8f bf a3 bd 84 bf 85 d9 8f bf
       -1.1445897 -1.1223538 -1.0370373 -1.1238257
0001b0 f6 b1 98 bf 19 d0 84 bf 06 d5 9c bf 15 62 81 bf
       -1.1929309 -1.0376006 -1.225251 -1.0108057
0001c0 fe 61 89 bf 46 e9 97 bf 50 6a 91 bf 11 dd a4 bf
       -1.073303 -1.1868064 -1.1360569 -1.2879964
0001d0 db 49 a3 bf 24 f6 95 bf b9 58 9a bf f4 87 a2 bf
       -1.2756914 -1.1715741 -1.2058326 -1.269774
0001e0 e2 ca 96 bf 57 b9 9e bf c4 5a 9b bf cc 22 a1 bf
       -1.1780665 -1.2400311 -1.2137074 -1.2588744
0001f0 a0 00 8e bf fe 2c 89 bf 47 11 a0 bf 49 0c 92 bf
       -1.1093941 -1.0716856 -1.2505273 -1.1409999
000200 e1 89 9c bf 8c ed 9a bf 2b 1c 8e bf 63 77 92 bf
       -1.2229577 -1.2103744 -1.1102346 -1.1442684
000210 32 51 8a bf 3d bc 8c bf 3d 2e 98 bf ad e7 83 bf
       -1.0806029 -1.0994946 -1.1889111 -1.0305077
000220 d6 00 9e bf e8 07 8d bf 7e 3e 97 bf f7 10 99 bf
       -1.2344005 -1.1018038 -1.1815946 -1.1958302
000230 16 b2 84 bf 1a e3 27 be b9 67 90 bf a7 14 8f bf
       -1.0366848 -0.16395226 -1.1281654 -1.1178178
000240 65 a7 79 bf 8a 6e 24 bf c8 cd 7d bf fa 45 b1 bd
       -0.9752105 -0.6423117 -0.9914212 -0.08655925
000250 d2 0a 98 bf c7 39 6f bf 2d 72 d1 bd 69 b8 8c bf
       -1.1878302 -0.93447536 -0.102268554 -1.0993778
000260 32 dd 8c bf 46 c4 9e bf 48 c6 a5 bf f7 7b 80 bf
       -1.1005003 -1.2403648 -1.2951136 -1.0037831
000270 e8 fb 81 bf bd 97 8f bf ae b8 94 bf 5e 90 8c bf
       -1.0155001 -1.1218182 -1.161886 -1.0981557
000280 73 aa 36 bf 3e 55 9c bf a8 32 8f bf 5d 99 5e bf
       -0.71353835 -1.2213514 -1.1187334 -0.86952764
000290 3d 5e 62 bf bb db 62 bf 14 cc 8f bf a2 85 8a bf
       -0.88425046 -0.8861653 -1.1234155 -1.0822031
0002a0 54 73 87 bf e2 11 7e bf ca 24 9a bf f6 f6 85 bf
       -1.058207 -0.99246037 -1.2042477 -1.0465991
0002b0 f5 b3 8d bf 2c 14 8d bf c1 52 8a bf 70 b5 91 bf
       -1.1070544 -1.1021781 -1.0806504 -1.1383495
0002c0 93 6f 8e bf 87 8b 88 bf 06 39 7e bf 9e 6a 91 bf
       -1.11278 -1.066758 -0.9930576 -1.1360662
0002d0 a0 44 90 bf 71 54 92 bf 9b cf 99 bf 9f 8f 33 bf
       -1.1270943 -1.143202 -1.2016481 -0.70141023
0002e0 6f ff 48 bf 16 de 91 bf 4c f7 7c bf 7e 97 96 bf
       -0.7851476 -1.13959 -0.98814845 -1.1764982
0002f0 14 84 8a bf ca 17 9a bf de 68 95 bf 25 db 93 bf
       -1.0821557 -1.203851 -1.1672628 -1.1551253
000300 3b 9c 93 bf a5 95 84 bf 8e 75 9a bf 87 5d 30 bf
       -1.1532053 -1.0358168 -1.2067125 -0.6889271
000310 64 5b 88 bf 2a 8d 44 bf 01 62 90 bf 3d f8 88 bf
       -1.065289 -0.767779 -1.1279908 -1.0700756
000320 2f 5b 83 bf a2 5f 8d bf 55 6d 8b bf 3a a0 92 bf
       -1.0262202 -1.104481 -1.089274 -1.1455147
000330 85 ef 93 bf c6 d9 97 bf 3c 8b 96 bf 32 a8 91 bf
       -1.155747 -1.1863334 -1.1761241 -1.1379454
000340 65 b0 84 bf 03 8d 92 bf e5 04 92 bf f0 c1 8d bf
       -1.0366331 -1.1449283 -1.1407744 -1.107481
000350 25 17 87 bf f4 f2 94 bf 0b 2d e4 bd 98 6b 1a 3d
       -1.0553938 -1.1636643 -0.11141404 0.037700266
000360 8a e2 91 bf db 9a 0d bf 3b 11 96 bf 9a 76 8b bf
       -1.1397259 -0.55314416 -1.1724008 -1.0895569
000370 a2 65 9c bf 36 15 99 bf df d5 86 bf c1 ea 8e bf
       -1.2218516 -1.1959598 -1.0534018 -1.1165391
000380 01 a3 93 bf c4 af 9a bf e1 28 8e bf 5b 91 9b bf
       -1.153412 -1.208489 -1.1106225 -1.2153734
000390 ce 77 97 bf ba 87 95 bf 1f 22 8a bf 1c b2 a0 bf
       -1.1833436 -1.1682045 -1.0791663 -1.2554355
0003a0 e5 93 96 bf f4 d5 82 bf 2a 98 8e bf 6f 18 86 bf
       -1.1763884 -1.0221543 -1.1140187 -1.0476207
0003b0 12 69 8e bf b3 49 84 bf a6 0d 8f bf 11 cd 68 bf
       -1.1125815 -1.0334991 -1.117604 -0.90937907
0003c0 9c bc 84 bf e0 7c 7e bf 6c 70 88 bf 4c a9 98 bf
       -1.0370059 -0.99409294 -1.0659308 -1.1926665
0003d0 fa 4d 80 bf b6 7b 8a bf df 2c 97 bf 3a c4 82 bf
       -1.0023797 -1.0819004 -1.1810569 -1.0216134
0003e0 86 eb a3 bf 03 e1 87 bf ac 89 83 bf 7d 1b 94 bf
       -1.2806251 -1.0615543 -1.0276389 -1.1570889
0003f0 e1 29 95 bf 6b cc 60 bf f1 44 86 bf 52 3e 66 bf
       -1.1653405 -0.8781192 -1.0489789 -0.89938843

linear2.bias f4 [5]
000000 50 a0 65 bf cb da 7f bf 97 4c 4e bf b8 5b 55 bf
       -0.8969774 -0.99943227 -0.80585617 -0.83343077
000010 e3 24 5c bf
       -0.85993785
