examples/minecraft/model/model_7.pth (torch, 46912 bytes, 4 tensors)

linear1.weight f4 [1024, 7]
0	0xbeec1986	-0.46113223
1	0xbcee47df	-0.029087005
2	0x3f3a952e	0.7288388
3	0xbea1edee	-0.31626838
4	0x3f0de474	0.55426717
5	0x3e5d7d18	0.2162975
6	0xbe100372	-0.14063814
7	0x3ea6d07a	0.3258093
8	0x3e5ab0ad	0.21356459
9	0x3bd8d6f6	0.006617422
10	0x3e8fd2f1	0.28090623
11	0xbeeb23e0	-0.45925808
12	0x3f62f5ee	0.8865651
13	0x3d4dbc40	0.050228357
14	0x3da95520	0.082681894
15	0x3f01680b	0.5054938
16	0xbf01b5ae	-0.50667846
17	0x3f00df3c	0.5034063
18	0xbee1e005	-0.44116226
19	0x3f9d6f44	1.229958
20	0xbdf71d38	-0.1206612
21	0xbebbef69	-0.36706093
22	0x3e95b693	0.29240856
23	0xbdd66910	-0.10469258
24	0xbe0a6691	-0.13515688
25	0xbe8cee52	-0.27525574
26	0xbd5d6fb0	-0.05406159
27	0x3eaebce3	0.34128484
28	0xbda89a95	-0.08232609
29	0xbef0814a	-0.4697364
30	0x3ee9250a	0.4553607
31	0xbd214e42	-0.039381273
32	0x3d392128	0.045197636
33	0x3f6edad0	0.9330263
34	0xbf4deced	-0.80439645
35	0xbe8493ca	-0.25894004
36	0x3dbc91c8	0.09207493
37	0x3f4c107e	0.79712665
38	0xbe15d374	-0.14631444
39	0x3f8f5486	1.119767
40	0x3edcbbf4	0.43112147
41	0x3e20dfe2	0.15710405
42	0x3d9afd61	0.075678594
43	0xbcd14585	-0.025545845
44	0x3f337e4b	0.7011458
45	0x3ea6e842	0.32599074
46	0x3f703d27	0.9384331
47	0x3f037128	0.5134454
48	0xbeb4e281	-0.3532906
49	0xbf03027a	-0.51175654
50	0xbf90d8a2	-1.1316111
51	0x3f854c96	1.0413997
52	0xbebee2c7	-0.37282392
53	0x3d0d348a	0.034473933
54	0x3f808c96	1.0042903
55	0x3e00054b	0.12502019
56	0xbea319b0	-0.31855536
57	0x3e3ddbaa	0.18540826
58	0xbb777d80	-0.0037764013
59	0xbe8ed4ed	-0.27896824
60	0xbe87ad68	-0.26499486
61	0x3dfae99c	0.12251589
62	0xbd5c6158	-0.05380377
63	0x3d8f2cd3	0.069909714
64	0xbf3d486a	-0.7393862
65	0x3f38ffbf	0.7226524
66	0x3dda5345	0.10660414
67	0x3f2dbe70	0.6786871
68	0x3f3d94e3	0.7405531
69	0x3db49c1b	0.08818837
70	0xbe8581f7	-0.26075718
71	0x3e2119ef	0.15732549
72	0xbc83918d	-0.016060615
73	0x3da12fb6	0.07870428
74	0xbbf31379	-0.007418093
75	0x3fc9374f	1.5720004
76	0xbe34885c	-0.17630142
77	0xbeef7357	-0.46767685
78	0xbf2ebcfa	-0.68257105
79	0xbf52d5b4	-0.82357335
80	0x3f608fc3	0.8771936
81	0x3f0cf7f4	0.55065846
82	0xbf44f022	-0.76928914
83	0xbd8ed28f	-0.069737546
84	0x3e30b312	0.1725581
85	0xbea1db8c	-0.31612813
86	0x3f1eb0d1	0.6198855
87	0xbd739c6a	-0.05947534
88	0x3f8726c5	1.0558707
89	0x3ee4f997	0.44721672
90	0x3dfc8c8f	0.12331497
91	0x3e5e355c	0.21700042
92	0x3e82d508	0.25553155
93	0x3ee815be	0.45329088
94	0xbe096b26	-0.1341978
95	0x3f655f2e	0.8959836
96	0x3e64256a	0.22279897
97	0xbd8c568d	-0.06852446
98	0x3ea6578c	0.32488668
99	0x3dab6761	0.08369327
100	0xbe7e47a7	-0.2483202
101	0xbdbf2eb0	-0.09335077
102	0xbe04ceef	-0.12969564
103	0x3d34f56a	0.044179358
104	0x3c759540	0.014989197
105	0xbda4b148	-0.08041626
106	0xbea1682c	-0.3152479
107	0xbf52829a	-0.8223053
108	0xbea3ae05	-0.31968704
109	0xbf557c34	-0.83392644
110	0x3d1552e8	0.03645602
111	0x3d5dfb2a	0.054194607
112	0xbe66f41f	-0.22554062
113	0x3e415039	0.18878259
114	0x3ee9f2f5	0.45693174
115	0x3ec9ed55	0.39438882
116	0x3f88a8bc	1.0676494
117	0x3f698d7c	0.91231513
118	0xbe36b3ea	-0.1784207
119	0x3ef90fdc	0.48644912
120	0xbed7b550	-0.42130518
121	0x3ed8eb04	0.42366803
122	0x3e0476ab	0.12935893
123	0x3e9ee673	0.31035194
124	0x3f9cb8c3	1.2243885
125	0x3d469193	0.048478674
126	0x3dccbdec	0.09997162
127	0xbd30e9c8	-0.0431917
128	0x3ce13e90	0.027495652
129	0x3dae9984	0.085253745
130	0x3ddd6200	0.10809708
131	0x3d3c3d88	0.04595712
132	0x3de96684	0.113965064
133	0x3e03e4ea	0.12880293
134	0x3f698dad	0.91231805
135	0x3f6e781e	0.93152034
136	0x3f33992f	0.70155615
137	0xbf79ef9b	-0.97631234
138	0xbf1eafc4	-0.6198695
139	0x3ed8c4bd	0.423376
140	0xbe75ba95	-0.23996957
141	0xbf4b7e23	-0.79489344
142	0x3f447bd1	0.7675143
143	0x3d9f44f6	0.07776825
144	0x3eb20f05	0.34777084
145	0x3fae01ee	1.3594339
146	0x3eb73745	0.35784355
147	0xbe76a936	-0.24087986
148	0x3d7cd6a8	0.06172815
149	0x3edf7c6c	0.43649614
150	0xbe4b1232	-0.1983116
151	0x3f903a5e	1.1267812
152	0xbe18cc07	-0.1492158
153	0xbe93c441	-0.28860667
154	0x3f0e1643	0.5550272
155	0xbf1798d5	-0.5921758
156	0x3edfaf21	0.436883
157	0xbe9d95f4	-0.30778468
158	0xbad35927	-0.0016124592
159	0x3f9e2b50	1.2356968
160	0xbed2bce3	-0.41159734
161	0xbf2291a9	-0.6350351
162	0xbe494d7b	-0.19658463
163	0x3de021be	0.10943936
164	0x3e315cbf	0.17320536
165	0x3edaa6ff	0.42705533
166	0x3f14ab92	0.58074296
167	0xbcd4f42f	-0.025995342
168	0xbe90b6d8	-0.282645
169	0x3f0b375b	0.5438134
170	0xbf0dca63	-0.5538694
171	0xbed1815f	-0.40919015
172	0xbe94c376	-0.29055375
173	0xbebdb725	-0.3705379
174	0x3ec43122	0.38318735
175	0x3ea63871	0.32464936
176	0xbdefd290	-0.117100835
177	0xbdefefbc	-0.117156476
178	0x3e1b2276	0.15149865
179	0xbe699daf	-0.22814058
180	0x3db10e6b	0.08645328
181	0x3dcfb37f	0.10141658
182	0xbe8211d0	-0.25404215
183	0x3d328d27	0.043591645
184	0x3f5d33a1	0.86406904
185	0xbd03d3ca	-0.0321844
186	0x3f9c6fe4	1.2221646
187	0xbd0fc643	-0.035101186
188	0xbe3f2081	-0.18664743
189	0xbb8a55a2	-0.004221634
190	0xbf41cbb3	-0.75701445
191	0x3f021b1a	0.50822604
192	0xbf0c30e9	-0.5476213
193	0x3ea11e84	0.31468594
194	0x3f9d69c7	1.2297906
195	0xbce30398	-0.027711675
196	0xbecd4d6f	-0.4009814
197	0xbf5da7fc	-0.8658445
198	0x3f1dacb5	0.61591655
199	0xbe07b1a8	-0.13251364
200	0x3ec0d496	0.3766219
201	0x3f4cdedd	0.8002756
202	0x3e1c7a7c	0.15281099
203	0x3ebbf86b	0.36712965
204	0xbe2a5812	-0.16635159
205	0x3f0465a0	0.5171757
206	0xbd5953f7	-0.05305859
207	0x3f8488a8	1.0354204
208	0x3eebf574	0.46085703
209	0xbe66ca02	-0.22537997
210	0x3eb601da	0.35548288
211	0x3ded4390	0.11585152
212	0x3e1e5991	0.15463854
213	0x3ed5eb94	0.41781294
214	0x3f6553b2	0.89580834
215	0x3f3c4e0c	0.7355659
216	0x3dc68f31	0.0969528
217	0xbdc192e1	-0.09451843
218	0xbb577343	-0.0032875098
219	0x3ede683a	0.43438894
220	0xbe2f1ba4	-0.17100388
221	0x3f882ef2	1.0639327
222	0xbed6a230	-0.41920614
223	0xbe7107be	-0.2353811
224	0xbf18207e	-0.5942458
225	0xbed1960b	-0.40934786
226	0x3f266ec9	0.65012795
227	0xbd4406bc	-0.047857985
228	0x3f02cd34	0.51094365
229	0x3d854036	0.06506388
230	0x3e0d3f0a	0.13793579
231	0x3ee95130	0.45569754
232	0x3cd43f3f	0.025909064
233	0x3f442475	0.7661813
234	0xbd1bd7d2	-0.03804762
235	0x3f597ce2	0.8495618
236	0x3f752860	0.9576473
237	0xbe92ba12	-0.28657585
238	0xbee4e242	-0.4470387
239	0xbdf754b7	-0.12076705
240	0x3f277442	0.6541177
241	0xbe78c13b	-0.24292462
242	0x3f773e8b	0.9657981
243	0x3ed0c5e5	0.40775982
244	0xbd070c9e	-0.032971017
245	0x3f0349b6	0.5128435
246	0x3c028b7f	0.007967829
247	0x3f428dd4	0.7599766
248	0xbe188645	-0.1489497
249	0x3f2a4ce7	0.66523594
250	0xbe81c4e1	-0.2534552
251	0xbabeebf1	-0.0014566166
252	0x3ec22dc7	0.3792555
253	0xbe339d47	-0.17540465
254	0x3f2811cb	0.6565215
255	0xbea79a78	-0.32735038

linear1.bias f4 [1024]
0	0x3e77dcca	0.24205318
1	0x3af12777	0.0018398602
2	0x3ee41559	0.44547537
3	0xbebbb486	-0.36661166
4	0xbd1b6490	-0.0379377
5	0x3f47b1dc	0.78005767
6	0x3eee2c1b	0.46518025
7	0x3d3d76e8	0.046255976
8	0xbe61224a	-0.21985736
9	0xbf2a4fea	-0.6652819
10	0x3e4f8733	0.20266418
11	0x3e8441d1	0.25831464
12	0x3e8278a5	0.2548267
13	0x3e85eca4	0.26157105
14	0xbea5d434	-0.3238846
15	0x3f3c3395	0.7351621
16	0x3ed5260d	0.41630593
17	0xbe9cef6a	-0.30651408
18	0xbeaa574c	-0.33269727
19	0x3d6d6e23	0.057966363
20	0xbea8f0e1	-0.32996276
21	0x3f4d7887	0.80262035
22	0x3c31a8ee	0.010843499
23	0x3cc5fb9e	0.024167832
24	0x3e99b8af	0.30023715
25	0xbe31ba53	-0.17356233
26	0x3f35d932	0.7103454
27	0xbd9747c5	-0.07386736
28	0xbe071f05	-0.13195427
29	0xbdfcd624	-0.123455316
30	0x3e135a29	0.14389862
31	0x3f65d0cb	0.8977172
32	0xbd5b967d	-0.053610314
33	0xbe4d060f	-0.20021842
34	0x3ea5dc5b	0.3239468
35	0x3e651b8c	0.2237379
36	0x3ed05a24	0.40693772
37	0xbea6c2ac	-0.32570398
38	0x3ec936f8	0.3929975
39	0xbd580b5b	-0.052745204
40	0x3ef7e2db	0.48415264
41	0xbe08d14f	-0.13361095
42	0x3c26e7f3	0.010187137
43	0xbdbf929c	-0.093541354
44	0x3e2bbc54	0.1677106
45	0xbe7bf3fe	-0.24604794
46	0xbeadf24d	-0.33973923
47	0x3de35784	0.11100677
48	0x3eb3076e	0.34966606
49	0x3d746cb9	0.059674
50	0xbe71e18c	-0.23621196
51	0x3e070b2b	0.13187854
52	0x3edb6826	0.42852896
53	0xbe0b1dc3	-0.13585572
54	0xbe29cb21	-0.16581394
55	0x3e0a3049	0.13494982
56	0x3ebb9303	0.366356
57	0xbe1014b6	-0.140704
58	0xbe9d6d06	-0.3074724
59	0x3e872110	0.26392412
60	0xbe84be0a	-0.25926238
61	0x3f0ad0ef	0.5422506
62	0xbe53e143	-0.206914
63	0xbec68a91	-0.38777593
64	0xbe0df3bb	-0.13862507
65	0x3de2baea	0.11070807
66	0x3e961b42	0.2931767
67	0xbe960cc2	-0.29306608
68	0x3ea1cde3	0.31602392
69	0xbdc31177	-0.095248155
70	0x3e0fb0f7	0.1403235
71	0x3d4ac76d	0.049506593
72	0x3f079a70	0.5297003
73	0x3e54c7bb	0.20779316
74	0x3db576b9	0.08860535
75	0x3ee41952	0.44550568
76	0xbe44b6bf	-0.19210337
77	0x3f20974a	0.6273085
78	0xbd2993f7	-0.041400876
79	0xbca0d6dc	-0.019633703
80	0x3f1356c3	0.5755426
81	0x3f3bda8f	0.7338037
82	0x3f2a0189	0.6640859
83	0x3ca22552	0.019793186
84	0x3cda14be	0.026621219
85	0xbebb8aaf	-0.36629245
86	0x3cebd540	0.028788209
87	0xbe996c15	-0.29965273
88	0x3ef708e9	0.48248985
89	0x3ef8ff6a	0.48632365
90	0x3ee7d99c	0.4528321
91	0x3f5fcadc	0.87418914
92	0xbea8cce7	-0.32968828
93	0xbe428b7b	-0.1899852
94	0xbe84070a	-0.2578662
95	0xbe911a64	-0.28340447
96	0x3dbdfcdc	0.09276745
97	0x3f44d213	0.7688305
98	0x3dd05ea1	0.10174299
99	0x3dd5ebbc	0.104453534
100	0xbe3b8ed3	-0.18316202
101	0xbe31719a	-0.17328492
102	0x3d13d23b	0.036089163
103	0x3f75d355	0.9602559
104	0x3f7b67cc	0.98205256
105	0x3e97a6cb	0.2961944
106	0x3f478ed0	0.7795229
107	0x3f034996	0.5128416
108	0xbe8776ad	-0.2645773
109	0x3f02c1a4	0.5107672
110	0x3de25884	0.11052039
111	0x3de01b0c	0.10942659
112	0xbe85db07	-0.26143667
113	0x3f4f582a	0.809939
114	0x3e329e71	0.17443253
115	0x3ee275a0	0.44230366
116	0xbe42be54	-0.19017917
117	0x3eac9b46	0.33712214
118	0x3ecdd220	0.40199375
119	0x3c95cd92	0.0182865
120	0x3ddfef77	0.10934346
121	0xbd0a945c	-0.033832893
122	0xbeb29824	-0.348817
123	0x3ed349fa	0.41267377
124	0xbd578dbf	-0.052625414
125	0x3f003e77	0.50095314
126	0x3a824f38	0.0009941822
127	0xbea0eac3	-0.3142911
128	0x3f1da361	0.6157742
129	0xbd721108	-0.059098274
130	0xbe224697	-0.1584724
131	0xbeb4d714	-0.35320342
132	0x3c38c20a	0.011276731
133	0xbeb79910	-0.35858965
134	0xbc959761	-0.01826066
135	0xbe5fc5fc	-0.21852869
136	0xbea6a5eb	-0.3254846
137	0xbeec3ecc	-0.4614166
138	0xbe615e23	-0.22008567
139	0x3f08942e	0.53351104
140	0xbe63304b	-0.22186391
141	0x3ec15bbe	0.37765306
142	0x3f3ed0e5	0.745375
143	0x3f247bb1	0.6425124
144	0x3f3aaba1	0.72918135
145	0x3f369a05	0.71328765
146	0x3f63b351	0.8894549
147	0x3f2a8758	0.6661277
148	0x3ea1a2ff	0.3156967
149	0x3e015260	0.1262908
150	0x3ea615e6	0.32438582
151	0xbdcc3e1a	-0.099727824
152	0x3e1f9c37	0.15586935
153	0x3eb4520f	0.35218856
154	0x3d983184	0.07431319
155	0xbc210032	-0.009826707
156	0x3e078c95	0.13237222
157	0x3eb3a08c	0.35083425
158	0x3f60c106	0.8779453
159	0x3f215727	0.6302361
160	0x3d7726e9	0.060339842
161	0xbeae0fed	-0.33996525
162	0x3eff51a2	0.49866968
163	0xbeccf0a8	-0.40027356
164	0x3e789481	0.242754
165	0xbeb21141	-0.3477879
166	0x3e050f00	0.12994003
167	0x3f0ec092	0.5576259
168	0xbe8edc6f	-0.27902552
169	0xbe32c217	-0.17456852
170	0x3f496733	0.78673095
171	0x3e7b0b7b	0.24516098
172	0xbd2259a8	-0.039636284
173	0x3e89e119	0.26929548
174	0x3f0d2b81	0.55144507
175	0xbea51b7c	-0.3224753
176	0xbea46c96	-0.32114094
177	0x3e5eb63b	0.21749203
178	0x3f0a93c0	0.541317
179	0xbe39db57	-0.18150078
180	0xbd915ba9	-0.07097561
181	0xbd04e340	-0.032443285
182	0xbc88285a	-0.016620804
183	0x3db27d96	0.0871536
184	0x3f43a2c6	0.7642025
185	0xbccfa0e0	-0.025345266
186	0xbebc3fb7	-0.3676736
187	0x3e98971f	0.29802796
188	0x3e8a461c	0.27006614
189	0x3e44c35c	0.19215149
190	0x3e110f29	0.1416594
191	0x3f116528	0.5679498
192	0x3f866dba	1.0502236
193	0x3f0e0d53	0.5548908
194	0x3dbd16f9	0.09232897
195	0x3e655ea6	0.22399387
196	0x3ec1de6c	0.37865007
197	0x3e074541	0.13210012
198	0x3e61c396	0.22047266
199	0x3f50b7c0	0.8153038
200	0x3ec7f23a	0.39051992
201	0x3e9dd78a	0.30828506
202	0x3deca671	0.11555184
203	0xbe7b8fec	-0.2456662
204	0xbdc84173	-0.097781084
205	0xbebfcda4	-0.3746158
206	0xbdd100bd	-0.10205219
207	0xbf0f2d98	-0.55928946
208	0xbec2295d	-0.37922183
209	0xbe305ae9	-0.1722218
210	0xbe116a40	-0.14200687
211	0x3e113840	0.14181614
212	0xbd41e108	-0.047333747
213	0xbcd84cbc	-0.026403777
214	0xbd851701	-0.06498528
215	0x3f24abc3	0.6432459
216	0xbeba1be3	-0.363494
217	0xbd127d3e	-0.03576397
218	0xbd96d147	-0.07364135
219	0x3ed2e727	0.4119198
220	0x3f164a97	0.58707565
221	0xbe7856bc	-0.24251837
222	0xbd6dd1e4	-0.058061495
223	0x3e295d15	0.16539414
224	0x3e924b37	0.2857301
225	0xbdd25473	-0.10270014
226	0x3d5677ed	0.052360464
227	0x3b8ee2a1	0.0043605124
228	0xbdc41681	-0.09574605
229	0xbe3879d2	-0.18015221
230	0xbebd4877	-0.3696935
231	0xbe71e843	-0.23623757
232	0x3e41f61f	0.18941544
233	0x3e144aed	0.14481707
234	0xbb3b92b4	-0.0028621377
235	0x3e8a568d	0.27019158
236	0xbf2472c0	-0.64237595
237	0xbd61b1f6	-0.055101357
238	0xbdcb3a9a	-0.09923287
239	0xbccf08fa	-0.025272835
240	0x3ef5ac69	0.479831
241	0x3f07d9ff	0.5306701
242	0x3d39c65a	0.04535518
243	0x3eeb0981	0.45905688
244	0x3e669c8b	0.22520654
245	0x3ec0098c	0.37507284
246	0x3e686a43	0.22696786
247	0xbe0f6d1f	-0.1400647
248	0x3eb7493f	0.3579807
249	0xbd1ce7d9	-0.038307045
250	0xbdaf3692	-0.0855533
251	0x3ebeae75	0.37242475
252	0x3eb55b04	0.35421002
253	0x3eeaaf30	0.45836782
254	0xbe45217c	-0.19251055
255	0x3f208e0a	0.62716734

linear2.weight f4 [3, 1024]
0	0xbedb8d87	-0.42881414
1	0x3f415e31	0.7553435
2	0x3f123adb	0.57121056
3	0xbcf77782	-0.030208353
4	0xbca8e9fd	-0.020619387
5	0xbec3b423	-0.3822337
6	0xbe95414b	-0.29151377
7	0xbe64575d	-0.22298951
8	0x3c9e053e	0.019289609
9	0xbe9fb240	-0.3119068
10	0x3dbd66f3	0.09248152
11	0xbbd35d98	-0.006450366
12	0xbeb07d68	-0.34470677
13	0xbe6acc56	-0.2292951
14	0x3bb0a954	0.0053912792
15	0x3e4e3f21	0.2014127
16	0xbe845e1a	-0.25853044
17	0x3e96f4ee	0.29483742
18	0xbb25d5b0	-0.002530437
19	0x3f27ed68	0.6559663
20	0x3b90d45d	0.004419847
21	0xbf000803	-0.50012225
22	0x3eafe751	0.34356168
23	0xbe372ce2	-0.17888215
24	0xbebcf284	-0.36903775
25	0xbbd9ef35	-0.00665083
26	0xbf033f63	-0.51268595
27	0xbd3874ef	-0.04503339
28	0xbe1111d5	-0.14166959
29	0xbe9bd8e2	-0.30438906
30	0xbe36ce51	-0.17852141
31	0xbf1406e3	-0.5782301
32	0xbef03586	-0.46915835
33	0xbe5f8c21	-0.21830799
34	0xbeb5068d	-0.3535656
35	0xbf2d66a8	-0.67734766
36	0xbea62349	-0.32448795
37	0x3d015d39	0.031583045
38	0xbf23e59f	-0.6402225
39	0xbe0c9d46	-0.1373187
40	0xbece2031	-0.40258935
41	0xbdb18b9d	-0.08669207
42	0xbe532987	-0.2062131
43	0x3da4a0a5	0.08038453
44	0x3ee702d0	0.45119333
45	0xbe175702	-0.14779285
46	0x3c5ae302	0.013359787
47	0xbed053f6	-0.40689057
48	0xbdf60e9b	-0.120145045
49	0x3e8434b9	0.25821474
50	0xbec46dce	-0.38365024
51	0xbe4859d2	-0.19565514
52	0x3f3a4615	0.72763187
53	0xbe6fcb54	-0.23417407
54	0xbc893aea	-0.016751725
55	0xbe87e4a0	-0.26541615
56	0xbe90db5b	-0.28292355
57	0xbc1c9ad3	-0.009558397
58	0xbc5cb588	-0.013471015
59	0xbf0547f6	-0.5206293
60	0xbd2921ff	-0.041292187
61	0xbf113707	-0.5672459
62	0xbe894e12	-0.26817375
63	0xbe886d0c	-0.26645696
64	0xbe1c3006	-0.15252694
65	0xbe4c5891	-0.1995566
66	0xbdf80ff6	-0.12112419
67	0xbcc74b72	-0.024327967
68	0xbf4ce419	-0.8003555
69	0xbec54313	-0.38527736
70	0x3e2b657c	0.16737932
71	0x3e3ea236	0.18616566
72	0xbf3df11c	-0.7419603
73	0xbe24f9b7	-0.16110884
74	0x3da930ca	0.08261259
75	0xbef7db8e	-0.48409694
76	0xbd362640	-0.04447007
77	0xbea8fa28	-0.33003354
78	0xbe323f55	-0.17406972
79	0xbe703367	-0.23457108
80	0xbe802719	-0.2502983
81	0xbec2888b	-0.379948
82	0x3f814bf1	1.01013
83	0xbe839b8b	-0.25704607
84	0xbe830efb	-0.25597367
85	0x3c7b2c47	0.015330381
86	0x3dcb4bb6	0.0992655
87	0x3ce19581	0.02753711
88	0xbead0616	-0.33793706
89	0xbf203445	-0.62579757
90	0xbf042f49	-0.5163465
91	0xbef98397	-0.48733208
92	0x3c195a58	0.009359919
93	0xbe45fb0c	-0.19334048
94	0xbe91168b	-0.2833751
95	0xbe4c15b4	-0.19930154
96	0xbe47e6ef	-0.19521688
97	0xbf21625c	-0.6304071
98	0xbf177f62	-0.59178746
99	0xbe68fd20	-0.2275281
100	0x3c9f6dcc	0.019461535
101	0xbd8afbfb	-0.06786343
102	0xbe1ab000	-0.15106201
103	0xbef987a2	-0.48736292
104	0xbed178c2	-0.40912443
105	0xbe2ec0e7	-0.17065774
106	0x3f60153e	0.87532413
107	0xbebc14c8	-0.36734605
108	0x3c0cf53f	0.008603393
109	0xbeab389f	-0.33441636
110	0xbe420fd8	-0.18951356
111	0xbead5680	-0.33855057
112	0xbe3e3f57	-0.1857885
113	0xbed19143	-0.40931138
114	0xbeaec3d8	-0.34133792
115	0xbe96fea2	-0.29491144
116	0xbc710586	-0.01471079
117	0xbea3ca78	-0.3199041
118	0xbf3508cb	-0.7071654
119	0x3ed51946	0.41620845
120	0xbf0af1bf	-0.54275125
121	0xbe93d87a	-0.28876096
122	0xbe27b1a4	-0.16376358
123	0xbef0cef8	-0.47032905
124	0xbe394b12	-0.18095043
125	0xbe8bbf5b	-0.2729443
126	0xbeb479a0	-0.35249043
127	0xbca39ada	-0.0199713
128	0xbec97f2b	-0.39354834
129	0xbc2edcc8	-0.010672756
130	0xbd89f7c7	-0.06736713
131	0x3bc31358	0.0059532337
132	0x3e7667cd	0.24063034
133	0x3e61e331	0.22059323
134	0xbe49f788	-0.19723332
135	0xbe8fc179	-0.28077295
136	0x3c9cf8ee	0.019161668
137	0xbe88b119	-0.26697615
138	0x3bd1b718	0.0064000003
139	0xbf299819	-0.6624771
140	0xbe00ada7	-0.12566243
141	0xbb1f871d	-0.0024342008
142	0xbeeab7bf	-0.45843312
143	0xbea9610c	-0.33081853
144	0x3dfbe05e	0.12298654
145	0xbebb43bf	-0.36575124
146	0xbed39c33	-0.41330108
147	0x3f6a9b43	0.9164316
148	0xbeaf1b1e	-0.34200376
149	0xbe6a273d	-0.2286653
150	0xbf3981fc	-0.72463965
151	0xbdf682fc	-0.12036702
152	0x3e36a4c6	0.17836294
153	0xbf55817f	-0.8340072
154	0xbead1364	-0.33803856
155	0xbe78a72e	-0.24282524
156	0x3e1af0d2	0.15130928
157	0xbe51a442	-0.20472816
158	0xbeec1945	-0.4611303
159	0xbea98db0	-0.3311591
160	0xbf090bbb	-0.53533524
161	0xbcd8649e	-0.026415166
162	0xbede4f3c	-0.43419826
163	0x3b10b93a	0.002208306
164	0xbf487429	-0.78302246
165	0xbce6757a	-0.028132189
166	0x3e6f4ca7	0.23369084
167	0xbf185710	-0.59507847
168	0xbc6fbd20	-0.014632493
169	0xbe9e31b9	-0.3089731
170	0xbf034866	-0.51282346
171	0xbf1b5512	-0.6067668
172	0xbadeb2cc	-0.0016990541
173	0x3e608a96	0.21927866
174	0xbf1f9b0a	-0.62345946
175	0x3baae1a0	0.005214885
176	0x3c0f989c	0.008764412
177	0xbde443c6	-0.11145739
178	0xbe87fc24	-0.26559556
179	0xbe1ca893	-0.15298681
180	0xbdd63909	-0.10460097
181	0x3df83568	0.121195614
182	0x3e6e9ba8	0.23301566
183	0xbee7c78d	-0.45269433
184	0xbee4aa96	-0.44661397
185	0x3e03dfb3	0.12878303
186	0x3c2ad880	0.010427594
187	0x3f27bd73	0.6552345
188	0xbf17dfb1	-0.593257
189	0xbe3d9d91	-0.18517138
190	0x3e7cdb37	0.24692999
191	0xbf1e8fae	-0.6193799
192	0xbef99238	-0.4874437
193	0xbe9a97d8	-0.30193973
194	0xbe7897ed	-0.24276705
195	0xbe99b17d	-0.30018225
196	0x3eff6f0f	0.49889418
197	0x3df8e14a	0.121523455
198	0x3e23d772	0.16000155
199	0xbed4465c	-0.4145993
200	0x3ebc66ac	0.36797082
201	0xbd9ac8a9	-0.07557804
202	0xbe95ae6e	-0.29234642
203	0x3d0e6312	0.03476245
204	0xbd901808	-0.070358336
205	0x3b85388d	0.0040655793
206	0xbc897e58	-0.016783878
207	0xbda69883	-0.08134558
208	0x3b62f72e	0.0034632194
209	0xbc9c052e	-0.019045439
210	0x3cf8248e	0.030290868
211	0x3db834a9	0.08994419
212	0x3cff6c60	0.031179607
213	0xbccdf760	-0.025142372
214	0x3e027608	0.12740338
215	0xbeae1f7a	-0.3400839
216	0x3cc29edc	0.02375739
217	0xbce78b02	-0.028264526
218	0xbe00efac	-0.12591428
219	0xbed7917d	-0.42103186
220	0xbe724932	-0.23660734
221	0x3cc34528	0.023836687
222	0x3d9ab29f	0.075536005
223	0x3d2f8e6b	0.04286043
224	0xbef46459	-0.4773281
225	0xbe8046e6	-0.2505409
226	0x3c608f27	0.013706005
227	0xbe6a77c9	-0.22897257
228	0xbe37f956	-0.17966208
229	0xbe498323	-0.19678931
230	0xbca0374d	-0.01955762
231	0x3cdd2ede	0.026999887
232	0x3de08f24	0.10964802
233	0xbeaaa86c	-0.3333162
234	0xbeca3e9c	-0.39500892
235	0x3ed051df	0.40687463
236	0xbdf5ad3f	-0.11995935
237	0x3dcdcfa9	0.10049374
238	0xbeb7265a	-0.35771447
239	0xbf1145f7	-0.5674738
240	0xbf528b5e	-0.8224391
241	0xbf1e165f	-0.61752886
242	0x3dacc07c	0.08435151
243	0xbed37d82	-0.41306692
244	0x3d7d277b	0.06180523
245	0xbf0529a3	-0.5201666
246	0xbe46f558	-0.19429529
247	0x3e9a0879	0.3008459
248	0xbd2b94f0	-0.041890085
249	0x3e168fe3	0.14703326
250	0xbe1889ae	-0.1489627
251	0xbec0af92	-0.3763395
252	0xbec1daac	-0.37862146
253	0xbf0c828a	-0.54886687
254	0xbc598240	-0.013275683
255	0xbe8ff881	-0.2811928

linear2.bias f4 [3]
0	0xbe29ceb2	-0.16582754
1	0xbe37670b	-0.17910402
2	0x3ea33688	0.31877542
