examples/minecraft/model/model_working.pth (torch, 13632 bytes, 4 tensors)

linear1.weight f4 [128, 17]
0	0x3c9fd490	0.019510537
1	0x3f194816	0.5987562
2	0x3ecb41ba	0.39698583
3	0xbd92a657	-0.07160633
4	0x3ecf9a0c	0.40547216
5	0x3f4f371f	0.80943483
6	0xbd8669d2	-0.065631524
7	0x3e6afa58	0.22947061
8	0x3f83e979	1.0305625
9	0x3d9cb3a7	0.076514535
10	0x3e769919	0.2408184
11	0x3e288f58	0.16460931
12	0x3e926a4c	0.28596723
13	0x3f8c2edf	1.0951804
14	0x3efb1c9e	0.4904527
15	0xbe12c934	-0.14334565
16	0x3ee4e740	0.4470768
17	0xbe19a79a	-0.15005341
18	0xbdbc3c6d	-0.09191213
19	0x3e855b7e	0.26046365
20	0x3d33ba74	0.043878987
21	0xbd95f037	-0.07321208
22	0x3e915af5	0.28389707
23	0x3d6f907d	0.058487404
24	0x3eb6a2a9	0.35670975
25	0x3ddb5948	0.107103884
26	0xbdf8d614	-0.12150207
27	0x3e971a5a	0.29512292
28	0x3e57ac31	0.2106178
29	0xbddada8c	-0.10686216
30	0x3eec7970	0.461864
31	0x3e26fdad	0.16307707
32	0xbe4d4e48	-0.20049393
33	0x3e952499	0.29129484
34	0xbce7d380	-0.028299093
35	0xbde245e7	-0.11048489
36	0x3ea3c5c8	0.31986833
37	0x3dd9965f	0.10624384
38	0x3e2f3f26	0.17113933
39	0x3de6e646	0.1127439
40	0x3e55bb8e	0.20872328
41	0xbe194f15	-0.14971574
42	0xbdd1981e	-0.10234092
43	0xbe7e8f80	-0.24859428
44	0x3d6670c6	0.056259893
45	0x3cc3967b	0.023875466
46	0xbd761e62	-0.06008757
47	0xbc772f21	-0.01508692
48	0xbdb4fc18	-0.088371456
49	0x3e24772e	0.16061088
50	0xbe349bde	-0.17637584
51	0xbd2b3800	-0.041801453
52	0xbe9e8bcd	-0.30966035
53	0xbf027dc4	-0.50973153
54	0xbcdda874	-0.027057864
55	0xbe1705a3	-0.14748244
56	0xbf0d6291	-0.55228525
57	0x3ea96172	0.33082157
58	0x3f200f3b	0.6252324
59	0xbf1a3752	-0.6024066
60	0x3e387cf7	0.1801642
61	0x3f3394a5	0.7014869
62	0x3ec86bfd	0.3914489
63	0x3f2cece9	0.67548996
64	0xbecdde5d	-0.40208712
65	0x3ee6d747	0.4508612
66	0xbe726768	-0.23672259
67	0x3ed1be35	0.4096543
68	0xbe54b3fe	-0.20771787
69	0x3eefdced	0.4684824
70	0x3f23a2b2	0.6392013
71	0x3de6c02d	0.11267123
72	0x3dcb0fb5	0.09915105
73	0x3efa844d	0.48929062
74	0xbe9f5e33	-0.31126556
75	0xbe2e1292	-0.16999272
76	0x3f372c0e	0.715516
77	0x3d8d85d1	0.06910289
78	0x3f0f65c6	0.5601467
79	0x3e4e4231	0.20142438
80	0x3c7d11a4	0.0154461
81	0x3f5eff29	0.87108094
82	0x3f6ee262	0.9331418
83	0x3e55a39e	0.20863196
84	0x3f543f99	0.8290954
85	0xbd2a5a64	-0.04159011
86	0x3ed62e10	0.41832018
87	0x3f43f3c2	0.7654382
88	0xbdda0cbe	-0.10646962
89	0x3f0d6481	0.5523148
90	0x3eb2d128	0.349252
91	0x3e9bb6e9	0.30412987
92	0x3f00ea40	0.5035744
93	0x3f1fa307	0.62358135
94	0x3e67e516	0.22645983
95	0x3edbea64	0.42952263
96	0x3ede8bb5	0.43465963
97	0x3f49c22a	0.78811896
98	0x3ec88cb9	0.39169863
99	0x3eaf1848	0.34198213
100	0xbde6202c	-0.11236605
101	0x3f459eaf	0.77195257
102	0x3e241f78	0.1602763
103	0x3ec64bbc	0.38729656
104	0x3eee5689	0.46550396
105	0x3cdff53d	0.027338618
106	0x3d9d7377	0.07688039
107	0x3f27cf79	0.65550953
108	0xbe8adde5	-0.27122417
109	0xbe6df444	-0.23237711
110	0x3f8205af	1.0157984
111	0xbd8341d1	-0.06409038
112	0x3e25af9a	0.16180268
113	0xbe5c9d24	-0.2154432
114	0xbe921358	-0.28530383
115	0x3f8f4d7b	1.119552
116	0x3cba9c61	0.022779645
117	0x3d83b56c	0.06431088
118	0x3e576836	0.21035847
119	0xbd89b0e6	-0.06723194
120	0xbe2088ed	-0.15677233
121	0x3e8cecbc	0.27524364
122	0x3e1c3024	0.15252739
123	0x3cfb0b4d	0.030645037
124	0x3ee7f611	0.4530492
125	0xbe7a6866	-0.24453887
126	0xbcf1155c	-0.02942913
127	0x3e90bd12	0.2826925
128	0xbd947199	-0.072482295
129	0x3f33a792	0.70177567
130	0x3d24d23e	0.040239565
131	0xbe695a0a	-0.22788253
132	0x3f3f8178	0.7480693
133	0x3f7534f9	0.95783955
134	0x3e3d5992	0.184912
135	0x3f15ccab	0.58515424
136	0x3e33a3a4	0.17542893
137	0x3f13bb7b	0.5770795
138	0x3e7490ac	0.23883313
139	0x3e336307	0.17518245
140	0x3ea0a1a6	0.31373328
141	0x3f6cf8c4	0.92567086
142	0x3e108f21	0.141171
143	0x3f29d3d8	0.6633887
144	0x3f40f6ee	0.75376785
145	0x3e1477b6	0.14498791
146	0xbda52fe2	-0.080657735
147	0x3d5b24d1	0.053501908
148	0x3f51c032	0.8193389
149	0x3f737576	0.95101106
150	0x3e4e184a	0.20126453
151	0x3e451180	0.19244957
152	0x3e7e58ea	0.24838606
153	0xbd6fbc20	-0.05852902
154	0x3de33b3e	0.11095284
155	0x3ecadfb0	0.39623785
156	0x3d915938	0.07097095
157	0x3dffb8ab	0.124863945
158	0x3f611573	0.87923354
159	0x3e24a6f9	0.1607932
160	0x3e334b72	0.17509249
161	0x3f1b7d42	0.60738003
162	0xbd8cd9cd	-0.0687748
163	0x3d44591a	0.047936536
164	0x3df1a5c2	0.11799194
165	0x3ddcad1a	0.10775204
166	0x3f7f6b16	0.99772775
167	0x3f0ba9c6	0.5455593
168	0xbda1fe64	-0.07909849
169	0x3ec887a3	0.39165983
170	0xbce2f568	-0.02770491
171	0x3f1bc691	0.60849863
172	0x3e5535da	0.20821324
173	0xbc2b6d2b	-0.010463039
174	0x3ef868e1	0.48517516
175	0x3f3b2a43	0.7311136
176	0xbcc56648	-0.024096623
177	0x3e44bae4	0.19211918
178	0x3f4d08b9	0.80091435
179	0x3e8cdc9e	0.27512068
180	0x3e56ae06	0.20964822
181	0x3cdba6a2	0.026812855
182	0x3eb12b6e	0.34603447
183	0x3f6bb496	0.9207243
184	0x3f11833e	0.56840885
185	0xbe5e5ab7	-0.21714292
186	0x3f473092	0.7780849
187	0xbd2657bc	-0.040611014
188	0x3e80f586	0.2518732
189	0x3e961555	0.2931315
190	0xbd9b68cd	-0.075883485
191	0xbe79e5ef	-0.24404119
192	0x3f0ee2be	0.5581473
193	0x3e07e9fa	0.13272849
194	0x3e1b7c09	0.15184034
195	0x3ec3c499	0.3823593
196	0xbe0d8738	-0.13821113
197	0x3ebaa0bf	0.36450765
198	0x3e8b9432	0.27261502
199	0xbd47837e	-0.048709385
200	0x3f142e04	0.57882714
201	0xbe08ffe5	-0.13378866
202	0x3d39f7f8	0.045402497
203	0x3f146473	0.57965773
204	0xbd492b04	-0.04911329
205	0xbe2314a8	-0.15925848
206	0xbf2c0396	-0.6719297
207	0x3cdbbf7e	0.026824709
208	0xbd28ea56	-0.041239105
209	0xbf3158f9	-0.69276386
210	0x3e360ab8	0.17777526
211	0x3f26e24a	0.6518904
212	0xbf56fc61	-0.8397885
213	0x3e62f276	0.22162804
214	0x3ec4652e	0.38358444
215	0x3ed88ce4	0.4229499
216	0x3ef6004c	0.48047101
217	0xbf82c98b	-1.0217756
218	0x3f475457	0.7786307
219	0x3d17cf08	0.037062675
220	0x3f097aa5	0.53702766
221	0xbe0570f4	-0.1303137
222	0xbe93ff91	-0.2890592
223	0x3e55ce78	0.20879543
224	0xbc18f2f9	-0.009335273
225	0x3eac7e5a	0.3369015
226	0x3e9d512a	0.30725986
227	0x3e6dc4b3	0.23219566
228	0x3f2fb0e4	0.6862929
229	0x3ee79ce9	0.452369
230	0x3e8ecdf8	0.27891517
231	0xbe126373	-0.1429575
232	0x3e97001a	0.29492265
233	0x3f5cf71a	0.8631455
234	0x3e9566e8	0.29180074
235	0xbeec9ed2	-0.4621492
236	0xbe5f4328	-0.21802962
237	0x3f0978f5	0.5370019
238	0xbc4efdf0	-0.012633786
239	0x3e52edc6	0.20598516
240	0x3d1408a1	0.03614104
241	0x3e0cae3c	0.1373834
242	0x3ea6e65b	0.32597622
243	0xbed7d8b1	-0.4215751
244	0x3f0ce036	0.5502962
245	0x3efc4615	0.49272218
246	0xbed26167	-0.41089937
247	0x3da167ec	0.0788115
248	0x3e900b1c	0.28133476
249	0x3ec06685	0.37578216
250	0x3f11cb45	0.5695079
251	0xbec8dc57	-0.39230606
252	0x3f5723d0	0.8403902
253	0xbcb03fc0	-0.021514773
254	0x3f564483	0.8369829
255	0x3d422e18	0.04740724

linear1.bias f4 [128]
0	0x3f8e235d	1.1104542
1	0x3f103285	0.56327087
2	0x3c9e5ef9	0.019332396
3	0x3f0ef4a6	0.55842054
4	0x3fa4fea5	1.2890211
5	0x3f6a6aa6	0.9156898
6	0x3f72e396	0.9487852
7	0x3f2c82b6	0.6738695
8	0x3f83b222	1.0288737
9	0x3f88ce24	1.0687909
10	0x3f9ed971	1.2410108
11	0x3f18e2e6	0.5972122
12	0x3f2b62a1	0.6694737
13	0x3f392e1f	0.72336
14	0x3f8823cd	1.0635926
15	0xbe8f1169	-0.2794297
16	0x3f419813	0.7562267
17	0x3f844f3a	1.0336678
18	0x3f76bf96	0.96386087
19	0x3f1ecb2f	0.62028784
20	0x3f3ff560	0.7498379
21	0x3f2f1879	0.6839672
22	0x3f42b686	0.7605976
23	0x3ee1e999	0.44123533
24	0x3ec93671	0.39299348
25	0x3f2e7372	0.68144906
26	0x3f97b881	1.1853181
27	0x3ee00238	0.43751693
28	0x3f603e25	0.87594825
29	0x3f9f42c1	1.2442247
30	0x3f73f9c1	0.9530297
31	0x3f637b08	0.88859606
32	0x3f0e1d5d	0.55513555
33	0x3f1da4fc	0.6157987
34	0x3f02cdb8	0.5109515
35	0x3f97c6ba	1.1857522
36	0x3f74123f	0.9534034
37	0x3f09f6fb	0.5389249
38	0x3f57048f	0.8399133
39	0x3f58d441	0.84698874
40	0x3f7f1de5	0.9965499
41	0x3f2109f5	0.6290582
42	0x3f5cf2fd	0.8630827
43	0x3f571233	0.84012145
44	0x3f67a4b5	0.904857
45	0x3f2eb12c	0.6823909
46	0x3f4d256a	0.80135214
47	0x3ed4e2c6	0.41579264
48	0x3f9966af	1.1984462
49	0x3e3f3bb1	0.18675114
50	0x3f9a69b6	1.206351
51	0x3e645041	0.2229624
52	0x3f24e434	0.6441071
53	0x3f402af7	0.7506556
54	0x3f25c56c	0.64754367
55	0x3eec787d	0.46185675
56	0xbe014237	-0.12622915
57	0x3e373d78	0.17894542
58	0x3f6e4088	0.93067217
59	0x3f706072	0.93897164
60	0x3f0bf622	0.54672444
61	0x3f6d5233	0.9270355
62	0x3d67dfed	0.056610037
63	0x3f707f3f	0.9394416
64	0xbdbff0ea	-0.093721226
65	0x3f96230c	1.1729445
66	0x3efaf9f4	0.49018824
67	0xbe479826	-0.19491634
68	0x3f29dab0	0.66349316
69	0x3f8cf001	1.1010743
70	0x3f9b313d	1.2124401
71	0x3f01b000	0.5065918
72	0x3f936aa9	1.1516925
73	0x3f58ba0e	0.84658897
74	0x3f8d1e8e	1.102495
75	0x3f3cd728	0.737658
76	0x3f35c1a9	0.70998627
77	0x3f6e19df	0.93008226
78	0x3f52a891	0.8228846
79	0x3f411206	0.75418127
80	0x3f834c81	1.0257722
81	0x3ef537cb	0.4789413
82	0x3f99d5c0	1.2018356
83	0x3f56a889	0.83850914
84	0x3ee06675	0.4382817
85	0x3f1778f8	0.5916896
86	0x3f57ea04	0.84341455
87	0x3f374518	0.71589804
88	0x3f66169a	0.8987824
89	0x3f9669a7	1.1750993
90	0x3f83aea6	1.0287673
91	0x3f587303	0.84550494
92	0x3f277242	0.6540872
93	0x3f4dddcb	0.80416554
94	0x3f630d0f	0.886918
95	0x3f1963ac	0.5991771
96	0x3fa83708	1.3141794
97	0x3f261f21	0.6489125
98	0xbead2d2f	-0.33823535
99	0x3f4c7c53	0.79877204
100	0x3f936629	1.1515552
101	0x3f2a0c12	0.6642467
102	0x3efb9996	0.49140614
103	0x3f87234c	1.0557647
104	0x3ecf5ad0	0.40498972
105	0x3f50a3a2	0.81499684
106	0x3f150d1c	0.5822313
107	0x3f8e5c25	1.112187
108	0x3f5cd1e7	0.86257786
109	0x3f6709eb	0.9024951
110	0x3f798f10	0.9748392
111	0x3f1d6ece	0.614972
112	0x3f82a8ab	1.0207723
113	0x3f751123	0.95729274
114	0x3ea626f6	0.324516
115	0x3f3ae5ee	0.73007095
116	0x3f1cb2d8	0.61210394
117	0x3f8ca684	1.0988317
118	0x3f196e07	0.59933513
119	0x3f1609f7	0.58608955
120	0x3f723e87	0.9462666
121	0x3f8cca2e	1.09992
122	0x3f1ebe0b	0.6200873
123	0x3f2695ff	0.65072626
124	0x3f64ca01	0.89370733
125	0x3f91f531	1.1402951
126	0x3f86ff2b	1.0546621
127	0x3f3057a9	0.6888376

linear2.weight f4 [5, 128]
0	0xbed8b223	-0.42323408
1	0xbe884e5a	-0.26622277
2	0x3cf97556	0.030451458
3	0xbe5c42bc	-0.21509832
4	0xbebd13e1	-0.3692923
5	0xbe3a9131	-0.18219449
6	0xbe91d4ec	-0.2848276
7	0xbebfbfd6	-0.37451047
8	0xbe89e19c	-0.2692994
9	0xbebe0b48	-0.37117982
10	0xbee31214	-0.4434973
11	0xbead2c99	-0.33823088
12	0xbe2b30b0	-0.16717792
13	0xbea3dcab	-0.32004294
14	0xbe6868f4	-0.22696286
15	0x3d397fe6	0.04528799
16	0xbeb57b66	-0.35445708
17	0xbeaad244	-0.33363545
18	0xbe5696d4	-0.20955974
19	0xbeb488cf	-0.35260627
20	0xbe905bc3	-0.2819501
21	0xbe9ca99e	-0.30598158
22	0xbe52141b	-0.20515482
23	0xbe4820a0	-0.19543695
24	0xbe8050b4	-0.25061572
25	0xbe69b6e7	-0.22823678
26	0xbec97a60	-0.39351177
27	0x3d646ce1	0.055767898
28	0xbea2f387	-0.31826422
29	0xbea1c541	-0.31595805
30	0xbea9bcb3	-0.3315178
31	0xbeed8913	-0.46393642
32	0xbe6bc53c	-0.23024458
33	0xbe95f5af	-0.29289004
34	0xbe69a82b	-0.22818057
35	0xbe990a52	-0.29890686
36	0xbeab82af	-0.3349814
37	0xbe01e563	-0.1268516
38	0xbeaf314f	-0.34217307
39	0xbed5f132	-0.4178558
40	0xbea20336	-0.31643075
41	0xbeb71f35	-0.35765997
42	0xbeccd03a	-0.40002614
43	0xbe82d040	-0.25549507
44	0xbe9f710a	-0.3114093
45	0xbe6a4452	-0.22877625
46	0xbea5280a	-0.3225711
47	0xbe40b00c	-0.18817157
48	0xbeb24cee	-0.34824318
49	0xbd89a85a	-0.06721564
50	0xbebe3b69	-0.371547
51	0xbe4647c8	-0.1936332
52	0xbe6d0981	-0.23148157
53	0xbeb52002	-0.35375983
54	0xbe914c53	-0.28378543
55	0xbe11e5ae	-0.14247772
56	0xbcca6bd0	-0.024709612
57	0xbe146aaa	-0.14493814
58	0xbea31304	-0.31850445
59	0xbebd7458	-0.37002826
60	0xbe546f45	-0.20745571
61	0xbf154e53	-0.5832264
62	0xbdff26a3	-0.12458541
63	0xbeb3e7ac	-0.3513769
64	0x3cad09ec	0.021122895
65	0xbeaa208f	-0.33227965
66	0xbe6a20f6	-0.22864136
67	0xbd3be584	-0.04587318
68	0xbe00fbb5	-0.12596019
69	0xbec23763	-0.37932882
70	0xbed4f0e8	-0.41590047
71	0xbe82638b	-0.2546657
72	0xbeb16bd8	-0.3465259
73	0xbeb0210f	-0.34400222
74	0xbeb5dc29	-0.3551953
75	0xbe8292ff	-0.25502774
76	0xbe7f3c07	-0.24925242
77	0xbe553bad	-0.20823546
78	0xbeb5a0ac	-0.35474145
79	0xbe97d7e6	-0.29656905
80	0xbec59127	-0.38587305
81	0xbe3691e8	-0.17829096
82	0xbe5bd8fd	-0.21469493
83	0xbeff82cf	-0.49904487
84	0xbe27088b	-0.16311853
85	0xbe7dcf95	-0.24786218
86	0xbe7cfb88	-0.24705327
87	0xbe5f6588	-0.21816075
88	0xbe801e62	-0.2502318
89	0xbe836370	-0.25661802
90	0xbee16dd0	-0.44029093
91	0xbec03b6e	-0.3754534
92	0xbe56a325	-0.20960672
93	0xbe6be5be	-0.23036858
94	0xbe840ffb	-0.25793442
95	0xbec8768d	-0.39152947
96	0xbeb3e080	-0.35132217
97	0xbeafc35a	-0.3432873
98	0x3d495a4a	0.049158372
99	0xbe83f99b	-0.2577637
100	0xbeb9b185	-0.3626825
101	0xbe52482c	-0.20535344
102	0xbe9b5c46	-0.30343837
103	0xbe8dec6a	-0.27719432
104	0xbe773d62	-0.2414451
105	0xbeaeba5d	-0.3412656
106	0xbebdae5c	-0.37047088
107	0xbea28636	-0.3174302
108	0xbeb9a9fe	-0.36262506
109	0xbe90f95b	-0.28315243
110	0xbe946264	-0.28981316
111	0xbe8ef66f	-0.2792239
112	0xbe865a0b	-0.26240572
113	0xbeb9d507	-0.3629534
114	0xbe5fc14b	-0.21851079
115	0xbe9aab22	-0.3020869
116	0xbeb02639	-0.34404162
117	0xbed4544a	-0.41470557
118	0xbe562400	-0.2091217
119	0xbe582861	-0.21109153
120	0xbe8966cc	-0.2683624
121	0xbe75e33d	-0.24012466
122	0xbeb35925	-0.3502895
123	0xbeaba5f1	-0.3352504
124	0xbeae9f12	-0.34105736
125	0xbe51a1f7	-0.20471941
126	0xbea62536	-0.32450265
127	0xbee04e76	-0.4380986
128	0xbeebf3c2	-0.4608441
129	0xbd94b614	-0.07261291
130	0x3d68489a	0.056709863
131	0xbe71062d	-0.23537512
132	0xbe9fcc06	-0.31210345
133	0xbec22d90	-0.37925386
134	0xbe903d4a	-0.2817176
135	0xbea25ea5	-0.31712833
136	0xbebc434b	-0.3677009
137	0xbec469d8	-0.38362002
138	0xbf0fc584	-0.5616076
139	0xbe95da5e	-0.29268163
140	0xbea33428	-0.3187573
141	0xbe7481c0	-0.2387762
142	0xbe8ddced	-0.27707615
143	0xbd1ee2a3	-0.038790356
144	0xbea9529f	-0.33070847
145	0xbe2ece7c	-0.17070955
146	0xbe9a14d1	-0.30094007
147	0xbe5046c9	-0.20339502
148	0xbe893c57	-0.26803848
149	0xbecf8a3f	-0.4053516
150	0xbe85697b	-0.26057038
151	0xbe57eb4a	-0.2108585
152	0xbe39b903	-0.18136983
153	0xbed938c2	-0.42426115
154	0xbeb06352	-0.34450775
155	0xbe86237f	-0.26198956
156	0xbe82c024	-0.25537217
157	0xbeaf6884	-0.34259427
158	0xbeb1c638	-0.3472154
159	0xbec208c3	-0.3789731
160	0xbe996e27	-0.29966852
161	0xbeac291a	-0.33625108
162	0xbecd69e5	-0.40119854
163	0xbe944de6	-0.28965682
164	0xbea6d2a3	-0.32582578
165	0xbe987242	-0.29774672
166	0xbe9859df	-0.29756066
167	0xbe7d371b	-0.24728052
168	0xbeb23f3b	-0.34813866
169	0xbe63f5ed	-0.22261782
170	0xbe99e4f5	-0.30057493
171	0xbeab02ce	-0.33400577
172	0xbe805ade	-0.25069326
173	0xbe0db137	-0.13837133
174	0xbe73347b	-0.23750488
175	0xbc787e6f	-0.015166863
176	0xbe8ce7b0	-0.27520514
177	0xbe2fc3ad	-0.17164488
178	0xbe86acb3	-0.26303634
179	0xbe9e2f80	-0.30895615
180	0xbe287482	-0.16450694
181	0xbe9e5c2e	-0.30929703
182	0xbe72f136	-0.23724827
183	0xbe8f7bf4	-0.28024256
184	0xbbb75280	-0.0055945516
185	0xbe663f92	-0.22485188
186	0xbe89fad3	-0.26949176
187	0xbe4e2ea7	-0.20134984
188	0xbdeeb880	-0.11656284
189	0xbeefba28	-0.46821713
190	0xbe028a98	-0.12748182
191	0xbe664bd9	-0.22489871
192	0x3d917933	0.07103195
193	0xbe9dd1c4	-0.308241
194	0xbeba2001	-0.36352542
195	0x3cc89044	0.024482854
196	0xbe56593c	-0.20932478
197	0xbe5cdce5	-0.2156864
198	0xbec076bf	-0.37590596
199	0xbeb5e067	-0.35522768
200	0xbeb9022a	-0.36134464
201	0xbe6375b7	-0.22212873
202	0xbe9f7d4c	-0.3115028
203	0xbe960694	-0.29301894
204	0xbebcc04e	-0.36865467
205	0xbe8cdd19	-0.27512434
206	0xbe68b84a	-0.2272655
207	0xbe7b0832	-0.24514845
208	0xbedb11cc	-0.42787015
209	0xbe8b7502	-0.27237707
210	0xbe9eba78	-0.3100164
211	0xbed479ba	-0.4149912
212	0xbe3fdfe9	-0.18737759
213	0xbe35c3fc	-0.17750543
214	0xbe2f018c	-0.17090434
215	0xbe1546e1	-0.1457782
216	0xbed8c839	-0.42340258
217	0xbe43370c	-0.19063967
218	0xbf124742	-0.5713998
219	0xbea9e37b	-0.33181366
220	0xbe78ab4d	-0.24284096
221	0xbed0f92c	-0.40815103
222	0xbe8a0219	-0.26954725
223	0xbef24301	-0.47316745
224	0xbeb4ce72	-0.35313755
225	0xbeaefbd1	-0.34176496
226	0xbccb85f4	-0.024844147
227	0xbe3dd0d6	-0.18536696
228	0xbeabda66	-0.33565062
229	0xbe70dabd	-0.23520942
230	0xbec6d742	-0.38836104
231	0xbe8a985a	-0.2706936
232	0xbe563c6c	-0.20921487
233	0xbed4f17d	-0.4159049
234	0xbe819cf1	-0.2531505
235	0xbe8729fd	-0.26399222
236	0xbeb7b23f	-0.35878178
237	0xbe969d6f	-0.29416987
238	0xbeb56565	-0.3542892
239	0xbe889043	-0.26672563
240	0xbe9d3fd3	-0.30712757
241	0xbe2fe4d0	-0.17177129
242	0xbe908090	-0.28223085
243	0xbe4fcd13	-0.20293073
244	0xbe6afdf7	-0.22948442
245	0xbec3e5d0	-0.3826127
246	0xbea0cd4e	-0.31406635
247	0xbe2fe20b	-0.17176072
248	0xbecd7074	-0.40124857
249	0xbe85a599	-0.26102903
250	0xbe69cc59	-0.22831859
251	0xbecbcd2d	-0.39804974
252	0xbe857fd4	-0.26074088
253	0xbe99d976	-0.30048722
254	0xbe8c582b	-0.27411017
255	0xbea7c47f	-0.32767102

linear2.bias f4 [5]
0	0xbe878ccf	-0.26474616
1	0xbe27b62a	-0.16378084
2	0x3ed99ae5	0.42500988
3	0x3ee3d232	0.44496304
4	0x3eeabdc4	0.45847905
