examples/minecraft/model/model.pth (torch, 25408 bytes, 4 tensors)

linear1.weight f4 [256, 17]
0	0x3e779104	0.24176413
1	0x3ccbf078	0.024894938
2	0xbccfe390	-0.025377065
3	0xbcb3d3bd	-0.02195155
4	0x3e5fbdda	0.21849766
5	0x3e3cadbd	0.18425651
6	0x3e9009c9	0.28132465
7	0x3ca57eb1	0.020202013
8	0xbd46ef07	-0.048567798
9	0xbde244eb	-0.11048301
10	0xbe04ad72	-0.12956789
11	0x3e06d9c5	0.1316901
12	0x3e6bf581	0.23042871
13	0x3e0f601d	0.14001508
14	0x3ec8f12a	0.39246494
15	0xbdedd944	-0.11613706
16	0x3ef07464	0.469638
17	0xbe3476dc	-0.17623466
18	0x3ebf05fd	0.37309256
19	0x3e88a851	0.26690915
20	0x3eba2442	0.36355788
21	0xbe146eed	-0.1449544
22	0xbc530d8d	-0.012881649
23	0xba827f27	-0.0009956107
24	0x3e2d0337	0.16895758
25	0x3f5b8c33	0.857608
26	0x3e8dc7fb	0.27691635
27	0x3f44591f	0.7669849
28	0xbeb84810	-0.3599248
29	0xbeb5aa0a	-0.35481292
30	0xbe49b52c	-0.19698018
31	0x3f7c4923	0.985491
32	0xbd6d5190	-0.057939112
33	0x3d862470	0.06549919
34	0x3de63f80	0.112425804
35	0xbe9755be	-0.29557604
36	0xbd907837	-0.07054179
37	0x3d17c75a	0.03705535
38	0x3dcddb4b	0.100515924
39	0xbed5162b	-0.41618475
40	0x3f06351e	0.524248
41	0x3e2414d9	0.16023578
42	0xbf0e71e6	-0.55642545
43	0xbe219d00	-0.15782547
44	0xbf208108	-0.62696886
45	0x3ebe902d	0.37219372
46	0x3e449159	0.1919607
47	0x3e604d45	0.21904476
48	0x3ad7f423	0.0016475957
49	0xbe3e4ee3	-0.1858478
50	0x3ed0af6f	0.40758845
51	0xbe6b8765	-0.23000868
52	0x3e7a9126	0.24469432
53	0xbccb9558	-0.024851486
54	0x3ecbd2a3	0.3980914
55	0x3d13c694	0.03607805
56	0x3e7e30c8	0.24823296
57	0xbda3fcbb	-0.08007189
58	0xbd59d7d5	-0.05318435
59	0x3f5e4af9	0.8683315
60	0x3f052412	0.52008164
61	0x3f91f7bf	1.1403731
62	0xbed16648	-0.40898347
63	0xbf0d8aea	-0.5529009
64	0xbe9577df	-0.29193017
65	0x3f58af83	0.8464281
66	0x3aa31400	0.0012441874
67	0x3ef98864	0.4873687
68	0xbe58c6f2	-0.21169642
69	0xbeeff9a9	-0.46870163
70	0x3e02c0ae	0.12768814
71	0xbe780c02	-0.2422333
72	0x3e8e27b5	0.2776467
73	0x3dbf04cb	0.09327086
74	0xbef59589	-0.4796565
75	0x3e19ec76	0.15031609
76	0xbe2ecb81	-0.17069818
77	0xbeb7f488	-0.3592875
78	0xbf1b605e	-0.6069392
79	0x3eedb58e	0.46427578
80	0x3effb5d0	0.499434
81	0x3ea7c5be	0.32768053
82	0xbe995ffe	-0.2995605
83	0x3e3413f4	0.17585737
84	0x3ed01714	0.40642607
85	0x3cc4f480	0.024042368
86	0xbebd43a3	-0.36965665
87	0xbd814447	-0.06311851
88	0x3d920c15	0.07131211
89	0x3e664fb5	0.22491343
90	0xbe8d15ae	-0.27555603
91	0x3e8854d3	0.26627216
92	0x3e85600c	0.2604984
93	0xbe2fcecc	-0.1716873
94	0xbddcbdb1	-0.10778368
95	0xbf378d34	-0.71699834
96	0x3f0681fe	0.525421
97	0x3ebd60a8	0.36987805
98	0x3dbeaa28	0.093097985
99	0xbd613d60	-0.054990172
100	0x3dd2639c	0.10272905
101	0x3eae0846	0.33990687
102	0x3e5225e4	0.20522267
103	0x3f12ba8f	0.57315916
104	0xbe9db8df	-0.30805108
105	0x3d119f58	0.035552353
106	0x3e0cb47a	0.13740721
107	0x3d97abd5	0.07405821
108	0xbe50d4f1	-0.2039373
109	0xbe26a4c0	-0.16273785
110	0x3f1bdc8b	0.60883397
111	0x3f0302fb	0.5117642
112	0x3f4427c8	0.766232
113	0xbdb0d586	-0.08634476
114	0xbe99f787	-0.3007166
115	0xbe46c307	-0.19410335
116	0x3f36175b	0.7112939
117	0x3e53ffd2	0.20703056
118	0x3e92b1a2	0.28651148
119	0xbc914668	-0.017733768
120	0x3ef0da7e	0.47041696
121	0x3e70c415	0.235123
122	0x3e8caf94	0.27477705
123	0xbe91f20d	-0.28504983
124	0xbc961142	-0.018318776
125	0xbe532fb1	-0.20623662
126	0xbe17aa9e	-0.14811179
127	0x3ee27156	0.44227093
128	0x3eaffcbf	0.34372517
129	0x3f651dea	0.8949877
130	0x3b3ad62b	0.0028509002
131	0xbf0fc017	-0.5615248
132	0x3ce71a26	0.02821071
133	0x3f244370	0.641654
134	0xbe1f490d	-0.1555521
135	0x3f2c63fc	0.67340064
136	0xbe081e35	-0.13292773
137	0xbf041fa3	-0.51610774
138	0x3e54c635	0.20778735
139	0xbd3d475f	-0.046210643
140	0x3eb3d0c0	0.351202
141	0xbc40a970	-0.011759147
142	0x3eec700f	0.46179244
143	0x3e99c9a6	0.30036658
144	0xbeab7c36	-0.33493203
145	0xbe9bf02d	-0.30456677
146	0xbf26e845	-0.65198165
147	0x3ecb754b	0.39737925
148	0x3efb7ba4	0.49117768
149	0x3e9fd8ea	0.3122018
150	0x3d86e3dd	0.0658643
151	0x3e6454c0	0.22297955
152	0x3ecb5872	0.39715916
153	0x3e645ec0	0.2230177
154	0x3f43d4d6	0.76496637
155	0x3ea3c784	0.31988156
156	0x3e764345	0.24049099
157	0xbdb6ba15	-0.08922211
158	0x3e5a25f6	0.21303543
159	0xbd3f1614	-0.046651915
160	0x3e1a26b9	0.15053834
161	0x3f2f3ad3	0.68449134
162	0x3e08b82a	0.13351503
163	0x3f0b67c0	0.54455185
164	0xbe2c1190	-0.16803575
165	0xbe306ae8	-0.17228281
166	0xbec709d0	-0.38874674
167	0x3e938191	0.2880979
168	0xbb02e1c0	-0.0019970983
169	0x3e846abf	0.2586269
170	0x3e0bb382	0.13642696
171	0x3f2fa4dc	0.6861093
172	0x3ceb9d70	0.028761595
173	0x3dfba7de	0.122878775
174	0xbe1b402c	-0.15161198
175	0x3db755c7	0.089519076
176	0xbe8ae0ed	-0.2712473
177	0xbe01e90b	-0.12686555
178	0x3f190ddf	0.5978679
179	0x3e90f02e	0.28308243
180	0x3f2f0add	0.6837595
181	0xbe837f87	-0.25683233
182	0xbeb16acb	-0.3465179
183	0xbd6bf62b	-0.05760781
184	0x3f36f37b	0.7146527
185	0xbd2973a0	-0.041370034
186	0x3daf830e	0.085699186
187	0xbe42980d	-0.19003315
188	0xbeacc5f9	-0.3374479
189	0x3ea07226	0.31337088
190	0xbe609693	-0.2193244
191	0x3d29f46d	0.04149287
192	0xbde5a4f9	-0.11213107
193	0x3daf4688	0.08558375
194	0xbcdf2bcf	-0.02724257
195	0xbed3e065	-0.41382137
196	0xbce052db	-0.027383259
197	0xbebb557c	-0.36588657
198	0x3efecc84	0.49765408
199	0x3dd5d1c0	0.10440397
200	0x3e9b60ad	0.30347195
201	0x3d914b73	0.07094469
202	0xbce444d8	-0.027864859
203	0x3ed4cbd8	0.4156177
204	0x3e1a763a	0.15084162
205	0xbd386aa8	-0.04502359
206	0xbe010e60	-0.1260314
207	0x3e60d1e4	0.21955067
208	0xbe15fa04	-0.14646155
209	0xbd5d6500	-0.0540514
210	0x3db72b04	0.089437515
211	0x3d1be888	0.038063556
212	0xbe3cd04c	-0.18438834
213	0xbe6276c1	-0.22115614
214	0x3e394c66	0.1809555
215	0xbe22843c	-0.15870756
216	0x3d77e248	0.060518533
217	0x3e6cc4d8	0.23121965
218	0xbe6a4c36	-0.22880635
219	0xbe1f50fc	-0.15558237
220	0xbd4131b4	-0.04716654
221	0xbe47d3d3	-0.19514398
222	0xbd9ae625	-0.07563428
223	0xbe17a0d7	-0.1480745
224	0x3e415f25	0.18883951
225	0x3e4bbbd4	0.1989587
226	0x3e257660	0.16158438
227	0x3d073492	0.03300912
228	0x3c8dd25c	0.017312221
229	0xbd1b54e9	-0.037922774
230	0x3e81d981	0.25361255
231	0x3ea9f199	0.33192137
232	0x3eaa9be0	0.33322048
233	0x3e9a42c6	0.3012907
234	0x3e0b4dd2	0.13603905
235	0x3f184090	0.59473515
236	0x3bb98740	0.005661875
237	0x3ef6b8a9	0.4818776
238	0x3dde5550	0.10856116
239	0x3de83458	0.11338109
240	0x3e743168	0.23846972
241	0x3e422288	0.18958485
242	0xbea3f4a2	-0.32022578
243	0xbd39a581	-0.045323852
244	0xbe15c55b	-0.14626066
245	0x3c89d14f	0.016823439
246	0x3f1838a6	0.5946144
247	0x3ea98af1	0.33113816
248	0x3f1b9d8d	0.6078728
249	0xbe8be4bd	-0.2732295
250	0xbe12e697	-0.14345776
251	0xbe010dca	-0.12602916
252	0x3f544363	0.82915324
253	0x3a18e900	0.00058330595
254	0x3e701a97	0.23447643
255	0xbe0b85be	-0.13625237

linear1.bias f4 [256]
0	0x3f0694d1	0.52570826
1	0x3e9d8de9	0.3077233
2	0x3f33f5d9	0.7029701
3	0x3da11405	0.078651465
4	0x3eb34200	0.35011292
5	0x3f042e4e	0.51633155
6	0x3e4fde23	0.20299582
7	0x3e560359	0.20899715
8	0x3f14e042	0.5815469
9	0x3dbf28ca	0.09333952
10	0x3e946641	0.28984264
11	0x3ef33851	0.47503904
12	0xbe7834f9	-0.24238957
13	0x3ec1cda7	0.37852213
14	0x3e2f23d3	0.1710351
15	0x3f0abdcf	0.54195875
16	0x3f346a94	0.70475125
17	0x3dddaab8	0.10823578
18	0xbe8d6895	-0.27618852
19	0x3efcd1d9	0.4937885
20	0x3f012895	0.5045255
21	0xbe34fdba	-0.17674914
22	0x3ef99d10	0.48752642
23	0x3e8f2c5d	0.27963534
24	0x3f18690c	0.5953529
25	0x3edc3828	0.43011594
26	0x3ebab9ae	0.36469787
27	0x3f1e0286	0.617226
28	0x3e45c23a	0.19312373
29	0x3e0fa292	0.1402686
30	0x3e7f8ea5	0.24956758
31	0x3f407c02	0.7518922
32	0x3f2594d9	0.6468025
33	0x3e441e7b	0.19152252
34	0x3dd796ff	0.10526847
35	0x3da49eed	0.08038125
36	0x3d9073ac	0.07053313
37	0x3ec41c59	0.38302878
38	0xbe5b26c4	-0.21401507
39	0x3effce56	0.4996211
40	0x3e8db0c8	0.27673936
41	0x3e069613	0.13143186
42	0x3ecab150	0.39588404
43	0x3ee60723	0.4492732
44	0x3f2e38e0	0.68055534
45	0x3edbd19e	0.42933363
46	0x3edf63a7	0.43630716
47	0x3e86fd7d	0.2636527
48	0x3e48e4a0	0.19618464
49	0x3ee57c91	0.448216
50	0x3e1b1cfc	0.15147775
51	0x3e9396ff	0.28826138
52	0x3e28837d	0.16456409
53	0x3f22a8cf	0.6353883
54	0x3e4ddef4	0.20104581
55	0x3eba79ef	0.36421153
56	0x3f1d810b	0.6152503
57	0x3f1267e8	0.571898
58	0xbe0d2a75	-0.13785727
59	0x3f144aa2	0.5792638
60	0x3e316abe	0.17325875
61	0x3d96c04f	0.07360899
62	0x3f053562	0.5203458
63	0x3e8de3cd	0.2771286
64	0x3ec47947	0.38373777
65	0x3ebe9460	0.37222576
66	0x3e18ebfb	0.1493377
67	0x3b4c8242	0.003120557
68	0x3dde1945	0.108446635
69	0x3ed76881	0.42071918
70	0x3e9a759b	0.3016785
71	0x3e9d598c	0.3073238
72	0x3e5dd9a0	0.21665049
73	0x3f1bae33	0.6081268
74	0xbe45e673	-0.1932619
75	0x3e86abe2	0.2630301
76	0x3e856adb	0.26058087
77	0x3f27422a	0.65335333
78	0x3f0c6f67	0.54857486
79	0x3dc6cbfe	0.09706877
80	0x3f2ac258	0.66702795
81	0x3e5c6b68	0.21525347
82	0x3f068672	0.525489
83	0x3e3d5fa9	0.18493523
84	0x3ec9b853	0.3939844
85	0x3e83558b	0.25651202
86	0x3e86ec23	0.26352033
87	0x3e456219	0.19275703
88	0x3eb891c7	0.3604872
89	0x3f233003	0.63745135
90	0x3e775c4b	0.241563
91	0x3e9e06e1	0.30864623
92	0x3ea3788f	0.31927916
93	0x3ebbfb0d	0.36714974
94	0x3ee99acd	0.45625916
95	0x3e8013c9	0.25015095
96	0x3ec74f31	0.38927606
97	0x3f3ad39a	0.7297913
98	0x3e4bc79f	0.19900368
99	0x3ec631a8	0.3870976
100	0x3f3176c6	0.6932186
101	0x3df63447	0.1202169
102	0x3e62ada6	0.22136554
103	0x3e9f6608	0.3113253
104	0x3e1030bc	0.1408109
105	0xbd98e762	-0.07466008
106	0x3f1d09b5	0.61342937
107	0x3e062633	0.1310051
108	0x3f2a2923	0.6646902
109	0x3e09f664	0.13472897
110	0x3dcea3cc	0.100898355
111	0x3f10c5a2	0.56551564
112	0x3e786234	0.24256212
113	0x3eabe705	0.3357469
114	0x3e850f3b	0.25988182
115	0x3ed4ac32	0.41537625
116	0x3ef1441b	0.47122273
117	0x3f1e4b0a	0.6183325
118	0x3e2983a4	0.16554123
119	0x3e409d89	0.18810095
120	0x3e1dd926	0.15414867
121	0x3e7135ce	0.23555681
122	0xbe87d04c	-0.26526105
123	0x3e8e8649	0.27836826
124	0x3f183176	0.5945047
125	0x3e9d14a6	0.30679816
126	0x3e21c49e	0.1579766
127	0x3ede8970	0.43464231
128	0x3eaa566c	0.3326906
129	0x3de37009	0.111053534
130	0x3eacb429	0.337312
131	0x3eb3d7ed	0.35125676
132	0x3ed5ca85	0.41756073
133	0x3df11bdd	0.117728926
134	0x3eac6bc8	0.3367598
135	0x3e23a25b	0.15979902
136	0x3e7d413b	0.24731915
137	0x3e4a24a7	0.19740544
138	0x3d54780a	0.05187229
139	0xbe76b0bb	-0.24090855
140	0x3f05349c	0.520334
141	0x3f01c37f	0.5068893
142	0x3e381f72	0.17980745
143	0xbe442663	-0.19155268
144	0x3f094485	0.5362018
145	0x3ee2984c	0.44256818
146	0x3f21d177	0.63210243
147	0x3e75fcdc	0.2402224
148	0x3e55cfb6	0.20880017
149	0x3e414847	0.18875228
150	0x3e381126	0.17975292
151	0x3e9ae8e6	0.30255812
152	0x3e825c9c	0.2546128
153	0x3f3b2cc7	0.731152
154	0x3df513ad	0.119666435
155	0x3eba64b5	0.36404958
156	0x3e20bc6e	0.1569688
157	0x3f3e5dc3	0.7436182
158	0x3dab4e07	0.08364492
159	0x3eb64249	0.35597447
160	0x3e87b756	0.26507062
161	0x3ed338da	0.41254312
162	0x3e1d3b26	0.15354595
163	0x3d8ba964	0.06819418
164	0x3e550de9	0.20806088
165	0x3e8b78d5	0.27240625
166	0xbe48dbd8	-0.19615114
167	0x3ea04ddc	0.31309402
168	0x3f095d5c	0.5365808
169	0x3de4fcf1	0.11181057
170	0x3ef16259	0.47145346
171	0x3e033c8a	0.12816063
172	0x3f010e6e	0.5041264
173	0x3e869502	0.2628556
174	0x3eaeed5d	0.3416547
175	0x3e7e8f45	0.2485934
176	0xbd4bdd8e	-0.049771838
177	0x3e9f72d4	0.31142294
178	0x3f188609	0.5957952
179	0x3e7b7811	0.2455752
180	0x3edee853	0.43536624
181	0x3e8d8c6c	0.27646196
182	0x3e1fafed	0.15594454
183	0x3f017404	0.5056765
184	0x3e2d7042	0.16937354
185	0xbd848420	-0.06470513
186	0x3e95825b	0.29201016
187	0x3ec51d39	0.38498858
188	0x3eaa3b47	0.3324835
189	0x3ed26750	0.41094446
190	0x3e522ebd	0.20525642
191	0x3d4b79d1	0.04967672
192	0x3e871dbe	0.2638988
193	0x3f1df4be	0.6170157
194	0xbcff51b5	-0.03116689
195	0x3f41daa8	0.7572427
196	0x3dfdaa28	0.1238597
197	0x3e103fef	0.14086889
198	0x3e0b97b9	0.13632096
199	0x3e8a8146	0.27051753
200	0x3ec8d813	0.39227352
201	0xbe638985	-0.22220428
202	0x3e5b208a	0.21399131
203	0x3e9695ec	0.29411256
204	0x3ef80162	0.48438555
205	0x3e6a4869	0.22879185
206	0x3e8dbb71	0.2768207
207	0x3eada04f	0.33911368
208	0x3f2baa09	0.6705633
209	0x3ec14792	0.37749916
210	0x3b4a373b	0.0030855674
211	0x3f210716	0.6290144
212	0x3e10056c	0.14064568
213	0x3e7fc858	0.24978769
214	0x3e6891fe	0.22711942
215	0x3ec965d2	0.39335495
216	0x3e0a972b	0.13534229
217	0xba6b1c3c	-0.0008968746
218	0x3ef8b4ba	0.48575383
219	0x3de25782	0.11051847
220	0x3ec275bb	0.37980446
221	0x3eeb6b7d	0.45980445
222	0x3df4ff61	0.11962772
223	0x3e747ab6	0.23874936
224	0x3ef021bb	0.46900734
225	0x3ea76f62	0.32702166
226	0x3ea59a85	0.32344452
227	0x3ef13e4f	0.4711785
228	0x3dfd72e8	0.12375432
229	0x3ecbf43a	0.39834768
230	0x3edaff75	0.42773023
231	0x3ea101d8	0.3144672
232	0x3eaa577e	0.33269876
233	0x3e29ee83	0.16594891
234	0x3f2a3c48	0.6649823
235	0x3f279c03	0.6547243
236	0x3e84896d	0.25886098
237	0x3e930563	0.28715047
238	0x3f133dbe	0.57516086
239	0x3e2c9255	0.16852696
240	0x3f0a1f72	0.5395423
241	0x3e75ec5d	0.24015947
242	0x3ec0c31e	0.37648863
243	0x3ec651aa	0.3873418
244	0x3f2c2bde	0.67254436
245	0x3c233198	0.009960555
246	0x3ec759a5	0.3893558
247	0x3e44c9f5	0.19217665
248	0x3e3efd2f	0.1865127
249	0x3f2788ce	0.6544312
250	0x3dd78e39	0.10525174
251	0x3e565666	0.20931396
252	0x3ed73d60	0.42039013
253	0x3e0cb6d7	0.13741623
254	0xbe651412	-0.22370937
255	0x3e80d53b	0.25162682

linear2.weight f4 [5, 256]
0	0xbeaa14d8	-0.33219028
1	0xbe974e52	-0.2955194
2	0xbe84c6e3	-0.2593299
3	0xbe8dc290	-0.27687502
4	0xbea8d931	-0.32978204
5	0xbe98fa6f	-0.29878566
6	0xbe82b75c	-0.25530517
7	0xbe6ef0b7	-0.23334013
8	0xbe87b8e6	-0.26508254
9	0xbd444fd8	-0.047927707
10	0xbeacf96e	-0.3378405
11	0xbebc50e8	-0.36780477
12	0xbd61e2d4	-0.05514796
13	0xbe6d69cb	-0.23184888
14	0xbe438229	-0.19092621
15	0xbe9e0c47	-0.30868742
16	0xbeb0a34c	-0.34499586
17	0xbe66d3d5	-0.22541745
18	0xbc5a0520	-0.013306886
19	0xbe84a2aa	-0.25905353
20	0xbeaa8778	-0.3330648
21	0x3d3215e2	0.0434779
22	0xbea1ce18	-0.3160255
23	0xbe7719cc	-0.24130934
24	0xbe62a975	-0.22134955
25	0xbe9668ea	-0.29376918
26	0xbe9304b4	-0.28714526
27	0xbe820089	-0.25391033
28	0xbee7a138	-0.45240188
29	0xbe0c848a	-0.13722435
30	0xbe7f473b	-0.24929516
31	0xbea0c3cf	-0.3139939
32	0xbe94ce3e	-0.290636
33	0xbe6754eb	-0.22590987
34	0xbeaac39e	-0.3335237
35	0xbe94d0d6	-0.2906558
36	0xbe66f8d7	-0.22555862
37	0xbe8b2dc1	-0.27183345
38	0xbb331f20	-0.0027331784
39	0xbed54b34	-0.41658938
40	0xbecded50	-0.40220118
41	0xbe87c951	-0.2652078
42	0xbeb31946	-0.3498022
43	0xbe8832c7	-0.2660124
44	0xbe9a02ec	-0.30080354
45	0xbe88f7a5	-0.26751438
46	0xbe854d19	-0.26035383
47	0xbe2bfb1f	-0.16795014
48	0xbe8eb02a	-0.27868778
49	0xbe95f8b5	-0.2929131
50	0xbea090ba	-0.31360418
51	0xbe82575d	-0.25457278
52	0xbec20751	-0.37896207
53	0xbe65ed1e	-0.22453734
54	0xbe97d83a	-0.29657155
55	0xbe9681b7	-0.2939584
56	0xbe3a7406	-0.18208322
57	0xbe9a2fb6	-0.30114526
58	0xbd2b86ea	-0.04187671
59	0xbea72ea9	-0.32652786
60	0xbe77c221	-0.24195148
61	0xbe5172e3	-0.20453982
62	0xbe177869	-0.14792027
63	0xbe9e0ea1	-0.30870536
64	0xbe84a519	-0.2590721
65	0xbea5b147	-0.32361814
66	0xbe9e4cff	-0.30918118
67	0xbdb17656	-0.08665149
68	0xbea1de49	-0.31614903
69	0xbe8350f2	-0.25647694
70	0xbed1c126	-0.40967673
71	0xbe61ef49	-0.22063936
72	0xbe8befbe	-0.27331346
73	0xbeafe4ed	-0.34354344
74	0xbcfdd133	-0.030983543
75	0xbe718e41	-0.23589422
76	0xbe842e11	-0.25816396
77	0xbe943310	-0.28945208
78	0xbea78d59	-0.32725027
79	0xbecfdefe	-0.40599817
80	0xbe87218e	-0.26392788
81	0xbec690a1	-0.38782218
82	0xbe451ba0	-0.1924882
83	0xbe8f82fb	-0.28029618
84	0xbe960387	-0.29299566
85	0xbe6f0e7d	-0.2334537
86	0xbe6c38a2	-0.23068479
87	0xbea246d2	-0.31694657
88	0xbe6ea8fd	-0.23306651
89	0xbe7e284f	-0.24820064
90	0xbde65972	-0.11247529
91	0xbe7f7a2d	-0.2494895
92	0xbeb328c2	-0.34992033
93	0xbe3dcbdf	-0.18534802
94	0xbe98618b	-0.2976192
95	0xbe1bdb3a	-0.15220347
96	0xbe655d3c	-0.22398847
97	0xbe9b453c	-0.3032626
98	0xbe69e228	-0.22840178
99	0xbea3ae8b	-0.31969103
100	0xbe8e3d48	-0.2778113
101	0xbe887753	-0.26653537
102	0xbeb12d1b	-0.34604725
103	0xbe26245c	-0.16224808
104	0xbe1c7e18	-0.15282476
105	0xbcab5b44	-0.020917542
106	0xbe903dd2	-0.28172165
107	0xbe029067	-0.12750398
108	0xbe529ebb	-0.20568363
109	0xbe9f81c1	-0.31153682
110	0xbdc03956	-0.09385936
111	0xbe493bfd	-0.1965179
112	0xbe7bfc01	-0.2460785
113	0xbe8f7537	-0.28019115
114	0xbe996ba9	-0.2996495
115	0xbea5c678	-0.32377982
116	0xbea99c0f	-0.33126876
117	0xbe68e018	-0.22741735
118	0xbe8a6e50	-0.27037287
119	0xbe6d7b02	-0.23191455
120	0xbea0bdee	-0.31394905
121	0xbe8042c1	-0.2505093
122	0x3d50d3f8	0.0509834
123	0xbe7fadd3	-0.24968652
124	0xbe65b288	-0.22431386
125	0xbe94ba32	-0.29048306
126	0xbe1b4656	-0.1516355
127	0xbe6c99db	-0.23105566
128	0xbeb00f3c	-0.34386623
129	0xbeae9ae5	-0.3410255
130	0xbe8c2a4e	-0.27376026
131	0xbea086ca	-0.31352836
132	0xbe88d5dc	-0.26725662
133	0xbe509d13	-0.20372419
134	0xbe899d67	-0.268779
135	0xbead899d	-0.33894053
136	0xbe3b6fc2	-0.18304351
137	0xbe3af5c3	-0.18257813
138	0xbddab778	-0.10679525
139	0x3d426002	0.04745484
140	0xbe9a0bf3	-0.30087242
141	0xbe744251	-0.23853423
142	0xbe0bd54a	-0.13655582
143	0xbd2d1c20	-0.04226315
144	0xbe8613aa	-0.26186877
145	0xbe291b61	-0.1651435
146	0xbe5ba661	-0.21450187
147	0xbe079db6	-0.13243756
148	0xbea3bd85	-0.3198053
149	0xbe9e42e2	-0.30910403
150	0xbe8feccb	-0.28110346
151	0xbebc7360	-0.36806774
152	0xbe36ff99	-0.1787094
153	0xbe9ed036	-0.31018227
154	0xbea2680f	-0.31720015
155	0xbe8fdc48	-0.2809775
156	0xbe94208d	-0.28931084
157	0xbe88356b	-0.26603255
158	0xbe67a2e4	-0.22620732
159	0xbe4b7bc2	-0.19871429
160	0xbeb512e1	-0.35365966
161	0xbdfdf26f	-0.12399756
162	0xbe2db8be	-0.16965005
163	0xbe848ca3	-0.25888547
164	0xbea9a224	-0.33131516
165	0xbe8a73ab	-0.27041373
166	0xbd6d4ba4	-0.057933465
167	0xbe091989	-0.13388647
168	0xbeb3eca8	-0.35141492
169	0xbea00616	-0.31254643
170	0xbe9d86c9	-0.30766895
171	0xbe3ec976	-0.18631539
172	0xbe9ecc52	-0.3101526
173	0xbe6b963b	-0.23006527
174	0xbe9d0eaa	-0.3067525
175	0xbe8e5600	-0.27799988
176	0xbd45db0c	-0.048304603
177	0xbdb5bf68	-0.088743985
178	0xbe904499	-0.28177336
179	0xbeab1962	-0.33417803
180	0xbe8ca4f4	-0.274696
181	0xbea4f187	-0.3221552
182	0xbe506c94	-0.2035392
183	0xbe85f92b	-0.26166663
184	0xbe5d86bd	-0.2163343
185	0xbe08c522	-0.1335645
186	0xbe6eb8fd	-0.23312755
187	0xbdc5a923	-0.09651401
188	0xbe3fb247	-0.18720351
189	0xbea9b95f	-0.3314924
190	0xbe9836a0	-0.29729176
191	0xbeb830aa	-0.35974628
192	0xbe2c590d	-0.16830845
193	0xbe7ce83d	-0.24697967
194	0xbd0b2635	-0.033971984
195	0xbeaae410	-0.33377123
196	0xbe8e88d2	-0.2783876
197	0xbe25e9f7	-0.16202532
198	0xbe494b06	-0.19657525
199	0xbe9c1c43	-0.30490312
200	0xbe5d7fee	-0.21630833
201	0x3aca29dc	0.0015423852
202	0xbe2ae01f	-0.16687058
203	0xbe885225	-0.2662517
204	0xbe828c82	-0.25497824
205	0xbeb795ac	-0.35856378
206	0xbe2ea614	-0.17055541
207	0xbe80caf9	-0.25154856
208	0xbe947543	-0.28995714
209	0xbe37447b	-0.17897217
210	0xbea6f2f0	-0.32607222
211	0xbe9f62ad	-0.3112997
212	0xbe80bc06	-0.2514345
213	0xbe8e3026	-0.2777111
214	0xbe8a7af7	-0.2704694
215	0xbea7bd5d	-0.3276166
216	0xbe5af424	-0.21382195
217	0xbe88ad61	-0.26694778
218	0xbe9897a1	-0.29803184
219	0xbe646366	-0.22303542
220	0xbe83fd1b	-0.25779042
221	0xbe664608	-0.22487652
222	0xbe928ccb	-0.28623042
223	0xbdf4933f	-0.119421475
224	0xbea5af53	-0.32360324
225	0xbe65f6a4	-0.22457367
226	0xbe0d09d6	-0.13773283
227	0xbe934da8	-0.28770185
228	0xbe93e0bc	-0.28882396
229	0xbe6e828a	-0.23291984
230	0xbe8e130c	-0.27748907
231	0xbe532510	-0.20619607
232	0xbe890b6a	-0.2676652
233	0xbea0df8f	-0.31420562
234	0xbe9915be	-0.298994
235	0xbe81b7f3	-0.25335655
236	0xbe6b22c4	-0.22962481
237	0xbe743164	-0.23846966
238	0xbe3bbd2f	-0.18333887
239	0xbee4fbea	-0.44723445
240	0xbe86d62b	-0.26335272
241	0x3c296ad8	0.010340415
242	0xbe8e6aa1	-0.27815726
243	0xbea3945e	-0.31949133
244	0xbea02abd	-0.31282607
245	0xbe93ad83	-0.28843316
246	0xbeb53b85	-0.35396972
247	0xbe23aa51	-0.1598294
248	0xbeb9445c	-0.36184967
249	0xbea80488	-0.32815957
250	0xbe8dddf9	-0.27708414
251	0xbef403e8	-0.4765923
252	0xbe96d766	-0.2946121
253	0xbec01820	-0.37518406
254	0xbcdd7f04	-0.027038105
255	0xbe9afc74	-0.3027073

linear2.bias f4 [5]
0	0xbe239f98	-0.15978849
1	0xbe50eede	-0.2040362
2	0xbd9bf764	-0.076155454
3	0xbe1c963e	-0.15291688
4	0xbdb6c368	-0.089239895
