examples/minecraft/model/model3.2.pth (torch, 13632 bytes, 4 tensors)

linear1.weight f4 [128, 17]
00000000: 48d8 43be d018 f63e 4f22 35be 3ea0 58bd
00000010: e5b5 f23d f3b2 0ebe 53ac 843e 7b85 f63e
00000020: af63 e3be b568 1e3e 7e2e 8e3d 89a5 563e
00000030: 075b c33e 4d1b 32be 5654 0b3f e0a2 0abe
00000040: 0c29 d63e 2a2e 26be da08 edbd 57f7 fa3d
00000050: f4b4 e43c 5c40 5c3d 6e3b c83e 1d49 51bd
00000060: 49ec fdbd 50bf 163f 408d 03be 570d fd3e
00000070: 61b2 3dbe b3ec 4abd 0ffa 25bc 0046 2c3e
00000080: e050 5e3c cd0b 98bd c883 09be 9026 ee3d
00000090: c430 2ebe ff38 213e 23a1 613e 7ce5 5cbe
000000a0: f94d 54be 3e06 65be 4edc df3d 303d 7fbc
000000b0: 9a0b 52be 2022 5c3d 2cb6 d9bd b0b7 c1bc
000000c0: 1047 70bc 88d8 b73d 6368 f3bd 2008 2e3d
000000d0: cf63 afbc e20b 953d c999 063e cb5c 6bbe
000000e0: e8eb aebe d774 35bd c166 d2be f60f 44be
000000f0: a0bf afbd 9d70 e23e 9a5b c83d 421d 28be
00000100: 8705 433d 3d62 e13e a2b1 cdbd 59f1 40bd
00000110: e438 3bbd a6f2 a2bd 148c c63e a90c 943e
00000120: a8ed 29be 6f91 2dbd f636 97bd 3512 bd3d
00000130: e003 fa3e 4015 523e a4eb 2a3e abf5 6b3e
00000140: bf38 12be 1c3f e53e bceb 92bd 7a71 9dbd
00000150: 46c7 2e3e 36a2 3f3e ae45 2bbe 1899 0fbe
00000160: 848d 2ebd e854 bdbd fcd7 54bd d662 2abe
00000170: 9118 123e a06a aebc 240e 1b3c 46ef 0c3e
00000180: 64ca 0bbe 6fe0 5fbe ba74 943e 5b57 d8bd
00000190: 785b 003d 6c7b 1dbe c04e 133d dc26 6e3e
000001a0: 1282 14be 4c3d 523e 5a0d ad3e 5dba 19be
000001b0: 6ec7 883e b6ac e93e 0a4c c7be df7a dbbd
000001c0: 4472 4a3e 7d7d b33e 2325 a23e 838d a6be
000001d0: 838d ae3e 8220 223e e3de 183e b111 5cbe
000001e0: 402b cfbb 2363 7d3e 4423 7e3d 320e a43d
000001f0: f0f5 093f 9f87 803e 8e0b 1b3f 5b2a 113f
00000200: bf1f a13d 71d7 93bd d747 fe3e a1a3 273e
00000210: 9a97 bf3e 147c a63e 8063 103b 93ee db3e
00000220: f0ac fa3c 13e0 dabc b95e c5bd 1141 f83d
00000230: 059c 06be 3299 a3be 973d 14be 9b83 dbbe
00000240: cfc7 343d 3bb9 42bc 6eea b43e a8b4 7c3c
00000250: 772c 36bd 92cc fa3d 5ff9 393c ac9d 75be
00000260: 4d05 7b3e 6cb3 dd3d 6e22 97be b710 87bc
00000270: 5c80 16bd c0de e33c 6bca 0d3f 9e66 b9be
00000280: aa6f 50be c223 243f c106 1f3e 559a 48bd
00000290: 6735 30be 46c4 35be 6d68 8d3d 5091 143e
000002a0: 784e 663d 0ef8 7cbd a346 16be 3755 c33e
000002b0: 56ee 4d3c 3862 e83d 5af0 e83d 04f6 193f
000002c0: 646b 42be 677b a73e 51ac 253f f988 143e
000002d0: d65a b8bd 3952 fd3d fa34 2b3e de16 da3d
000002e0: a639 b83e 6033 c4bc 3c32 e53d 1225 363e
000002f0: e5d7 96bd 1862 9d3e 5c8d 343e 8f63 1c3d
00000300: a36b 063f f6ee 263e 614f d1bd a1f7 0e3f
00000310: b394 b23d 0eab 32be 8036 dcbd e9c2 95be
00000320: 71fd 073f f1b3 ae3e 04f8 223e e96d 133e
00000330: 750e 02be 325c b8bd 35fd 79be 76dc 203e
00000340: b31d a63d 0e9a 0ebe 98bf af3e 2da2 98bd
00000350: 0269 94be 3afb 9f3d ca73 963c e0a5 1b3e
00000360: 6f12 463e 3eaa 333d 5fa2 43bd 24b1 dc3d
00000370: 58d4 98be a0e3 4e3d 425a bc3e 58ac 8d3e
00000380: 50b0 153e 28c1 1abe 19e9 c43e 5d9a 20be
00000390: d2d2 a13e 9366 143f e1c3 673e 1874 83be
000003a0: b987 a83d 872e 963d 1f85 ce3e 2b94 94be
000003b0: d651 483e 906c 753e 4881 19bd a690 2b3f
000003c0: 2060 573d ee58 773e 844b a03e 1ec3 113f
000003d0: 1d57 85be 4462 473f c15d 363f d835 c53e
000003e0: 5bc2 76be 4be3 c73e ae57 113f 9aad c03e
000003f0: 6a36 99be 505f bcbd 55c6 843e be5c a6bd
-0.19125473 0.48065805 -0.17688869 -0.052887194 0.118511 -0.13935451 0.25912723 0.48148713
-0.4441199 0.1546963 0.069424614 0.20961584 0.38155386 -0.17393227 0.5442556 -0.13538694
0.4182819 -0.16228548 -0.11573954 0.122542076 0.027918316 0.053772315 0.3910784 -0.051095117
-0.123985834 0.5888567 -0.12846851 0.4942424 -0.18525077 -0.04954214 -0.010130419 0.16823578
0.013569087 -0.07424126 -0.13429177 0.11628449 -0.1701079 0.15744399 0.22034125 -0.21571916
-0.20732869 -0.22365662 0.10930692 -0.015578553 -0.20512238 0.05374348 -0.1063045 -0.02364716
-0.01466538 0.08976847 -0.118851446 0.042488217 -0.021409897 0.07277657 0.13144602 -0.22984616
-0.34164357 -0.04430088 -0.4109402 -0.19146714 -0.085814714 0.44226542 0.097830966 -0.16417411
0.047612693 0.44020262 -0.100436464 -0.047105167 -0.045708552 -0.07956438 0.38778746 0.2891591
-0.16594565 -0.042375024 -0.0738353 0.09231988 0.4883108 0.20515919 0.16691452 0.23042934
-0.1427946 0.4477471 -0.07173869 -0.076876596 0.17068204 0.18714222 -0.167258 -0.14023244
-0.04261543 -0.0924471 -0.05196379 -0.16639265 0.14267184 -0.021291077 0.009463821 0.1376315
-0.13651425 -0.21862958 0.28995305 -0.10563537 0.03133723 -0.15379113 0.035963774 0.23257011
-0.14502743 0.20531195 0.3379925 -0.15012498 0.26714653 0.4563958 -0.389252 -0.10716795
0.19770151 0.35056677 0.31668958 -0.3252984 0.3409234 0.15832713 0.14928775 -0.21491124
-0.0063222945 0.24744849 0.06204535 0.0801052 0.53890896 0.2510347 0.60564506 0.56705254
0.07867383 -0.072188266 0.49664184 0.16371013 0.3742035 0.3251654 0.0022031963 0.42955455
0.030600041 -0.026718175 -0.096372075 0.121217854 -0.13145454 -0.31952816 -0.1447662 -0.42873845
0.044135865 -0.011884983 0.35335106 0.015423931 -0.044476 0.1224605 0.011350959 -0.23985928
0.24513741 0.10825238 -0.29518455 -0.016487462 -0.036743507 0.027816176 0.5538699 -0.36211103
-0.20355096 0.6411706 0.1552992 -0.048975307 -0.17207871 -0.17750654 0.06904683 0.14508557
0.056227177 -0.06176 -0.14675383 0.3815095 0.012569031 0.11346859 0.113739684 0.60141015
-0.18986279 0.32711336 0.6471606 0.14505376 -0.090017006 0.12369198 0.16719428 0.10648893
0.35981482 -0.023950279 0.11191222 0.17787579 -0.07365397 0.30738902 0.1763205 0.038180884
0.5250799 0.16302094 -0.102202184 0.558466 0.087197684 -0.17448065 -0.107525826 -0.29250267
0.53121096 0.3412166 0.15914923 0.14397396 -0.12700827 -0.0900196 -0.24412997 0.15709099
0.081111334 -0.13925955 0.34325862 -0.074528076 -0.28986365 0.078115895 0.01836576 0.15199995
0.1934297 0.043863527 -0.04776227 0.107759744 -0.29849505 0.05051005 0.3678761 0.2767055
0.14618039 -0.15112746 0.3845909 -0.15683885 0.31606156 0.57969016 0.22633316 -0.2567451
0.08229012 0.07333093 0.40335938 -0.29019293 0.19562468 0.23967195 -0.037476808 0.6701759
0.052581906 0.24155018 0.31307614 0.5693835 -0.26043025 0.77884316 0.7123681 0.38517642
-0.24097578 0.39040598 0.56774414 0.37632447 -0.29924327 -0.09197867 0.25932565 -0.08123158

linear1.bias f4 [128]
00000000: eec7 453e 77ec 5e3e 6318 91be 626b 903e
00000010: 0ac1 34bd 9746 19be 8c33 cb3e 0453 913e
00000020: 4692 5b3e 79c2 013f 0a62 353f 07a1 ca3e
00000030: 21dd 46bd fa92 0e3f 4b00 0e3f 40fd 0b3f
00000040: f94a 823e 1ce6 c03e 2820 e73d b984 adbd
00000050: b6f4 78bc e5eb e53e f32b 9b3e 7d48 be3e
00000060: 2ff3 943e 4be7 b03e 855c 6f3e 437e 033f
00000070: 31da d8bc ef86 043b 42da be3e 8c2c 9d3e
00000080: 5bd7 403e a183 b63e ce34 a53e a4aa cf3d
00000090: 6ed7 993e d3f1 4e3e 4b8a ff3e e09a df3e
000000a0: a1c3 293d 348f be3e 9be0 643e 5d04 913e
000000b0: 04a1 403f 99fd cf3d 8689 e23e 48ee f03e
000000c0: c2b3 963e d31f 853e 00f0 2a3f 4c18 5dbd
000000d0: 3deb 273f 794e 013f 20f0 013f 109d 1d3f
000000e0: 0c64 af3e 9345 df3e bf68 593e 4a21 623e
000000f0: 5c4f 7f3e fdcd bf3e 10fa 023f 7197 9c3e
00000100: b33d 853e f955 0b3f 3d5b ea3d 6af5 9c3e
00000110: 81de 853e d90c a33e 75f1 f73d 059e 5a3c
00000120: 3898 e93e fb47 513e 8f9b 283e 2646 053f
00000130: 4067 843e 5381 ea3e f8e2 2c3e 41a8 ba3d
00000140: d1f2 dd3e 29d0 713e d8fd fb3e c30b 603e
00000150: 96a0 d73d 75c4 d53e 0469 dc3e 08cc 653e
00000160: 85f8 a33e c3ff 953e 33f5 873e 05fc aabb
00000170: 1e90 123f a471 fa3e 05d1 423d 6a42 dd3e
00000180: b07c a43e bfd2 993e 9c40 81be 3c8a ba3e
00000190: 8c97 043f 32b8 e43e 29cd dfbd 7bbd aa3e
000001a0: 372d 9b3e 2a8f 1e3e b777 163f 4c8c 2b3f
000001b0: e80f 053e a7d3 b13e a6c4 933e 650a 453e
000001c0: df3c b53e d027 cb3e d567 a73e a828 ad3d
000001d0: a58e 2f3f a1c1 f6bd ae53 8e3e 78a8 f13e
000001e0: 41c3 123f 55fd 903e 2048 aa3e fd16 c43e
000001f0: edfe f23e fa9a fd3e b7e4 9b3e 09ac 223f
0.19314548 0.21769892 -0.28338918 0.28206927 -0.04412941 -0.14968334 0.39687765 0.28383648
0.21442518 0.50687367 0.7085272 0.3957598 -0.04855073 0.5569302 0.554692 0.54683304
0.25447825 0.3767556 0.1128543 -0.084725805 -0.015195062 0.44906536 0.30306968 0.3716468
0.29091784 0.34551463 0.23375137 0.51364535 -0.02647123 0.0020222028 0.37275892 0.3069805
0.18832152 0.356473 0.3226685 0.10139969 0.30047172 0.20209436 0.49910197 0.43672848
0.041446332 0.3721863 0.22351305 0.2832364 0.7524569 0.10155792 0.44245547 0.47056794
0.2943402 0.26000842 0.6677246 -0.05397825 0.6559332 0.50510365 0.50757027 0.61567783
0.34256017 0.43607768 0.21231364 0.22083011 0.24932617 0.37461844 0.51162815 0.3058429
0.26023635 0.5442806 0.114431836 0.30655986 0.2614632 0.3184574 0.12106601 0.013343339
0.45623946 0.20437615 0.16465591 0.52060163 0.25860023 0.45801792 0.16883457 0.09114123
0.43349317 0.23614563 0.49217105 0.21879487 0.10528676 0.41751447 0.4304887 0.22441113
0.32025543 0.29296693 0.2655426 -0.0052180314 0.57251155 0.48914826 0.047562618 0.43214732
0.3212638 0.300436 -0.25244606 0.3643359 0.5179374 0.4467178 -0.10927803 0.33347687
0.30307934 0.154843 0.5877642 0.6701095 0.12994349 0.3473179 0.28860968 0.19242246
0.35398003 0.39678812 0.32696405 0.0845502 0.68577033 -0.120486505 0.27798218 0.47198844
0.57329184 0.28318277 0.33258152 0.3829879 0.47460118 0.495323 0.30447933 0.63543755

linear2.weight f4 [5, 128]
00000000: bc57 14be 777c 4dbe c216 91bc 7136 7bbe
00000010: 65ac f83b 7cad bcbc 23b4 37be aac2 41be
00000020: bea0 91be ea7d 0dbe e346 74be 74ce 35bd
00000030: c521 eabd 4e61 80bd 8230 ddbd d92b 2fbe
00000040: a564 b6bc ace7 66bd 7fe4 03be d147 83be
00000050: 40ae 47be 3e67 69bd 1e43 07be 3ae4 4fbe
00000060: 30f8 21be e8f3 babe e0fa eabd 0fac eebd
00000070: c599 933d d4f2 33be 186e 97ba 1ba4 27be
00000080: 931f 4bbe 28b4 f6bc af03 34bd 07de a6be
00000090: caaf fabd 9684 e5bd d867 ecbd 240b 11be
000000a0: a980 abbe 6edf a3bd fc14 acbe f51a cdbd
000000b0: bb63 84be ba43 9dbd 53a0 59be bf3f 47be
000000c0: 0602 3abe c655 13be 348f 4abe 3de3 95be
000000d0: 1b94 7dbe ea21 30be 6849 79bd d8a7 76be
000000e0: 0fc4 473d 20da 5dbd 6f02 e4bd 4c0c 22be
000000f0: 7989 023c bbc5 8bbe b63b febd 28d8 bdbd
00000100: 29a5 0ebe ca19 03be 1272 76bd 1459 d0bd
00000110: 5c23 f53c cd6e 1fbe 73bd 89be 9250 87be
00000120: ef97 bfbe 7fe0 79be 152b 2a3c 072c 4abe
00000130: 99cf 88be 0515 67be 5db4 1ebe 131a 3dbe
00000140: 1e35 44be d59b d4bd 4d8f 2cbe 0d72 313c
00000150: d9e9 dcbd 2fba 0fbe b0db 4dbe f52b 73be
00000160: 21b9 e6bd 4845 1dbe 4969 edbd 9fda 903c
00000170: 3a6f 85be c201 54be 07f0 1fbe 1ecd 46be
00000180: bca5 93be 8a89 84be 01e0 8abd b5a0 68be
00000190: 997c 93be 45d6 05be 38ed 9fbc b784 25be
000001a0: bbb1 f1bd d414 473d 0e6d 56be bdc6 5ebe
000001b0: dd20 8dbe c948 97bd 3954 58be 8133 59be
000001c0: 02ee 00be 9fc7 9bbe 3a32 b6bd 1acc 8dbd
000001d0: 9714 72be 1c8b 363d 9704 92be 3dfa 04be
000001e0: ba6a 77be bc93 9cbe 27fa 52be b913 74be
000001f0: 124e 56be adde 9bbe 4295 2bbe f52c 9cbe
00000200: 0b51 30bd 530d 73bd 8546 1d3d fb43 1ebe
00000210: 6334 d1bc 76d1 7b3d 9917 42be 807f 06be
00000220: ede7 0dbe 8c67 65be 9d04 36be 26ae e4bd
00000230: ca8c 21be e625 5bbe dcd2 41be beca 24be
00000240: 5ea9 86bd fcd1 c9bd 7ac6 9abd e1c1 4abe
00000250: a766 80be f2cc 01bd 5f66 d0bd ad92 71be
00000260: 3335 22be 70f0 94be 6db2 9cbc eec0 1fbe
00000270: 1409 2fbe 2839 62be 1b63 4fbc 0a32 88bd
00000280: 0c37 20be 47ec 85bc e281 2cbe 03bf 44be
00000290: d0e0 8fbd d86a b7bd a6b0 36be 0626 62be
000002a0: 7c91 91be 2af3 dbba 6a81 73be f2ce 6bbd
000002b0: 8548 8ebe 0bcc 5b3d c430 00be 584e 74be
000002c0: 0f12 64bd 0f2b a3bd d3b7 3cbe d417 8abe
000002d0: 200c 40be 4a39 1abe f455 22be 434d 05be
000002e0: 5eaf 0fbe 14a9 07bd d37a 00be e998 70be
000002f0: 70c4 d4bd 5143 76be 1c75 a5bd c234 e6bd
00000300: ac31 24be e3e0 ffbd 577b 51bd 7ef2 07be
00000310: 17dd 53bd a03f 43be d12b 0dbe 543b 4fbe
00000320: 2b18 98be 680b 20be 1eb9 003b 834e 68be
00000330: acf7 21be a189 33be b139 38be 267c 5cbe
00000340: b128 39be c038 97be 3db0 28be b794 4fbe
00000350: 01c8 47be aab8 5dbe 0242 87bd 1b72 3ebe
00000360: 7207 75be 066f 25be eec0 19be 2d65 743c
00000370: a674 0ebe 3df7 d0bd 3395 f7bd 8e71 2bbe
00000380: 57f2 6ebe 2a15 80be 8ae5 1f3d c8e0 1cbd
00000390: 2b73 0ebe 5176 5bbd 1533 a5bd 0f49 77be
000003a0: 6a75 cabd efcb 4cbd 8ee6 cfbd 4dd5 39be
000003b0: b45e 6abe be39 59bd 5d9a 00be d41e 6abe
000003c0: f7d3 5bbe a804 89be a7da 85bd 08e1 90bc
000003d0: 19eb 50be 5585 b8bd dc85 05be 546d 11be
000003e0: 62c8 8ebe d0c4 29be a10c 58be 77d8 2cbe
000003f0: 20d2 14be 03ff 5fbe ba96 85bd 5598 1cbe
-0.14486593 -0.20067011 -0.017711047 -0.24532486 0.0075889104 -0.023031943 -0.1793981 -0.18921915
-0.2844295 -0.13817564 -0.23855166 -0.044386342 -0.11432222 -0.062685594 -0.10800268 -0.1710657
-0.022264788 -0.056373283 -0.12880133 -0.2564073 -0.19500065 -0.056983225 -0.13209197 -0.20301905
-0.15817332 -0.3651421 -0.11473632 -0.11653911 0.072070636 -0.175731 -0.0011553196 -0.16371195
-0.19836263 -0.030115202 -0.043948825 -0.32591268 -0.1224056 -0.112069294 -0.11543244 -0.14164406
-0.33496597 -0.080016 -0.3360976 -0.10014907 -0.25857338 -0.076789334 -0.21252565 -0.19457911
-0.18164834 -0.14388189 -0.1978119 -0.29274932 -0.24763529 -0.17200437 -0.06086102 -0.24087465
0.04877096 -0.0541631 -0.11133277 -0.15825003 0.007967346 -0.27299294 -0.12413733 -0.09269744
-0.13930191 -0.12802806 -0.06016738 -0.1017324 0.029924087 -0.15569611 -0.2690235 -0.26428658
-0.37420604 -0.24402045 0.010386248 -0.19743358 -0.26720884 -0.22566612 -0.1549849 -0.18466978
-0.19160888 -0.10381285 -0.1685154 0.0108304145 -0.107867904 -0.14035867 -0.20103335 -0.23747237
-0.11265779 -0.1535846 -0.11592347 0.017682372 -0.26061422 -0.20703796 -0.15618907 -0.19414183
-0.28837383 -0.25886184 -0.067810066 -0.22717555 -0.28805998 -0.13070019 -0.019522294 -0.16163908
-0.118014775 0.048603848 -0.20940039 -0.217555 -0.27564135 -0.073869295 -0.21125878 -0.21211053
-0.12590793 -0.30425736 -0.08896299 -0.06923695 -0.23640667 0.04456626 -0.28519127 -0.12986083
-0.24161807 -0.30581462 -0.20603238 -0.23835649 -0.20928219 -0.30443326 -0.16756156 -0.3050305
-0.04304604 -0.05933888 0.03839733 -0.1545562 -0.025537675 0.061479054 -0.18954314 -0.13134575
-0.13858004 -0.22402781 -0.17775197 -0.11166029 -0.15776363 -0.21401176 -0.18928093 -0.16092965
-0.06575273 -0.098545045 -0.07557388 -0.19800521 -0.25078318 -0.03168959 -0.10175776 -0.23591109
-0.15840606 -0.2908969 -0.019128049 -0.1560094 -0.17093307 -0.22092116 -0.012657906 -0.06650169
-0.15645999 -0.016348017 -0.16846421 -0.1921349 -0.070253015 -0.08955926 -0.17840824 -0.22084817
-0.28431308 -0.0016780843 -0.23779836 -0.057570405 -0.27789703 0.053661387 -0.12518603 -0.23858011
-0.055681285 -0.07967197 -0.18429498 -0.26971304 -0.18754625 -0.15060917 -0.15853101 -0.13017754
-0.14031741 -0.03312023 -0.12546854 -0.2349583 -0.1038903 -0.24049117 -0.080789775 -0.112405315
-0.16034573 -0.124940656 -0.051143017 -0.13276097 -0.05172452 -0.1906724 -0.13786246 -0.20237476
-0.2970594 -0.15629351 0.0019641588 -0.226862 -0.15817136 -0.1753297 -0.17990758 -0.21531734
-0.18081929 -0.29535484 -0.1647348 -0.20271574 -0.19509889 -0.21652475 -0.06604387 -0.18598215
-0.23928621 -0.16155633 -0.15015003 0.0149167 -0.13911685 -0.10203407 -0.12089004 -0.16742536
-0.23334633 -0.25016147 0.039037265 -0.038300306 -0.1391112 -0.053579632 -0.08066384 -0.24148963
-0.09885676 -0.049999174 -0.10151397 -0.18147774 -0.22887689 -0.053033583 -0.12558885 -0.22863322
-0.21467577 -0.26761365 -0.06535845 -0.017685428 -0.20402183 -0.09009806 -0.13039345 -0.14201862
-0.27887255 -0.16578984 -0.21098568 -0.1687945 -0.14533281 -0.21874623 -0.065228894 -0.15292485

linear2.bias f4 [5]
00000000: be2b 48be 5ce6 5ebe 4d6a 6f3d 0cc1 443e
00000010: 4431 f83d
-0.19547936 -0.21767563 0.058450986 0.19214267 0.12118772
