examples/minecraft/model/model.pth (torch, 17216 bytes, 4 tensors)

linear1.weight f4 [256, 11]
000000 94 a2 eb bc a1 ec a8 bd 40 5f 24 3c 87 8e 72 be
       -0.028764047 -0.082482584 0.010032475 -0.23687182
000010 ed ed 32 3e 83 0e 8a 3e 0e 0b 1d be 89 d8 d9 3d
       0.17473574 0.26964197 -0.15336248 0.10637004
000020 d9 d9 b0 3d 8b a3 51 3e 62 22 83 be f4 0c dc 3d
       0.08635301 0.20472543 -0.2561217 0.10744658
000030 8a 49 9a be f8 7e 8f be c2 eb 2a 3e 7e 3e 02 3e
       -0.3013423 -0.28026557 0.16691497 0.12719151
000040 d0 3f 7d 3d b0 a1 d5 bc 08 2c 42 3d f2 b3 91 be
       0.061828434 -0.026078075 0.047405273 -0.284576
000050 b1 c7 38 be 7a e1 fb bd ad 39 0d 3e 79 61 99 bc
       -0.18044926 -0.122988656 0.13791533 -0.018723236
000060 a6 27 8d be f8 db 77 3e 26 9f cb bd 87 07 f1 bd
       -0.27569312 0.24205005 -0.099424645 -0.11769014
000070 91 15 40 3e 71 5e 15 bd 69 16 2d bd 3d 90 7b 3e
       0.18758227 -0.03646702 -0.0422577 0.24566741
000080 a5 c7 89 bd c3 96 06 bd f9 ff 87 ba 5c a7 78 be
       -0.06727532 -0.03285862 -0.0010375968 -0.24282593
000090 e7 4d 3c 3e 14 e7 6d be 9e 91 57 3e d1 e2 23 bd
       0.18389092 -0.2323268 0.21051642 -0.04001123
0000a0 bc b0 ec bd 1a 86 99 3b b3 96 8d 3e 26 7f 54 bd
       -0.11557147 0.0046851756 0.27654037 -0.05187907
0000b0 95 41 1b be ca e4 87 be 7c 32 4a be 76 28 3c 3e
       -0.15161736 -0.2654174 -0.19745821 0.1837481
0000c0 fc 86 2c bd 42 a4 3f 3e 6e 74 94 be 7c 57 85 3e
       -0.04212092 0.18715003 -0.2899508 0.26043308
0000d0 01 75 96 be f1 86 1b 3d 04 e6 0c 3e e1 c2 0f be
       -0.29386142 0.037970487 0.13759619 -0.14039184
0000e0 3c 36 00 3e de c6 8e bd e4 69 75 be d2 16 bf bd
       0.12520689 -0.06971525 -0.23966175 -0.093305245
0000f0 78 ed af bd 70 de f5 3c 62 1d 19 3e 60 cb 99 3d
       -0.085902154 0.030013293 0.14952615 0.07509494
000100 50 52 30 be ba 60 84 be 78 57 3d bd 4e 02 2f be
       -0.172189 -0.25855047 -0.046225995 -0.17090723
000110 d4 77 66 be 86 e6 19 3e c8 86 61 bd 1e ec f6 bd
       -0.22506648 0.15029344 -0.055060178 -0.120567545
000120 40 78 42 3e 50 1d d2 bc 50 9e c3 3c 31 b5 59 bd
       0.18991184 -0.025648743 0.0238792 -0.053151313
000130 5e f8 8a 3e 7e c8 47 3e 70 0a 2d 3d b0 3e df 3d
       0.27142614 0.19510075 0.042246282 0.109006286
000140 ff d1 5d be 98 cb 7d bd 48 57 76 3e 96 71 45 3e
       -0.21662138 -0.06196174 0.24056733 0.19281611
000150 46 e5 90 be 74 0f 1e be f1 60 63 be ef bf 6b be
       -0.28299922 -0.15435582 -0.22204949 -0.23022436
000160 ae 73 9a 3d 62 b4 83 be ca f4 f2 3d db b1 0c 3d
       0.075415954 -0.2572356 0.11863096 0.034349304
000170 ad 8e 42 be ba 97 b7 3d b2 94 fb 3d 96 db da bd
       -0.18999739 0.089644864 0.12284221 -0.10686414
000180 8c 2b 5c be 4d f8 7e 3e 01 7e f6 bd a7 b0 66 3e
       -0.21500987 0.24899407 -0.12035752 0.22528325
000190 99 52 bf 3d a0 89 58 3e 0a 07 5b be c0 73 5e 3e
       0.09341926 0.2114625 -0.21389404 0.21723843
0001a0 9f 3c 51 3e bb 24 19 3e dd a4 45 3d 9d 54 4d 3d
       0.20433281 0.14955418 0.04825293 0.05012952
0001b0 6c 2a 30 3e 54 6c 5d be 88 b5 a1 bd ca 44 72 3d
       0.17203683 -0.21623355 -0.078959525 0.059147634
0001c0 b2 64 d8 3d 25 60 9f bd d5 25 73 3d 39 d7 77 be
       0.10566081 -0.0778201 0.05936225 -0.24203195
0001d0 5b 1c 67 3d 4b f0 8c 3e 41 bd 83 bd 59 dc 97 be
       0.056423526 0.2752708 -0.06432582 -0.296603
0001e0 9e c1 3d 3e 35 83 66 be 3f 16 93 be 3e f7 f0 bd
       0.1853089 -0.22510989 -0.2872791 -0.11765908
0001f0 29 34 df 3d ee 03 19 be 3c 86 92 be 68 48 03 bd
       0.10898621 -0.14942905 -0.28618038 -0.032051474
000200 b4 be 82 be f4 b1 88 3e c0 3e a4 3d 68 85 6b 3e
       -0.2553612 0.26698267 0.08019781 0.23000109
000210 10 f4 c5 3d 70 59 94 3e 6e 72 91 bd 1f e9 8c be
       0.09665692 0.28974485 -0.07101904 -0.27521607
000220 7a 9d 8b be 6c 19 45 be b8 47 7c 3e 93 f0 94 be
       -0.27268583 -0.19247979 0.24636734 -0.29089794
000230 c0 3c fd bb 96 41 81 be 33 13 33 be ec 8e 76 3e
       -0.007728189 -0.2524535 -0.17487793 0.24077958
000240 c9 be 75 3e 4c 62 9e 3e 10 c0 39 be d2 81 77 be
       0.2399856 0.3093437 -0.18139672 -0.24170616
000250 fc 6f 7a 3e 42 61 34 3e 39 b7 5b bd a6 55 91 3c
       0.24456781 0.17615226 -0.05364153 0.017741036
000260 60 4a f3 bd 9a a5 9d bd 45 aa 79 be 34 63 96 be
       -0.1187942 -0.076976016 -0.24381359 -0.2937256
000270 fd d1 e1 3d c5 b4 27 be 80 8e f9 3d 12 43 0b 3d
       0.1102638 -0.16377552 0.12185383 0.03399951
000280 52 80 7c 3e 7e a5 1f bd 8b ed 8d 3d d8 22 8a 3e
       0.24658325 -0.038976185 0.06930073 0.2697971
000290 3d 9f 43 be 50 e1 44 bd 52 1b 79 be 69 38 88 3e
       -0.19103713 -0.048066437 -0.24326828 0.26605538
0002a0 6c e4 06 be 51 2b ba bd 7a 1a 6b 3d b4 87 56 3e
       -0.13173074 -0.09090293 0.057398297 0.20950204
0002b0 78 c7 2c be 14 1a 41 3e 9b d3 4f be c8 6c 03 3d
       -0.16872966 0.18857604 -0.20295565 0.032086164
0002c0 d9 f8 17 be d0 e5 c1 bd 42 1f 67 be 22 38 3c 3e
       -0.14841022 -0.094676614 -0.22570518 0.18380788
0002d0 9c 62 6a 3e 22 43 1c be f6 ed 87 3e b9 7b 13 be
       0.22889179 -0.15259984 0.26548737 -0.14402665
0002e0 c0 a0 91 bd ce f2 b3 bd eb 7b 55 3e f2 cf 23 3e
       -0.07110739 -0.08786546 0.20848052 0.15997294
0002f0 d2 f8 57 3e 19 76 66 be f2 e0 aa 3d 82 5b 93 3e
       0.21091011 -0.22505988 0.08343686 0.28780752
000300 3b d6 83 3e 8c ad 5f be e7 7b 0a 3e 6a cc 87 3e
       0.25749382 -0.21843547 0.13523827 0.26523143
000310 65 61 23 bd 2b 16 84 3e a0 d7 c0 bd 77 49 09 be
       -0.039887805 0.25798163 -0.09416127 -0.13406931
000320 a7 f1 df 3d 32 65 5e be d2 a3 8c 3e ca 14 07 3d
       0.109347634 -0.2171829 0.27468735 0.03297881
000330 01 b9 44 3e 6d 1a 00 bb 83 59 46 3e ed 74 85 bd
       0.19211198 -0.0019547 0.19370084 -0.065164424
000340 7c 3c 72 be f3 7d 66 be b0 36 7b 3d 46 56 96 be
       -0.23655885 -0.22508983 0.06133145 -0.29362696
000350 dc 67 97 be ed 73 95 3e a4 13 6f 3e ea 65 ae bd
       -0.29571426 0.29190007 0.23347336 -0.08515532
000360 34 c5 79 bd e4 b8 6d be 04 56 dc b9 e7 0b 8c 3e
       -0.060979083 -0.23215061 -0.00042025757 0.2735283
000370 a1 20 db 3d 3c 26 14 3e f4 e1 98 be f7 d6 54 be
       0.10699583 0.1446771 -0.2985989 -0.20785128
000380 25 9c a1 3d 84 4a 69 bd a1 65 89 3e e1 37 66 3e
       0.0789111 -0.05695583 0.2683535 0.22482254
000390 27 bc 1a 3e 79 9f 70 3d 4b a9 e0 3d 56 6e 6c be
       0.15110837 0.058745835 0.1096979 -0.23088965
0003a0 cc 69 2a bd 1b b6 27 3e 12 9b d4 3d 7e a1 7c 3e
       -0.041604802 0.16378061 0.1038114 0.2467098
0003b0 91 f0 69 3e b5 b1 07 3d 23 b8 36 3e 93 5d 26 3e
       0.22845675 0.03312846 0.1784368 0.16246633
0003c0 23 85 86 be e6 bb 1a 3e b4 3f 83 3e ed 7d 74 be
       -0.2627345 0.1511074 0.2563454 -0.23876162
0003d0 1a 00 92 3e f4 84 8a be 93 90 ec 3d 17 07 5a 3e
       0.28515702 -0.2705456 0.11551013 0.21291767
0003e0 03 76 24 be 7e f2 87 3d de 7e 80 bd 28 d6 13 3e
       -0.16060643 0.066380486 -0.06274198 0.14437163
0003f0 49 df 8c 3e ee 9c 79 be 10 79 93 be 40 00 b4 bb
       0.27514103 -0.2437627 -0.288033 -0.005493194

linear1.bias f4 [256]
000000 e3 89 61 3e d5 00 92 3e 45 2e 54 3e 0a e7 e5 3d
       0.22025256 0.2851626 0.20720775 0.11225708
000010 24 78 d6 3d 14 e4 2f 3e e5 2e 21 bd 7e 84 d8 bd
       0.10472134 0.17176849 -0.039351363 -0.10572146
000020 ef d1 b9 3d 14 69 95 be ba 5f 72 3e ba fb 46 3e
       0.09073245 -0.2918173 0.2366933 0.19431964
000030 41 a5 66 3e be 6c c6 3c bb 26 0b 3e aa 6c 0c 3e
       0.22523977 0.024221774 0.13588993 0.13713327
000040 a6 1c 0e be 11 3c 5f 3e 83 05 7a 3d 1c 6c 91 be
       -0.13878116 0.21800257 0.061040413 -0.28402793
000050 ff dc 8e bc f5 8e 9a be 48 b2 1a 3e 9c d5 33 be
       -0.017439364 -0.30187193 0.15107071 -0.17561954
000060 40 c4 96 3d f2 d8 47 bd fd 60 01 3e 86 82 03 be
       0.073616505 -0.04879088 0.12634654 -0.1284276
000070 94 fc 54 3e 70 d6 59 be b3 09 db bc 97 70 1d be
       0.20799476 -0.21273208 -0.026738023 -0.15374981
000080 71 02 cf 3d 55 95 31 bd 61 db 8a be a4 64 e2 bc
       0.101078875 -0.043355305 -0.27120498 -0.02763588
000090 c7 af 9c bd 1c ae 81 bb 4d d1 c2 3d ae d8 4b be
       -0.07650714 -0.003957523 0.09512577 -0.19906875
0000a0 d5 24 8a be 07 22 29 3d 9f e0 39 bd 8a ee 2a be
       -0.26981226 0.041292217 -0.04538023 -0.16692558
0000b0 08 16 60 be 5c 03 94 3e 10 16 a7 bc ae f1 48 3c
       -0.21883404 0.28908813 -0.020396262 0.012264652
0000c0 99 3c 9d 3e 65 04 ad 3d 23 3b d2 3c 46 8d bf bd
       0.30710295 0.08448104 0.025662964 -0.09353118
0000d0 56 33 02 bd 5c 63 af bb e8 ed 39 bd 08 e0 c4 3d
       -0.03178724 -0.0053524207 -0.0453929 0.09613043
0000e0 cc f5 05 3e 54 ee c4 3d 3e 23 76 3e a8 ca 88 be
       0.13082045 0.0961577 0.24036881 -0.26717114
0000f0 9e ad 49 be 67 70 8a be c7 85 ca 3d 01 6a 71 3e
       -0.19695136 -0.2703888 0.09888797 0.23575594
000100 fb 89 ae bd 7c f1 68 be 80 ab 85 bd 1a 2c 4e 3d
       -0.085224114 -0.22748369 -0.06526852 0.050335027
000110 2c e7 49 be e0 0e e9 bd cb e0 a3 3d 73 67 08 3e
       -0.19717091 -0.1137979 0.0800186 0.13320713
000120 0b 94 16 3e 54 bf 3e be b4 59 2b be 3b ff c8 3d
       0.14704911 -0.18627673 -0.16733438 0.09814306
000130 c0 79 55 3b 0b 9a 8d be 1c a9 8a 3c 44 cd 6e be
       0.003257379 -0.27656588 0.01692634 -0.2332049
000140 1f ca fa bd c0 c7 f9 bc 06 a8 10 3e d3 68 5d be
       -0.12245583 -0.030490756 0.14126596 -0.21622019
000150 f4 a1 c2 bd 8b 33 2f 3e 05 b5 78 be db 5c d6 bd
       -0.09503546 0.17109506 -0.24287803 -0.104669295
000160 48 26 23 3e c0 01 e6 bc f5 26 49 3e d6 e0 cd 3d
       0.15932572 -0.028077006 0.19643767 0.1005265
000170 97 ef 35 3e 58 04 89 3e 24 fc 0c 3e 37 92 29 be
       0.17767178 0.26761127 0.13768059 -0.16559683
000180 ae 59 73 be e0 a6 b8 bd f8 d3 4a be d5 c5 53 be
       -0.23764679 -0.09016204 -0.19807422 -0.20680936
000190 03 14 3e 3e 0e fe f4 bd 4e 09 94 be c0 83 8a bc
       0.18562321 -0.119625196 -0.2891335 -0.016908526
0001a0 64 36 c9 3d 8b 39 b4 bd 2d 40 18 3e b4 4e 4d be
       0.09824827 -0.08800038 0.14868231 -0.20049554
0001b0 a0 e1 42 bd 23 ac 04 be da f1 a7 3c 2e 2d dc 3d
       -0.047578454 -0.1295629 0.020501066 0.10750805
0001c0 60 30 73 be 49 84 ba bb 1c a9 4d be 32 4b aa bd
       -0.23748922 -0.005692039 -0.20084041 -0.083151236
0001d0 62 70 c4 39 34 9a b2 3e 86 78 92 3e b6 e5 a7 bd
       0.00037467765 0.34883273 0.28607577 -0.08198111
0001e0 0f 00 87 be 3a ff 13 3e c9 ce 89 3d e6 94 66 be
       -0.26367232 0.1445283 0.06728894 -0.22517738
0001f0 64 0a 7d 3e 14 26 88 3e e9 97 44 3d 54 43 4f 3e
       0.24710995 0.2659155 0.047996435 0.20240527
000200 40 71 6a 3e a1 b8 78 3d 40 d6 5e be f6 fd 14 3d
       0.22894764 0.06072295 -0.21761417 0.03637501
000210 1c e3 62 3e a3 f4 80 be 6e 06 27 3e c6 46 3d 3e
       0.22156948 -0.25186643 0.16311046 0.18484029
000220 ce f9 0c be cb 80 06 bd e8 c3 ad 3d aa 1c 74 be
       -0.13767168 -0.03283767 0.08484632 -0.2383906
000230 3b cc 52 3e 9a 3c 33 be 71 e1 22 be ee 81 26 be
       0.2058572 -0.17503586 -0.15906312 -0.16260502
000240 f2 fe 76 3e ea 0b 0e 3e 83 64 d0 bd 40 24 19 3d
       0.24120691 0.13871732 -0.10175421 0.037388086
000250 b8 17 14 be f8 9a 73 3d 04 6d 5b be 8d 40 57 3e
       -0.14462173 0.05947396 -0.21428305 0.21020718
000260 f6 c7 20 3d 2c b9 82 be 2f 0d 6a 3e d2 88 99 be
       0.039253198 -0.255319 0.22856592 -0.29987198
000270 53 c8 98 3e d6 1a 7a bc ac 6e 47 be b0 5a a5 3b
       0.29840335 -0.015265187 -0.19475812 0.005046211
000280 85 3a 16 3e 11 49 05 be 35 2c 92 3e 52 49 ba 3d
       0.14670761 -0.13016154 0.28549352 0.09096016
000290 4a 20 3a 3e ca 9e e3 3d a0 ef 3b 3e 8b ea b5 3d
       0.1817638 0.11114271 0.18353128 0.08882626
0002a0 57 c7 48 be f1 89 fe bd 1b b0 6c 3e 8e 96 c1 bd
       -0.19607292 -0.12428654 0.23114054 -0.09452544
0002b0 c8 73 8c be c2 89 75 be 0b 89 70 3d a5 d3 03 3e
       -0.27432084 -0.23978332 0.058724444 0.12873705
0002c0 76 f7 eb bc ec 3a 38 be c0 b7 53 bd fc 16 4f bc
       -0.028804522 -0.17991227 -0.05168891 -0.012639757
0002d0 3a 92 61 be 83 74 7b be 3a 98 39 3e 03 bb 88 bd
       -0.22028437 -0.24556164 0.18124476 -0.06676295
0002e0 e3 3a ff 3c fe 48 3f be 16 1d 1d 3e 97 da 08 3d
       0.031156009 -0.18680188 0.15343127 0.03341159
0002f0 34 be 91 be 19 3b 5e 3d dd 45 6b be 2d 88 64 bd
       -0.28465426 0.05425558 -0.2297587 -0.05579393
000300 48 7d 78 3d ad de 81 be 83 bf 3d 3d 44 de ea bc
       0.060666353 -0.253652 0.046325218 -0.028670438
000310 3d ca e0 3b 53 92 07 be 30 e7 4e bd 35 05 50 3c
       0.006860046 -0.13239412 -0.050513446 0.012696554
000320 66 98 e2 bd f2 2b d1 3d 9e 09 8c 3e fc 8d c4 bd
       -0.11064224 0.1021346 0.27351087 -0.09597394
000330 56 ae 08 be 58 a1 c8 bd 6c 17 31 3e 66 95 d6 bd
       -0.13347754 -0.09796399 0.17294091 -0.10477714
000340 b7 31 30 3d 96 07 f2 3d 22 6d 41 be 40 3c c8 3b
       0.04301616 0.11817853 -0.18889287 0.006110698
000350 4f d2 40 3e 58 df 18 3d d2 b9 0b 3d 1a e9 68 be
       0.18830226 0.037322372 0.03411276 -0.22745171
000360 23 d4 7b 3e 15 8e 1e 3e ff f2 6c 3d 64 f3 0e 3e
       0.24592642 0.15483887 0.057848927 0.13960034
000370 8b 98 00 3e 6c a9 93 3d ec 5b 44 3e f2 82 b8 bd
       0.1255819 0.07210049 0.1917569 -0.09009351
000380 6b 38 78 3e 83 7f 8f 3e bf da 42 be f1 36 0d 3d
       0.24240272 0.2802697 -0.19028758 0.034476224
000390 4b b6 99 3e 37 6f 67 3e c1 93 2b 3d 5e 18 52 be
       0.3002189 0.22601019 0.041888956 -0.20517108
0003a0 80 c4 93 3d 59 86 2a be bf 8f 00 be 2c c1 94 3e
       0.07215214 -0.16652812 -0.12554835 0.29053628
0003b0 63 59 0b be fc 7d 92 bc 76 8e 09 be 6c 4e 94 be
       -0.13608317 -0.01788234 -0.13433251 -0.2896608
0003c0 1f b7 84 be a0 45 18 bd f5 82 8d 3e ce a8 a9 bd
       -0.2592096 -0.037175775 0.27638975 -0.0828415
0003d0 e3 c7 65 be e1 fe 85 be 4c f7 e4 39 49 77 82 be
       -0.22439532 -0.2617102 0.000436718 -0.25481632
0003e0 1f 7c c6 bd 16 25 74 3e 56 ec ef bd d0 a0 53 be
       -0.09691643 0.23842272 -0.117149994 -0.20666814
0003f0 09 32 ee 3d 05 2b 8c bd fa b9 33 3e 0a ef 81 3e
       0.11630637 -0.06844143 0.17551413 0.25377685

linear2.weight f4 [3, 256]
000000 d4 d1 66 3c 75 6d 34 bd 1a 47 a0 3b 60 fc 9b b9
       0.014088113 -0.0440497 0.0048912885 -0.00029751938
000010 83 7a b7 bd 88 d2 13 bc 85 af a7 bd a8 05 08 3c
       -0.08958914 -0.0090223625 -0.081877746 0.00830213
000020 71 0f 63 bd b4 3e 01 3d f4 bd 51 3d f2 50 af bd
       -0.055434648 0.03155394 0.051206544 -0.08560361
000030 35 3f db 3b b0 be 2a bd 17 cd 24 3d 7a cf 5a 3d
       0.0066908845 -0.04168576 0.04023465 0.05342052
000040 8e 10 b2 3b 60 e6 42 bd b1 19 f2 bc ff 66 f0 3c
       0.0054341024 -0.047582984 -0.029553266 0.029345987
000050 c9 ba 23 3a 65 56 c7 ba e7 f8 0c 3d 47 c8 41 bc
       0.00062457897 -0.0015208243 0.03441706 -0.011827535
000060 ad 45 c0 bc 1f a4 05 bd cb 73 f3 bc 42 c2 9f bc
       -0.023470724 -0.03262722 -0.0297183 -0.019501809
000070 11 f3 06 3d 70 e3 bc 3c fa 38 60 bc 05 0e 85 bd
       0.03294665 0.02305767 -0.013685459 -0.06496815
000080 4f 37 2f bd da 70 4c bd b0 20 87 3c 1b a6 43 3c
       -0.042777356 -0.04991231 0.016495079 0.011941458
000090 57 61 a7 bb c8 f8 c4 bc 77 7e 25 3d 7a c9 17 3d
       -0.0051080394 -0.02404441 0.04040381 0.037057377
0000a0 8c 2e f1 39 b5 c7 04 3d 89 3f e7 3b 8e 89 58 3c
       0.00046001782 0.032417018 0.0070571345 0.013216389
0000b0 a7 1f 29 bc a0 a2 88 3c 15 80 e3 3c 82 fd e2 3c
       -0.010322488 0.016679108 0.027771035 0.027708773
0000c0 39 e7 fa bc c7 54 49 3d 33 df 10 bd e1 e6 81 bd
       -0.030627834 0.049153116 -0.03536911 -0.06342865
0000d0 33 b8 81 bd ae e3 3f bd 9c 67 42 3d 98 0f 36 3d
       -0.06333961 -0.04684799 0.04746209 0.044448465
0000e0 44 ec 08 bd 41 e1 79 bd c3 3c 6a bd ad f9 de 3c
       -0.033428445 -0.061005834 -0.057186853 0.027218664
0000f0 90 ec 51 bd 9b ed df 3a 47 c0 29 bd 9a ed ea 3c
       -0.051250994 0.0017084362 -0.041443136 0.02867775
000100 a6 f6 5a bd ce dc 71 bd c0 16 81 bc db 79 97 bd
       -0.05345788 -0.059048466 -0.015757918 -0.07396289
000110 7a a4 a3 bd a8 9f 68 bc b4 f1 a8 bd a2 a5 7c bb
       -0.07990356 -0.014198221 -0.08249226 -0.0038550873
000120 35 fe 6f bd 04 e1 8e bc 44 7c d7 3c 31 35 7a bd
       -0.05859204 -0.01744128 0.026304372 -0.061085884
000130 d7 15 ca 3c ee 22 ea 3c 6d 2b 2b b9 12 62 64 3c
       0.024668617 0.028581109 -0.00016324008 0.013939397
000140 72 11 1f bd e4 ec cd 3c ee 14 0d 3d 52 09 86 bd
       -0.038834997 0.025137372 0.03444379 -0.065447465
000150 24 aa ad 3c 13 81 86 3c 00 ee 13 bb 30 8a b3 3c
       0.021199293 0.01641897 -0.002257228 0.021916479
000160 7d de 57 bd d8 4e d5 3c 24 d3 c0 3c 27 18 34 bd
       -0.052702416 0.026038572 0.02353818 -0.043968346
000170 92 9b 03 3c 99 6f cc bc 20 d8 c4 3b 2e 55 90 3c
       0.008032696 -0.024955558 0.0060072094 0.017618742
000180 d8 a7 71 3d e4 67 d5 3c 54 27 80 3b 20 17 e1 bb
       0.05899796 0.026050515 0.0039109383 -0.006869212
000190 38 ae 71 bd 40 ff 3c 3b b2 c3 38 3d d0 41 74 3c
       -0.05900404 0.0028838664 0.045108505 0.014908269
0001a0 ab 14 90 bd f2 7e a0 3c 3a ff 18 3b 58 7f f4 3c
       -0.07035192 0.019591782 0.0023345486 0.029845878
0001b0 94 f2 f6 3b 3d 63 ab 3c db cd 6d bd db 27 7d bd
       0.007536242 0.020921344 -0.058057647 -0.061805587
0001c0 11 12 34 3d a2 5e 59 3c 03 80 13 3d d1 0f 1d bc
       0.043962542 0.013267191 0.036010753 -0.00958629
0001d0 c3 1d 54 bd 14 cb 39 bd 4c 81 89 bd 6e 3e 09 bd
       -0.051786195 -0.045359686 -0.067141145 -0.033506803
0001e0 40 ab 59 3b a8 ea 25 3d c7 65 e0 bc 0d 52 1f 3d
       0.0033213645 0.04050699 -0.027392281 0.03889661
0001f0 84 d7 8e 3c 39 07 b8 bd df e8 8d 3c 6b f7 09 bd
       0.01743675 -0.089857526 0.017322956 -0.03368322
000200 24 27 69 3d ee 06 dd bc 0c 0f 86 bc d8 85 c8 bc
       0.056922093 -0.026980843 -0.016364597 -0.024477884
000210 cb d8 70 3d da e0 02 bd e4 53 12 3c bc 2d 34 bd
       0.0588005 -0.031952716 0.008931134 -0.04398893
000220 a0 c9 a5 bb 63 85 6f bd 0a d4 03 3b ac 50 de bc
       -0.005059436 -0.058476817 0.0020115399 -0.027138077
000230 f4 fb f7 3c fa 92 23 bd 65 e2 4a bd 69 ae fe bc
       0.030271508 -0.03993509 -0.049532313 -0.031089025
000240 ee 39 be 3c 64 51 5a bd 66 89 9e bd 6b 3d 6c 3c
       0.023220982 -0.053300276 -0.077410504 0.01441894
000250 52 d6 32 bd 28 c4 0e bd d0 a4 26 bc 07 5c 44 bd
       -0.043661423 -0.034855038 -0.01017113 -0.047939327
000260 83 51 3f 3c 78 0e 13 bc e5 b6 b8 bc 20 35 60 bc
       0.011677149 -0.008975618 -0.022548148 -0.013684541
000270 b2 7e 2e bd 47 70 59 3d 32 92 1d bc 3f a2 ad bd
       -0.042601295 0.05308559 -0.009617375 -0.084782116
000280 f9 f4 7f bc ca df af bc 5a 14 40 bc 2e ea 94 3b
       -0.015622371 -0.021469016 -0.011723602 0.004544518
000290 b0 4c 1c bc f8 62 5a bd 45 12 ed ba 81 19 f1 bc
       -0.009539768 -0.05331704 -0.001808711 -0.029431107
0002a0 81 c9 0d 3c da 8e 69 3d a6 ee 4b bd 05 d2 45 bd
       0.008653999 0.057021 -0.04978814 -0.048295993
0002b0 17 7a 6f bd d4 43 45 3d e1 6b b8 bc 05 14 03 bd
       -0.058466043 0.04816039 -0.022512378 -0.032001514
0002c0 18 6f 04 3d e4 a8 10 3a af 88 2f 3c 3d 65 90 bc
       0.03233251 0.0005518331 0.01071374 -0.0176264
0002d0 c7 ee 88 bb 84 0b db 3c 79 03 df 3c 7e f5 a6 3b
       -0.004178855 0.02673889 0.027223336 0.005095183
0002e0 e5 bb de 3c 10 fc 99 3b da ea 03 bd b1 34 31 bd
       0.027189204 0.0046992376 -0.032206394 -0.04326314
0002f0 e0 62 0c bc 70 e0 88 bd 9e 24 4a 3d ca a6 71 bb
       -0.0085684955 -0.06683433 0.049351327 -0.0036873096
000300 bd 0b bd bc 32 22 2e bd 25 36 40 bd f2 6c f9 bb
       -0.023076886 -0.04251308 -0.046926636 -0.0076118642
000310 c6 37 d5 3c 91 d9 ae 3b 84 32 35 bd 3c 00 3f bd
       0.026027571 0.0053359945 -0.04423763 -0.046631083
000320 f1 77 53 bc 02 85 82 3c ae 78 5a 3d 3d 24 2f 3d
       -0.012907014 0.015932564 0.053337745 0.04275917
000330 d9 eb 99 bc 20 6c 55 3c b0 a3 00 3d 63 07 37 bb
       -0.018789219 0.013026267 0.031406105 -0.0027927987
000340 bf fe 39 3c 1a 86 37 3d ff 49 fd 3c 4c e6 55 bd
       0.01135224 0.044805624 0.030919073 -0.05222158
000350 ef 5f 9c bd d4 ee b8 3c e6 89 8d 3b 70 79 3f 3c
       -0.076354854 0.02257482 0.0043194173 0.011686668
000360 28 7a 16 3a 28 4d 2b bd 05 f7 c5 3c 43 f9 99 bd
       0.00057402486 -0.04182163 0.02416564 -0.07518246
000370 50 e8 6a bd a8 ff 82 bc fb 3f f0 3c cd bb 5c 3c
       -0.057350457 -0.015991047 0.029327383 0.01347251
000380 a6 4c 00 bc 3a cf bb 3c 79 8c 4b 3d 61 e6 8c bd
       -0.007830774 0.022925962 0.049694512 -0.06879879
000390 56 3d f7 bc 73 b3 65 bd 97 a0 ae bd 04 ba 1a bd
       -0.030180614 -0.05607934 -0.08526724 -0.037775055
0003a0 84 4a fc 3c 3a 5d 34 3c 18 e3 ec bc b6 58 54 3d
       0.03079725 0.011008555 -0.02891688 0.051842414
0003b0 76 a3 65 bd d0 be 72 bd e8 96 01 bd f0 d0 d6 3b
       -0.05606409 -0.059264004 -0.031638056 0.006555669
0003c0 af 87 d8 3b e0 50 fd 3c 00 9f 7c b7 3f 0e 3c 3d
       0.0066079716 0.030922353 -1.5057391e-05 0.045912024
0003d0 c6 d3 a4 bc 54 44 9f bc 21 f4 08 bd 22 3d 4c 3d
       -0.020120513 -0.019441761 -0.033435944 0.04986299
0003e0 4a b5 66 bd f0 98 13 bd 92 30 ed bc 49 b5 9c bc
       -0.056325234 -0.036034524 -0.028953824 -0.019129412
0003f0 f6 4c 0e bb 40 ce a3 3c 7a b4 61 3d d4 2b e2 3c
       -0.0021713353 0.019995809 0.055103756 0.02760879

linear2.bias f4 [3]
000000 4e 88 0a 3d 9b 9b fe bc eb 6a d7 bc
       0.033821397 -0.031080058 -0.0262961
