examples/minecraft/model/model.pth (torch, 13632 bytes, 4 tensors)

linear1.weight f4 [128, 17]
000000 ed fd 1e be 13 97 92 3c 37 14 c4 3e e8 2b f9 3d
       -0.15526552 0.017894303 0.38296673 0.121665776
000010 e5 84 e4 3d 39 e6 cc 3d f1 2c 01 3e 3b a6 80 3e
       0.1115816 0.10004849 0.126148 0.25126824
000020 ad eb f3 3e 88 80 83 be 1e 99 84 3e ee 6b f3 bd
       0.47640744 -0.25684 0.2589807 -0.1188582
000030 c1 b8 20 3d b9 0d c4 be 19 10 a0 3e e8 53 6f 3d
       0.039238695 -0.3829172 0.31262282 0.05842963
000040 87 98 8c 3e 80 c7 4b 3c 2c 40 21 3e 98 d8 7e 3e
       0.2746012 0.012437701 0.15747136 0.24887311
000050 00 31 1d bb 98 dd 0b be 13 5f 52 bb 9d f6 cf 3d
       -0.0023985505 -0.1365875 -0.0032100126 0.101544596
000060 9b 82 8a 3d 31 59 cc 3d a7 a1 04 bd 62 dd d6 3e
       0.06763192 0.099779494 -0.032380726 0.41965777
000070 d6 c0 f4 bd 02 d7 2e 3d e2 0f 28 be 1e 03 c8 3e
       -0.11950843 0.042685516 -0.16412309 0.39064878
000080 89 49 60 be 5e e3 c4 3e 50 b8 07 bd a8 32 a8 bd
       -0.21903051 0.38454717 -0.03313476 -0.08212787
000090 a8 53 c6 3d e4 4e ed 3d f0 3f a2 bc 13 c8 10 be
       0.09683925 0.11587313 -0.019805878 -0.14138822
0000a0 78 1b 47 3d 59 e3 73 be 92 e6 b7 3d 80 98 64 3e
       0.04861018 -0.23817195 0.08979525 0.22323799
0000b0 ad 8d 0e be 7b 79 2b 3c 18 9d 2d bd 67 d9 09 3f
       -0.13921233 0.010465975 -0.042386144 0.53847355
0000c0 4d 1b ff bd a0 58 b2 bb 0f 63 0f 3e da fa 2f 3e
       -0.12456379 -0.005442694 0.14002632 0.17185536
0000d0 41 ac 5a bd 6a 4e 3e 3d 8c bf 95 bd f8 8a 49 bd
       -0.05338693 0.0464615 -0.07311925 -0.049204797
0000e0 05 18 42 3d 8d 8e b3 3e d8 27 30 3d cf 91 8a 3e
       0.047386188 0.35069695 0.043006748 0.27064368
0000f0 4e 2d ad bd ca 52 23 3e de 86 5e 3e 09 70 fe 3d
       -0.08455907 0.1594955 0.21731135 0.12423713
000100 63 0a e0 be 01 ff 91 3c 82 64 3d be 50 70 15 3e
       -0.43757924 0.01782179 -0.18495372 0.14593625
000110 80 47 a8 3d 88 57 6b 3e b3 7f ba 3e 32 ba 08 3e
       0.082167625 0.2298261 0.36425552 0.13352278
000120 3e 2a 25 3e 82 9f 3c 3e 2b 1f 77 3e 12 33 4d 3e
       0.16129395 0.18420222 0.24132983 0.20039013
000130 f3 d4 d6 3e b5 25 a9 3d 9d c8 c0 3e d2 0f cb 3e
       0.41959342 0.08259145 0.37653056 0.39660507
000140 ab 5f b5 be f1 2e b6 be 39 b2 18 3e 7a bf 26 be
       -0.3542455 -0.35582688 0.14911737 -0.1628398
000150 da 63 2d 3e a0 04 02 be 96 72 c3 bb b7 b3 b5 3e
       0.16932622 -0.12697077 -0.0059645874 0.35488674
000160 c8 8f 82 bc 40 5f 2f 3e 7e 78 49 3e 7d 25 35 3d
       -0.0159377 0.17126179 0.1967487 0.044225205
000170 36 bf 41 bd 67 45 b3 3e bd 61 34 3e 00 dc 6f 3d
       -0.047301494 0.35013887 0.17615409 0.058559418
000180 7b 95 67 3e 89 7b 06 be fb 58 a0 3d 15 7e 9c 3c
       0.22615616 -0.13133062 0.07829472 0.01910309
000190 8a 05 28 be 32 94 3d 3e 9c 4f 2f 3e 3c ad 7c 3e
       -0.16408363 0.18513563 0.17120212 0.24675459
0001a0 77 95 20 3e 80 5f 96 3d c5 ff d7 bd 23 42 92 3e
       0.15682016 0.07342434 -0.10546831 0.28566083
0001b0 c2 45 3c bd b8 e1 93 be 77 5b 27 be d8 a0 43 3e
       -0.045964964 -0.28883147 -0.16343485 0.19104326
0001c0 3e 72 59 be d0 d1 34 3e 0f 2e 30 bd 7b 0e ff 3e
       -0.21234986 0.17658162 -0.043012675 0.49815735
0001d0 a1 99 28 be ab 37 6b be f9 f6 0a 3d ea e4 23 be
       -0.16464855 -0.22970454 0.033926938 -0.16005293
0001e0 f0 e2 b1 3d 16 8c 2a bc 70 b0 05 bd 10 bc 3d be
       0.08685863 -0.010409376 -0.032638967 -0.18528771
0001f0 8b 58 2a be d0 50 1b be 61 1a 05 be 44 cf 03 be
       -0.16635339 -0.15167546 -0.12998344 -0.12872034
000200 e4 e0 41 3e 3e 79 7b be 64 f3 d8 3d bf e6 4a be
       0.18933445 -0.24557969 0.10593298 -0.19814585
000210 58 c3 c1 3e 16 90 82 be 7a 79 40 3e 7c 28 a4 3e
       0.37844348 -0.25500554 0.1879634 0.32062137
000220 bc ce 0d be 29 50 e6 3d ed 42 bc 3e 4c 07 56 3e
       -0.13848394 0.11245758 0.3676981 0.20901221
000230 10 71 0e be d3 8f 73 3d b0 af 61 3e 13 da b4 3e
       -0.13910317 0.059463333 0.22039676 0.35322627
000240 84 9d 81 bd 42 5a 8f 3d e9 27 81 3e b3 e8 f7 3c
       -0.06328872 0.06999637 0.25225762 0.030262327
000250 fa 73 3f 3e 74 c1 2d be 6e a2 c4 3c 8c 63 0e 3e
       0.18696585 -0.16968328 0.024003234 0.13905162
000260 06 4c 62 3e 9a 79 00 be 04 11 c4 3c cf 3b 60 3d
       0.22099313 -0.12546387 0.023933895 0.054744538
000270 60 ff 33 3d f8 c0 26 be 76 de 9a bd 83 c6 1e 3e
       0.043944716 -0.16284549 -0.07561962 0.15505414
000280 4e 5f 66 be f3 ff 9d 3c f6 b5 45 be ee 7b ea bd
       -0.22497293 0.019287085 -0.19307694 -0.11449419
000290 c5 aa 6a be fb 57 04 be 16 d1 98 bd 70 72 33 bc
       -0.22916706 -0.12924187 -0.07461755 -0.010952577
0002a0 a6 76 a5 bd 0a 04 65 be a4 68 bf bd 13 d0 87 3e
       -0.08079271 -0.22364822 -0.093461305 0.26525936
0002b0 f5 a5 f2 3c 06 54 3f 3e 30 68 dc bd 18 fb bd 39
       0.02962015 0.18684396 -0.1076206 0.0003623597
0002c0 eb bc d2 3b a9 09 f8 3e 10 27 cc 3b 29 58 be bc
       0.006431212 0.4844487 0.0062302426 -0.023235397
0002d0 4a 15 d4 3e 60 fd 2f bb cf fd 30 be 55 13 95 be
       0.41422492 -0.0026853904 -0.1728432 -0.29116312
0002e0 97 f9 75 3e 56 9d 5c be c4 2c 68 3e 0e db 36 3e
       0.24020992 -0.21544394 0.22673327 0.17857
0002f0 b6 f7 24 be 5d 00 b9 3d 38 de 49 bd 4a 69 28 3d
       -0.16110119 0.090332724 -0.04928419 0.041116036
000300 6b a8 1e be 8f 90 cb bd 74 4a c0 3d f6 6b 00 be
       -0.15493934 -0.09939682 0.09389201 -0.12541184
000310 e4 be 04 3e 44 91 be bd df fe 38 3e 45 c9 04 be
       0.12963444 -0.09305051 0.18065976 -0.12967403
000320 5a 80 15 3e 60 6c ce 3b 3c a2 56 3e 08 f3 bb 3d
       0.14599743 0.0062995404 0.20960325 0.09177214
000330 ae 59 10 be 58 44 5f be 94 e3 82 3e 3e 65 63 3e
       -0.1409671 -0.21803415 0.25564253 0.2220659
000340 9c b9 5a be 61 af f3 3c f2 4f 68 3e b4 ce 18 3e
       -0.21359867 0.029746713 0.22686747 0.14922601
000350 5f 8c c2 3e 58 bc 43 3e 76 fe a9 3e 18 7d 34 bd
       0.3799772 0.19114816 0.3320195 -0.04406461
000360 37 55 2e be 89 97 08 be 6d 9c 8f 3e 1c 03 b6 bd
       -0.17024694 -0.13339056 0.2804903 -0.08887312
000370 f0 cd 0e 3e 58 9c 15 be c0 77 87 be bf b3 7d 3e
       0.13945746 -0.14610422 -0.2645855 0.24775599
000380 f0 cd de 3c 02 b0 fb 3d 35 b3 c3 3d b3 d6 1b 3e
       0.027197808 0.1228943 0.095556654 0.1521862
000390 98 35 82 3e f9 8a 30 3e e8 05 8d 3e 73 92 87 3e
       0.25431514 0.17240514 0.2754357 0.2647892
0003a0 24 78 5f 3d cb db 2d bd 53 dc 93 be 41 30 85 3e
       0.054557934 -0.04244594 -0.28879032 0.26013377
0003b0 78 34 41 bd 08 0d e5 3e 08 6b 6f 3e 79 22 8c be
       -0.04716918 0.44736505 0.23380673 -0.2737005
0003c0 4e 0f 5a 3c 6c 5e 30 3e a1 ed c2 3d 22 55 ab bd
       0.013309313 0.17223519 0.0951798 -0.08365847
0003d0 e6 f6 49 be 34 36 90 3e 41 9a 25 3e 67 f6 7a 3e
       -0.1972309 0.28166354 0.16172124 0.24508058
0003e0 eb ee f2 3d b7 07 95 3e 92 44 d8 3d a3 22 8e be
       0.11861976 0.29107448 0.10559954 -0.277608
0003f0 17 7a 51 3e 76 a6 73 3e be 86 01 3f 14 03 be 3d
       0.2045673 0.23793969 0.50596225 0.09277931

linear1.bias f4 [128]
000000 8e 44 86 3e d4 a0 aa 3a 2c 9f 0b 3e 42 b8 94 3e
       0.26224178 0.0013017901 0.13634938 0.29046828
000010 84 de 3d 3e 25 a3 fd 3e 7c 39 6c 3e 28 10 0b 3d
       0.18541914 0.49538532 0.23068804 0.033950955
000020 ea ef 71 3e dd f3 76 3d c9 79 d2 3d e7 2f 74 be
       0.23626676 0.06029116 0.10277135 -0.23846398
000030 82 49 fa 3e 74 30 de 3e 4e b3 0e 3f 69 1d df 3e
       0.48884207 0.43396342 0.5574235 0.43577126
000040 51 c8 36 bd fb 2e c7 3e 03 3e 80 3e 2f 30 fc 3e
       -0.04462463 0.3890303 0.2504731 0.4925551
000050 75 c8 df 3d 22 6a fe bd 1d a6 72 3e fe 87 ff 3e
       0.10926906 -0.12422587 0.2369618 0.4990844
000060 16 dd 3d be 7e b6 16 3f fd d8 74 3e e1 84 f2 3d
       -0.18541369 0.5887221 0.239109 0.11841751
000070 c4 03 03 3f 5a a5 a4 3e d7 15 ac 3e 25 1f 0f bd
       0.5117762 0.32157403 0.33610412 -0.03494181
000080 13 95 da 3e 26 21 8b 3e df 3c d0 bd 74 f5 9d 3e
       0.4269186 0.27173728 -0.1016786 0.30851328
000090 70 92 2f 3e 16 0c 34 3e a1 c5 18 3e ea 22 84 be
       0.17145705 0.17582735 0.1491914 -0.25807887
0000a0 8a 66 de 3d 28 ef 19 be c4 c8 80 3e fd 20 ce 3e
       0.108594015 -0.15032637 0.25153172 0.40259543
0000b0 df 56 cc 3d 5d 78 4a be c8 b3 25 3e e6 7c 09 3f
       0.09977507 -0.19772477 0.16181862 0.53706205
0000c0 c0 40 53 3c 57 0a dc bb 05 1b 48 3e 8a 3d 6b 3d
       0.012893856 -0.0067151 0.19541557 0.057431735
0000d0 3b a4 93 bd 13 48 31 be 87 22 86 3d 5d 32 ed 3d
       -0.07209059 -0.1731265 0.06549554 0.11581872
0000e0 5b 5f 65 3e 88 d7 5c 3e ad ac 65 3e 4a ff b5 3e
       0.22399656 0.21566594 0.22429152 0.35546333
0000f0 1a ed 00 3f b5 fb a3 3e 9f 75 01 3f 45 66 64 bd
       0.5036179 0.32027975 0.505701 -0.055761594
000100 04 ea ad bc 47 fa 63 be 71 da 45 3e 67 bb ac 3d
       -0.021229751 -0.22263442 0.1932161 0.08434182
000110 ef 3b 71 bd 98 e5 fb 3e ed f8 95 3e 50 78 da 3e
       -0.058895048 0.49198604 0.29291478 0.42669916
000120 be 71 fa 3e 34 c4 de 3e 69 64 af 3e b0 36 0e 3f
       0.48914903 0.43509066 0.34256294 0.55552197
000130 d7 6d 67 3d f0 ac 90 3e b1 49 be 3e 24 43 05 3f
       0.056501236 0.2825694 0.37165597 0.52055573
000140 3c 49 d4 bd 64 74 72 be 08 f4 f8 3e af f6 d8 3e
       -0.10365531 -0.23677212 0.4862368 0.42375705
000150 3a bb 3b be f6 f9 81 3e 67 37 05 3f 8a 9b a3 3e
       -0.1833314 0.25386018 0.5203766 0.31954604
000160 a2 7c 83 3d 76 95 f4 3e fc 0b d8 3e 44 63 39 be
       0.06420256 0.4777028 0.42196643 -0.18104273
000170 22 ce 1d be f6 a9 9d 3e 7e 24 a3 3e 31 d8 e7 3e
       -0.15410665 0.30793732 0.3186378 0.45282128
000180 49 fc ca 3e 39 ed c7 3e f8 12 02 3f fc b4 11 3f
       0.39645603 0.39048174 0.50810194 0.56916785
000190 d0 86 cd 3e 67 d9 a5 bd 54 2e e3 3e 42 6e eb 3e
       0.40141916 -0.08098107 0.44371283 0.45982558
0001a0 9d 67 5b be 6c c0 c7 3e 0e 18 ea 3e 24 c4 8e 3e
       -0.21426244 0.39013994 0.45721477 0.27884018
0001b0 b3 e9 b0 3e 76 b3 99 3e c5 e2 d7 3e 19 d8 b6 3e
       0.34553298 0.3001973 0.421652 0.35711744
0001c0 80 f0 dd 3e a4 10 d7 3e 2e 68 07 be 8b 10 a9 3e
       0.4334755 0.42004883 -0.13223335 0.33020434
0001d0 ad 85 bb 3d 4b 30 6d 3e 9b 12 c7 3e 24 08 ef 3e
       0.09156356 0.23162954 0.38881382 0.46685898
0001e0 38 34 b1 3e 79 62 cb 3d b8 67 9e 3e b2 0f f2 3e
       0.34610152 0.099308915 0.30938506 0.472776
0001f0 38 9c 4a 3d 27 37 31 3d a8 55 4b 3e 4c d5 38 be
       0.049465388 0.043265488 0.19856894 -0.18050116

linear2.weight f4 [5, 128]
000000 57 57 5c be ce f7 33 be 93 0e 07 be 35 d6 0f be
       -0.21517693 -0.17574999 -0.13189153 -0.14046557
000010 3b 96 98 be 51 1b 42 be 5d 84 13 be b9 dd b1 bb
       -0.29802117 -0.18955733 -0.14405961 -0.0054280427
000020 f6 a3 92 be b7 c3 0f 3d 7a fb 2c be aa ce 8d bc
       -0.28640717 0.035098758 -0.16892806 -0.01731046
000030 83 85 86 be c7 fd 83 be c6 13 6d be ef 89 3d be
       -0.26273736 -0.25779554 -0.23152074 -0.18509649
000040 f1 c9 a4 3c 62 0c 23 be d1 a6 45 be 46 9a 66 be
       0.020115824 -0.15922692 -0.19301917 -0.22519788
000050 28 31 89 be bb fe b1 3c 0b 67 9e be d1 04 13 be
       -0.26795316 0.02172791 -0.3093799 -0.14357306
000060 0c 03 b2 3c 76 49 86 be d5 98 aa be 2f 21 9d be
       0.021729968 -0.2622792 -0.33319727 -0.3068938
000070 d3 5a 54 be ff 74 8c be 7b d9 7a be c0 93 90 bd
       -0.20737772 -0.2743301 -0.24497025 -0.07059431
000080 8d 37 4f be b4 a1 20 be cc 5c 81 3c f6 f4 06 be
       -0.20236035 -0.15686685 0.01579132 -0.13179383
000090 28 bd 39 bd df e8 fc bd ca 3b 66 39 21 38 86 3d
       -0.04534641 -0.12349104 0.00021956782 0.065536745
0000a0 2c cb d5 bd 0c d4 a2 bc 82 72 89 be df ee 3c be
       -0.104391426 -0.019876502 -0.26845175 -0.18450497
0000b0 ac 33 69 bd 9a 8e 3f bc 23 12 90 be 30 20 82 be
       -0.056934044 -0.011691714 -0.28138837 -0.25415182
0000c0 91 86 30 3a 54 e5 64 3d 43 d0 62 be 79 cc 10 bd
       0.0006733919 0.055882767 -0.22149758 -0.03535125
0000d0 c8 62 45 be 91 67 a2 bd 1c 77 ea bd e4 b2 66 be
       -0.19275963 -0.0792991 -0.114484996 -0.22529179
0000e0 88 50 7d be 84 a2 86 be 3b 60 8d be 3e cd 84 be
       -0.24737751 -0.26295865 -0.2761248 -0.25937837
0000f0 ba d6 17 be ba 08 8b be 97 fa 6b be 2b b0 2b bd
       -0.14828005 -0.27155095 -0.23044811 -0.041916054
000100 8d 95 5d be 98 33 8a bd 13 98 ec bd 7a b0 c2 bc
       -0.2163908 -0.06748122 -0.11552443 -0.023765791
000110 53 9f 32 bd 65 8e 4a be 89 8d 9c be 2d c6 0b be
       -0.043608975 -0.19780882 -0.30576733 -0.13649817
000120 86 d3 2d be 1d f1 46 be da e7 0e be 86 fb 7a be
       -0.16975221 -0.19427915 -0.13955632 -0.24510011
000130 a1 fe 0b be 00 06 9b be 48 97 87 be b2 17 37 be
       -0.13671352 -0.30278015 -0.26482606 -0.17880133
000140 ec bf 3e bd 56 d8 0c 3d 97 94 4b be a2 d1 27 be
       -0.04656975 0.034386 -0.19880901 -0.16388562
000150 3d 84 e6 bc 74 6e b2 be 2e 04 8d be 08 13 0b be
       -0.028139228 -0.34849894 -0.2754225 -0.13581479
000160 c3 e8 a7 3a 46 05 56 be 44 dc e5 bd 50 07 35 3d
       0.0012810457 -0.20900449 -0.11223653 0.044196427
000170 8a a8 63 3d e4 a6 60 be 3d 40 8e be d7 6d 87 be
       0.055580653 -0.21938664 -0.27783385 -0.2645099
000180 c3 74 0b be 09 f5 3e be 5a 52 51 be 97 e9 59 be
       -0.1361876 -0.18648161 -0.20441571 -0.21280514
000190 9a 6b 85 be 10 3a ef 3c 71 64 82 be 71 8d 50 be
       -0.26058656 0.029202491 -0.25467256 -0.20366456
0001a0 30 b6 4e 3d e5 e4 9b be 51 02 85 be 50 fc 9c bd
       0.050466716 -0.3044807 -0.2597833 -0.07665312
0001b0 c8 ca 23 be 13 29 50 be d5 bc 9b be 97 b0 45 be
       -0.15995324 -0.20328169 -0.30417505 -0.19305645
0001c0 d0 92 15 be 5d 12 36 be 9c 32 c3 3c e3 c2 34 be
       -0.14606786 -0.17780443 0.023827843 -0.17652468
0001d0 d0 7b f1 bd 11 54 42 be 82 05 7a be 9a 47 32 be
       -0.117911935 -0.18977381 -0.24416164 -0.17410126
0001e0 18 78 54 be 11 6a 9f bd 50 59 4b be 52 79 9c be
       -0.20748937 -0.077839024 -0.19858289 -0.3056131
0001f0 1a 6b 5d be c1 3b 59 be 6c 45 06 be 5b da 4b 3d
       -0.21622887 -0.212142 -0.1311242 0.049768787
000200 5d c6 6f be fa 25 6b be 80 dc 84 bd 72 f3 1d be
       -0.23415513 -0.22963706 -0.064873695 -0.15424898
000210 26 52 82 be 07 e8 75 be f9 b7 47 bd 51 38 e8 bc
       -0.254533 -0.24014293 -0.048759434 -0.028347166
000220 d6 ac 4d be d3 a4 96 bd 93 2c 1a be 79 59 8c bc
       -0.20085463 -0.073556565 -0.15056066 -0.017132508
000230 93 bc 63 be 46 76 50 be d5 b1 68 be ac a7 2c be
       -0.22239904 -0.20357618 -0.22724088 -0.16860837
000240 9c 6b af bc 04 39 1b be b0 43 07 be 95 fc ef bd
       -0.021413617 -0.15158468 -0.13209414 -0.11718098
000250 ca b6 09 be d6 0c b8 bd ce ec 81 be b6 35 31 be
       -0.13448635 -0.08986823 -0.2537598 -0.17305645
000260 5d da 4e bd 35 7a 44 be 2d 11 a1 be 7f 12 75 be
       -0.050501216 -0.19187243 -0.31458417 -0.23932837
000270 5e 88 08 be c4 f1 32 be f1 59 1f be 77 e6 5c bc
       -0.1333327 -0.17475039 -0.15561654 -0.0134826815
000280 da 35 53 be 3b b0 8d be cd ea 5e bd 05 b6 18 be
       -0.20626011 -0.27673516 -0.054423142 -0.14913185
000290 f4 55 04 be 5f 5d b7 bd f8 c5 3a be f2 52 8d bc
       -0.12923414 -0.08953356 -0.18239582 -0.017251465
0002a0 6d ce 21 be 95 2f 45 3d 66 54 8e be a4 88 82 be
       -0.15801401 0.04814108 -0.27798766 -0.25494874
0002b0 d9 b8 58 3d b4 83 66 bd d4 f1 45 be 65 5b 49 be
       0.05291066 -0.056277946 -0.19330531 -0.1966377
0002c0 ed 89 d8 bd 25 f2 b0 3c 14 65 6a be b8 23 15 bd
       -0.10573182 0.021599839 -0.2289012 -0.036411017
0002d0 76 45 4d be 7a 69 83 3c 8f ca 83 be 92 c4 3b be
       -0.20046028 0.016041506 -0.25740477 -0.18336704
0002e0 56 83 8f be ee 40 28 be dd a5 98 be 3b 69 94 be
       -0.2802989 -0.16431019 -0.29814044 -0.28986534
0002f0 49 e2 ef bd b2 d7 89 be 42 00 9c be 1e 72 a3 bc
       -0.11713082 -0.26922375 -0.30468947 -0.019951876
000300 78 16 1f be a0 c7 ce bc 4e 9a 53 be 50 2e 0c bd
       -0.15535915 -0.025241673 -0.20664331 -0.034223855
000310 29 44 6d 3d 08 19 38 be a2 01 3b be 06 22 90 be
       0.05792633 -0.17978299 -0.18262342 -0.28150958
000320 c9 93 82 be 22 75 67 be ef 85 2e be c4 0f 38 be
       -0.25503376 -0.22603276 -0.17043279 -0.17974764
000330 49 82 13 be 0c c6 f6 bd 9c 55 4a be 66 66 92 be
       -0.14405169 -0.12049493 -0.1975922 -0.2859375
000340 7e fb 89 bc 22 90 59 3d ba 56 74 be 08 74 93 be
       -0.016843554 0.05311597 -0.23861209 -0.28799462
000350 e2 14 e0 bb ec d5 ac be c1 f0 5b be ea be 48 be
       -0.006838427 -0.3375696 -0.21478559 -0.19604078
000360 74 20 49 bd 2e 57 3e be 7c 82 77 be 99 18 13 be
       -0.049103215 -0.18587944 -0.2417087 -0.14364852
000370 b8 82 f0 bc be cb 43 be 91 ef 22 be 83 29 8c be
       -0.029359207 -0.1912069 -0.159117 -0.2737542
000380 1b 1c 5c be 1d fc 78 be de a2 31 be c6 83 51 be
       -0.21495096 -0.24314924 -0.17347285 -0.20460424
000390 4a 74 a9 be 35 b8 1f 3c 79 e7 7d be f6 31 82 be
       -0.33096534 0.009748508 -0.24795331 -0.25428742
0003a0 d7 15 8b 3d 57 67 6e be f2 ff 0e be 94 27 3e be
       0.06791275 -0.23281609 -0.13964823 -0.18569785
0003b0 42 d4 93 be bb 0e 42 be 6d 42 2d be 1c 76 8b be
       -0.28872877 -0.18950932 -0.1691987 -0.27238548
0003c0 0b e9 3f be d2 3a 3b be ff e3 ea 3c 78 8d 76 be
       -0.18741243 -0.18284157 0.02867317 -0.24077404
0003d0 27 76 10 be df 75 a0 be 91 08 87 be 99 44 a0 be
       -0.14107572 -0.31339929 -0.26373723 -0.31302336
0003e0 25 e7 07 be 30 d9 5e be 7d d1 49 be 2c 94 9a be
       -0.13271768 -0.21762538 -0.1970882 -0.3019117
0003f0 56 a0 82 bd 22 87 24 be 24 bd 22 be b7 12 20 3d
       -0.06378238 -0.16067174 -0.15892464 0.039080348

linear2.bias f4 [5]
000000 83 86 de bd d9 fa 29 be 1b 2b e3 bd 45 c8 0e be
       -0.108655 -0.16599597 -0.11092206 -0.13943584
000010 08 55 86 be
       -0.2623675
