examples/minecraft/model/model.pth (torch, 17216 bytes, 4 tensors)

linear1.weight f4 [256, 11]
0.42070687 0.56629425 -0.48970872 0.29959577 0.29970813 5.730665e-05 0.2875512 -0.082143255
0.44355837 0.11307061 0.7752742 0.20135368 0.7185309 -0.061027143 0.16894144 0.24968463
0.15494925 0.017865906 -0.09970418 -0.026223991 -0.08927943 0.3915385 -0.068253696 -0.29795766
-0.27540544 -0.23900609 0.06405231 0.072481096 -0.23218709 0.01956442 -0.29523724 0.027094126
-0.13919778 0.13187759 0.620861 -0.4673272 0.00889094 0.3630785 0.38502017 -0.11392061
0.339634 -0.044186026 -0.24666287 0.7308283 0.17620261 0.5246017 -0.17552547 0.36950573
0.31206885 0.38771266 0.22336036 0.14141 0.088025235 -0.09191422 0.4152746 0.10959941
0.47262654 -0.08698792 0.36900622 0.35724524 -0.034687128 0.20861892 0.23897843 0.11799043
-0.24416953 0.71208626 0.44093072 0.372509 -0.7435893 -0.14977558 -0.05872882 -0.2793072
-0.2556447 -0.012702622 0.20143773 0.24181193 0.90695655 0.12895033 0.20683287 -0.8670095
0.26907766 -0.2068141 -0.18566556 -0.13351639 -0.124999456 0.2909102 0.046233386 0.7266768
0.48838678 0.30414447 -0.32425216 0.2629948 0.22843307 -0.086527124 0.26580372 0.44319725
0.2060533 0.08963364 0.46196467 0.16710764 0.0024186373 0.06423339 -0.054318324 0.013223261
-0.09770316 -0.12998132 -0.1918991 -0.2653007 -0.11926605 -0.08643417 0.20130162 0.6028891
-0.38805693 0.2724995 -0.07270881 0.37401167 0.2386596 -0.01590226 0.43193334 -0.22101882
0.2605328 -0.056544706 -0.2198284 -0.021057457 -0.19330254 -0.20473877 -0.118364275 -0.18179572
0.079799 0.2272982 0.26546288 -0.14184214 -0.16744816 0.10449675 -0.11592695 -0.17446828
0.03683117 -0.30051157 -0.2218064 -0.062215343 0.04906094 0.25363094 -0.0868514 0.06509597
0.14217882 -0.16638543 -0.15281247 -0.014031291 -0.21322808 -0.26994893 -0.19555296 -0.2694118
-0.18837473 -0.11136665 -0.11984962 -0.049819473 0.05564718 -0.21554011 0.021929985 0.11829889
0.07992008 -0.07281809 -0.201757 0.025147349 -0.17471617 -0.24504186 0.32862735 0.32270873
-0.43651888 0.25161952 -0.2574688 -0.22460626 -0.18568806 0.2786675 -0.06098208 0.27784994
0.11024974 0.4343162 -0.2013161 -0.046411593 0.44230038 0.30828416 0.22003877 0.04345699
0.33633903 -0.02318868 0.4118292 0.52581805 0.16551499 -0.10378693 0.38113457 0.3035018
-0.22394964 0.00324755 -0.107107654 -0.052260734 0.025277615 0.59434724 0.6000964 0.30476105
-0.26186037 0.3775226 -0.07835557 0.2877967 0.37971982 0.025053503 0.46301618 -0.08362283
0.83306897 -0.0015891457 0.07621296 0.018599184 -0.12354076 0.055819016 -0.1655293 -0.32191768
-0.035146542 0.19317774 0.10817626 0.41727495 0.24027622 -0.0914024 0.05205846 -0.25746214
-0.14857928 -0.08173475 -0.060342863 -0.29646298 0.20757937 0.22675622 -0.12394413 0.17148986
0.4748115 -0.12548074 0.12931208 0.1494984 0.42886397 0.12398085 0.13207391 0.43141443
-0.17842895 0.689857 0.41215605 0.63240516 -0.30512586 0.041122906 -0.12690811 -0.100410365
-0.12867713 -0.2266315 -0.062389936 0.2585774 0.8775629 0.3373575 0.64177847 -0.17370951
00000000: e466 d73e a9f8 103f 1abb fabe 9e64 993e
00000010: 5873 993e 8c5c 7038 e939 933e b93a a8bd
00000020: 151a e33e 9091 e73d 5f78 463f a92f 4e3e
00000030: a4f1 373f 99f7 79bd fcfe 2c3e 54ad 7f3e
00000040: 04ab 1e3e 855b 923c b531 ccbd b2d3 d6bc
00000050: 22d8 b6bd bc77 c83e 98c8 8bbd e88d 98be
00000060: f101 8dbe 03be 74be dc2d 833d f870 943d
00000070: 74c2 6dbe 9045 a03c 5629 97be 80f4 dd3c
00000080: dd89 0ebe eb0a 073e bff0 1e3f 8345 efbe
00000090: 4eab 113c 6de5 b93e 5d21 c53e 354f e9bd
000000a0: 82e4 ad3e 68fc 34bd 3195 7cbe 9017 3b3f
000000b0: 756e 343e 4c4c 063f f3bc 33be db2f bd3e
000000c0: 7dc7 9f3e 4682 c63e 94b8 643e c8cd 103e
000000d0: 9346 b43d 863d bcbd df9e d43e a875 e03d
000000e0: 1bfc f13e b926 b2bd 62ee bc3e d9e8 b63e
000000f0: 1714 0ebd 33a0 553e c3b6 743e f7a4 f13d
00000100: 9407 7abe 494b 363f acc1 e13e 80b9 be3e
00000110: de5b 3ebf c55e 19be a28d 70bd 5a01 8fbe
00000120: dde3 82be a91e 50bc b145 4e3e 8c9d 773e
00000130: 4e2e 683f 8e0b 043e ffcb 533e 56f4 5dbf
00000140: 8cc4 893e 13c7 53be 1d1f 3ebe 85b8 08be
00000150: b7ff ffbd 2ff2 943e 385f 3d3d 7e07 3a3f
00000160: d50d fa3e d3b8 9b3e 6104 a6be 41a7 863e
00000170: 5cea 693e 2235 b1bd 6d17 883e c0ea e23e
00000180: a3ff 523e d891 b73d a286 ec3e 441e 2b3e
00000190: 0082 1e3b cc8c 833d e47c 5ebd 60a6 583c
000001a0: 9818 c8bd d319 05be 3381 44be 7ed5 87be
000001b0: c241 f4bd 6604 b1bd 0322 4e3e f156 1a3f
000001c0: 66af c6be 0e85 8b3e 5be8 94bd 757e bf3e
000001d0: 2f63 743e 7545 82bc 5e26 dd3e c252 62be
000001e0: 8e64 853e 6c9b 67bd b21a 61be b080 acbc
000001f0: 1af1 45be 0aa7 51be f868 f2bd a828 3abe
00000200: a86d a33d dcc0 683e c0ea 873e 113f 11be
00000210: 8877 2bbe 6402 d63d 1c6b edbd d0a7 32be
00000220: 48dc 163d a7dc 99be 3821 63be 84d5 7ebd
00000230: 20f4 483d eadb 813e 26df b1bd 0951 853d
00000240: 5397 113e f160 2abe df7a 1cbe 80e3 65bc
00000250: 7658 5abe bf36 8abe 093f 48be 58f0 89be
00000260: 4ee5 40be 3314 e4bd b873 f5bd 810f 4cbd
00000270: 4cee 633d 8cb6 5cbe 83a6 b33c b046 f23d
00000280: 24ad a33d a721 95bd 6399 4ebe d001 ce3c
00000290: cce8 32be 41ec 7abe d841 a83e 143a a53e
000002a0: 677f dfbe 46d4 803e f3d2 83be 2fff 65be
000002b0: 0325 3ebe 82ad 8e3e 58c8 79bd 5942 8e3e
000002c0: 9eca e13d b15e de3e cf25 4ebe 151a 3ebd
000002d0: 3275 e23e 6cd7 9d3e d851 613e f5ff 313d
000002e0: a134 ac3e 30f6 bdbc 47db d23e 039c 063f
000002f0: c37c 293e 3e8e d4bd 1224 c33e 9764 9b3e
00000300: 0e53 65be d9d4 543b 425b dbbd 5a0f 56bd
00000310: 0013 cf3c 2427 183f eb9f 193f a409 9c3e
00000320: 9012 86be a44a c13e e378 a0bd 175a 933e
00000330: a36a c23e 013d cd3c 7510 ed3e 7242 abbd
00000340: 0244 553f e24a d0ba 8a15 9c3d 515d 983c
00000350: f002 fdbd 7ba2 643d 8380 29be 65d2 a4be
00000360: d2f5 0fbd 63d0 453e 848b dd3d 10a5 d53e
00000370: f80a 763e 2e31 bbbd 403b 553d 14d2 83be
00000380: 2b25 18be 8c64 a7bd 142a 77bd ffc9 97be
00000390: b08f 543e c832 683e 6cd6 fdbd 0a9b 2f3e
000003a0: 7e1a f33e 067e 00be 636a 043e 1c16 193e
000003b0: 0f94 db3e ace9 fd3d 623e 073e 5ae2 dc3e
000003c0: 14b6 36be 789a 303f 1e06 d33e 4ee5 213f
000003d0: 7539 9cbe 7e70 283d 33f4 01be f3a3 cdbd
000003e0: f0c3 03be 1712 68be 978c 7fbd 4264 843e
000003f0: f6a7 603f 1fba ac3e 984b 243f e8e0 31be

linear1.bias f4 [256]
0.575762 0.4550683 -0.27577507 0.319486 0.699003 0.70820165 0.4408726 0.5169125
0.7297095 -0.21189341 0.50458044 -0.091790184 -0.21363632 -0.10040865 0.03965731 -0.06755112
0.36581966 0.20176077 0.7091101 0.088821955 -0.11217454 0.5574464 0.09706059 0.27685702
0.45943797 0.546895 0.36080733 0.54811 0.72736377 0.04681949 0.41444865 0.58368295
0.63951766 0.6532364 0.39878708 0.48202977 0.17372167 0.11443781 -0.27779385 0.28021336
0.14770178 0.5495544 0.46656075 -0.19230917 -0.2007708 0.71306646 0.70467806 0.6927741
0.6687425 0.060811196 0.70930135 0.58479077 -0.2892208 0.48666775 0.16246395 0.73479146
0.41543236 0.5488133 0.2099542 0.16719635 0.50683206 0.319564 -0.22359067 0.63999087
0.16060461 0.46053982 -0.035403635 0.16428858 0.29789904 0.34403685 0.52118707 0.720894
0.64176255 0.5242123 0.42024878 0.09791017 -0.074332386 0.57508355 0.4918636 0.38139483
-0.23999962 0.019523056 0.4115676 0.58874166 0.30677688 0.3761202 -0.1439364 0.67332745
0.5859853 0.54719937 -0.07103597 0.27278963 0.30826727 0.05042942 0.62629455 0.27190694
-0.022117695 -0.31830534 0.5932033 0.32405645 0.05167842 0.69768345 -0.06307109 -0.1404387
0.64124316 0.5941782 -0.19117376 0.4367611 0.35561392 0.6305152 0.12552132 0.43139383
0.046646625 0.37653154 -0.21729231 0.032036446 0.5702543 0.4789108 0.4192241 0.14619948
0.35333806 0.21470496 0.6540359 0.61932504 0.58761555 0.3752952 0.3800921 0.56794435
0.20022143 0.6039307 -0.10712139 0.2964445 0.44088703 -0.21361673 0.49953684 0.6067902
-0.21915573 0.17331253 0.5196804 0.5320314 -0.17988212 0.29570594 0.6897887 0.2362596
0.3476787 0.4467771 0.685796 0.5706398 0.58635956 0.21596044 -0.014241815 0.23792592
0.71747005 0.684066 0.61816764 0.6777183 0.18849954 -0.16178216 0.014662639 0.3232345
-0.21493049 0.5159938 0.18080285 0.4577732 0.19405726 -0.059838265 0.46331444 0.65753376
0.44997358 0.07646804 0.39175874 0.53168374 0.35575098 0.14049062 0.21946867 0.7052697
0.5508969 0.5704599 0.19804722 0.52760625 -0.10959147 0.6296089 -0.19245751 0.34657636
0.6872383 0.36959794 0.6982794 0.683133 0.6311793 0.7166335 0.19809021 0.13287862
0.3998111 0.71476936 -0.076509945 0.47862217 0.33725518 0.3892885 0.30997017 0.65501064
-0.24304253 -0.24948396 -0.10765174 -0.10830714 0.6146129 0.53419423 0.3556051 0.34351954
0.33457583 0.3066221 -0.2758416 0.31619796 0.43430674 0.62958604 0.46696296 0.43429285
0.5488997 0.44443828 -0.04284511 0.5138152 -0.1571499 0.558557 0.4856897 0.5725458
0.6812587 0.29453242 0.5951576 0.5875172 0.66400546 0.4358411 0.435754 0.34271803
-0.09828179 0.07349467 0.16171558 0.55775905 0.49547568 0.022891104 0.28710446 0.24141556
-0.10401536 0.31409112 -0.10617724 0.31010124 0.113527276 -0.2683501 0.6486295 0.1590223
0.10996419 0.46495596 0.17857885 0.44899434 0.54680353 0.18431763 0.1449351 0.29034224
00000000: 2365 133f b6fe e83e 6432 8dbe ab93 a33e
00000010: dcf1 323f b44c 353f 0eba e13e 6154 043f
00000020: 3ece 3a3f 96fa 58be 2f2c 013f 7efc bbbd
00000030: 7bc3 5abe 0da3 cdbd b46f 223d 3e58 8abd
00000040: b74c bb3e 609a 4e3e 3d88 353f 49e8 b53d
00000050: c4bb e5bd cfb4 0e3f b4c7 c63d 34c0 8d3e
00000060: 743b eb3e 5001 0c3f bdbb b83e f050 0c3f
00000070: 8334 3a3f cbc5 3f3d 9d32 d43e 3f6c 153f
00000080: 6eb7 233f 803a 273f d22d cc3e 9bcc f63e
00000090: 18e4 313e 5f5e ea3d ff3a 8ebe 2078 8f3e
000000a0: 233f 173e 99af 0c3f 0de1 ee3e b2ec 44be
000000b0: dc96 4dbe 868b 363f c865 343f a559 313f
000000c0: b532 2b3f 2915 793d c694 353f d9b4 153f
000000d0: c014 94be 842c f93e f35c 263e 4b1b 3c3f
000000e0: 8db3 d43e 077f 0c3f 3cfe 563e 8535 2b3e
000000f0: bfbf 013f e59d a33e f4f4 64be 71d6 233f
00000100: 8975 243e e0cb eb3e 6703 11bd 443b 283e
00000110: 3986 983e 9925 b03e 846c 053f 828c 383f
00000120: 8d4a 243f c732 063f d92a d73e 2185 c83d
00000130: 943b 98bd ad38 133f 8cd5 fb3e 2f46 c33e
00000140: 76c2 75be d1ee 9f3c fdb8 d23e c6b7 163f
00000150: dc11 9d3e d492 c03e 1064 13be 305f 2c3f
00000160: 2203 163f 4215 0c3f 4e7b 91bd 15ab 8b3e
00000170: 35d5 9d3e 148f 4e3d d754 203f 6337 8b3e
00000180: 2b30 b5bc ebf8 a2be 2cdc 173f baea a53e
00000190: c0ac 533d 629b 323f 6a2b 81bd 2acf 0fbe
000001a0: 8328 243f 101c 183f 0ec3 43be 279f df3e
000001b0: 0713 b63e 7269 213f a988 003e a7df dc3e
000001c0: 8810 3f3d bec8 c03e e081 5ebe a638 033d
000001d0: 30fc 113f cc33 f53e 8ba4 d63e 51b5 153e
000001e0: bae8 b43e 9edb 5b3e e66e 273f 168c 1e3f
000001f0: f96d 163f b126 c03e 6f9b c23e cd64 113f
00000200: d906 4d3e 349b 1a3f 7662 dbbd 93c7 973e
00000210: f2bb e13e 58be 5abe 4bc3 ff3e 9a56 1b3f
00000220: 5c6a 60be d778 313e c609 053f 3633 083f
00000230: 0533 38be c566 973e fe95 303f 09ee 713e
00000240: f102 b23e f8bf e43e 5490 2f3f 7315 123f
00000250: a91b 163f bc24 5d3e 8056 69bc daa2 733e
00000260: 1eac 373f f31e 2f3f 3c40 1e3f f27e 2d3f
00000270: 0606 413e 39aa 25be 913b 703c fe7e a53e
00000280: bd16 5cbe 2b18 043f 6224 393e 4061 ea3e
00000290: f2b6 463e f818 75bd 8d37 ed3e 2254 283f
000002a0: f062 e63e 479b 9c3d 9a94 c83e 6d1c 083f
000002b0: fe24 b63e c6dc 0f3e 65bc 603e 8e8c 343f
000002c0: 9407 0d3f a909 123f e4cc 4a3e 3411 073f
000002d0: 7e71 e0bd 0d2e 213f 9513 45be 7572 b13e
000002e0: d9ee 2f3f f13b bd3e 70c2 323f cee1 2e3f
000002f0: f794 213f 4b75 373f 29d8 4a3e 5511 083e
00000300: 0ab4 cc3e 20fb 363f 3fb1 9cbd f70d f53e
00000310: b6ac ac3e d350 c73e 69b4 9e3e c7ae 273f
00000320: 24e0 78be b978 7fbe 8478 dcbd 22d0 ddbd
00000330: 4557 1d3f f4c0 083f df11 b63e cbe1 af3e
00000340: 864d ab3e 92fd 9c3e 1c3b 8dbe b3e4 a13e
00000350: 745d de3e 8d2c 213f c515 ef3e a25b de3e
00000360: b184 0c3f 6a8d e33e 5b7e 2fbd 6589 033f
00000370: e7eb 20be 97fd 0e3f 52ac f83e 5d92 123f
00000380: f866 2e3f f4cc 963e 405c 183f 8767 163f
00000390: 43fc 293f 9126 df3e 261b df3e bd78 af3e
000003a0: f747 c9bd 6084 963d c598 253e 4cc9 0e3f
000003b0: fdae fd3e 2086 bb3c 5bff 923e a435 773e
000003c0: 0106 d5bd 8dd0 a03e 7473 d9bd 97c5 9e3e
000003d0: fd80 e83d 2f65 89be 950c 263f bed6 223e
000003e0: e834 e13d b50e ee3e 60dd 363e 96e2 e53e
000003f0: 51fb 0b3f c3bd 3c3e de69 143e bda7 943e

linear2.weight f4 [3, 256]
-0.39501375 -0.37266126 0.050047174 -0.4341522 -0.29964602 -0.3271881 -0.5859261 -0.5572325
-0.3806561 -0.024758339 -0.3148242 -0.05238849 0.047162995 -0.011714059 0.015253904 -0.25045726
-0.3499884 -0.232958 -0.3175002 -0.1449779 -0.011574976 -0.351521 -0.3877577 -0.37006775
-0.46228412 -0.37976065 -0.49671462 -0.35693607 -0.37499022 -0.38462606 -0.6072165 -0.31837705
-0.37368438 -0.5046688 -0.3112643 -0.35444057 -0.30725044 -0.07971641 -0.03360401 -0.42592385
-0.5228777 -0.42510962 -0.30628556 0.048407137 0.056203894 -0.40078852 -0.3527188 -0.2756662
-0.3434242 0.0058788923 -0.37751588 -0.34109333 -0.0029486269 -0.36665922 -0.26787755 -0.40416545
-0.3846914 -0.43931872 -0.42683953 -0.48583117 -0.3074678 -0.43646687 -0.007908556 -0.36717683
0.08771365 -0.35023206 0.011675107 -0.3355888 -0.4003745 -0.40629363 -0.43314314 -0.3127276
-0.43082336 -0.28553867 -0.50918686 -0.24800044 -0.008656822 -0.23019956 -0.49358183 -0.43590406
-0.06848379 0.0022579962 -0.3325106 -0.29976234 -0.30337626 -0.5934807 -0.001902014 -0.35441908
-0.33173215 -0.61357224 0.019770361 0.036324713 -0.3631878 0.043780543 -0.32881087 -0.22486582
-0.15298712 -0.0080445735 -0.3080106 -0.3418322 -0.052194268 -0.4841335 0.044721976 -0.056135993
-0.43108398 -0.27472 0.01681998 -0.35388517 -0.35597986 -0.38752398 -0.0786622 -0.26730478
-0.047179133 -0.4156697 -0.04085093 -0.24732782 -0.35386795 -0.41701573 -0.25309688 -0.1613682
-0.57187855 -0.46805513 -0.27717802 -0.39102098 -0.41978112 -0.35349157 -0.23858124 -0.35209593
-0.32267278 -0.34828958 0.022170827 -0.24163677 -0.32148412 -0.23188788 -0.32811347 -0.31039095
-0.044043846 -0.25496873 -0.28090706 -0.3743304 -0.011727291 -0.35345298 -0.35601565 -0.61856776
-0.3374909 -0.3355886 -0.29618645 -0.3223302 -0.31983924 -0.27294838 -0.047436 -0.18661162
-0.31185034 -0.30333734 -0.40241385 -0.39394867 -0.035292048 -0.0635002 0.015041351 -0.34934947
-0.018509679 -0.40756023 -0.5152262 -0.36140767 -0.45314193 0.056649953 -0.4534792 -0.28714877
-0.32910684 -0.20700102 -0.2705948 -0.39916626 -0.33744377 0.03020247 -0.44403926 -0.35809496
-0.34971994 -0.42540687 -0.3583375 -0.48760375 0.06228686 -0.39546087 0.018255651 -0.4983049
-0.2993154 -0.4227336 -0.3405759 -0.424317 -0.34675342 -0.3091097 -0.20625459 -0.31117827
-0.3972535 -0.34889498 -0.25738856 -0.47440952 -0.33929288 -0.40230373 -0.25560194 -0.32262927
0.018634694 -0.011087865 -0.09976542 0.075161114 -0.5014231 -0.3343538 -0.31378615 -0.27579033
-0.4159643 -0.23708989 0.03721018 -0.26604542 -0.5980409 -0.28183275 -0.41193038 -0.46197644
-0.30277437 -0.47498238 -0.015012975 -0.48281023 -0.030513987 -0.3316749 -0.44532427 -0.34830165
-0.29978022 -0.2803351 -0.34761912 -0.44645312 -0.4126435 -0.3288532 -0.31761795 -0.23750745
-0.043066062 0.023557663 -0.31159157 -0.3394722 -0.4195745 -0.021794066 -0.2933296 -0.3224391
0.061496034 -0.39856803 0.0321062 -0.41573125 -0.0773732 -0.057719283 -0.31572258 -0.22026424
-0.011186644 -0.2931356 -0.46384463 -0.32933536 -0.54126865 -0.29553783 -0.31994176 -0.3720077
00000000: 3e3f cabe 75cd bebe 44fe 4c3d 3249 debe
00000010: 346b 99be 3385 a7be 41ff 15bf caa6 0ebf
00000020: 5be5 c2be 00d2 cabc a330 a1be 5095 56bd
00000030: fc2d 413d 53ec 3fbc 83eb 793c ef3b 80be
00000040: ae31 b3be 8b8c 6ebe 638f a2be 1675 14be
00000050: f8a4 3dbc 8ffa b3be 2d88 c6be 8579 bdbe
00000060: 81b0 ecbe fd6f c2be 6151 febe 53c0 b6be
00000070: b8fe bfbe b5ed c4be 8a72 1bbf 5102 a3be
00000080: 8f53 bfbe f931 01bf 095e 9fbe 3c79 b5be
00000090: ee4f 9dbe 5b42 a3bd 5ca4 09bd b112 dabe
000000a0: 50db 05bf f8a7 d9be 76d1 9cbe 9046 463d
000000b0: 0e36 663d 2734 cdbe 8f97 b4be 1f24 8dbe
000000c0: 4cd5 afbe b9a3 c03b c349 c1be c9a3 aebe
000000d0: c03d 41bb c2ba bbbe 3f27 89be c6ee cebe
000000e0: 45f6 c4be 62ee e0be b68a dabe ddbe f8be
000000f0: 6b6c 9dbe 9678 dfbe e392 01bc 9afe bbbe
00000100: 37a3 b33d 9e51 b3be f348 3f3c 4cd2 abbe
00000110: e3fd ccbe b805 d0be f0c4 ddbe d51d a0be
00000120: e194 dcbe 2032 92be 125a 02bf d4f3 7dbe
00000130: 58d5 0dbc 6fb9 6bbe c2b6 fcbe d12e dfbe
00000140: 3b41 8cbd e4fa 133b d43e aabe 737a 99be
00000150: 2254 9bbe 5aee 17bf 004d f9ba 6b76 b5be
00000160: ccd8 a9be 1213 1dbf 74f5 a13c 39c9 143d
00000170: c0f3 b9be 3a53 333d e659 a8be 3a43 66be
00000180: a8a8 1cbe 63cd 03bc 91b3 9dbe a104 afbe
00000190: a8c9 55bd 59e0 f7be 642e 373d dbee 65bd
000001a0: 0ab7 dcbe 1aa8 8cbe 0eca 893c 7030 b5be
000001b0: fe42 b6be 8b69 c6be a619 a1bd 2cdc 88be
000001c0: e83e 41bd a9d2 d4be 4e53 27bd 8143 7dbe
000001d0: 2e2e b5be 1683 d5be ea95 81be b53d 25be
000001e0: a266 12bf eca4 efbe 47ea 8dbe e733 c8be
000001f0: 8ded d6be d9fc b4be a44e 74be eb45 b4be
00000200: 5e35 a5be 0353 b2be 989f b53c a16f 77be
00000210: 9199 a4be 0474 6dbe 7dfe a7be 90eb 9ebe
00000220: 5267 34bd 438b 82be 0dd3 8fbe 3ca8 bfbe
00000230: d323 40bc caf7 b4be af47 b6be 755a 1ebf
00000240: 9bcb acbe 45d2 abbe c0a5 97be 7708 a5be
00000250: f8c1 a3be e4bf 8bbe 404c 42bd 1e17 3fbe
00000260: d9aa 9fbe 084f 9bbe 3009 cebe a4b3 c9be
00000270: 658e 10bd 650c 82bd 0070 763c efdd b2be
00000280: 9ca1 97bc bcab d0be dde5 03bf 6d0a b9be
00000290: 3802 e8be c809 683d 6d2e e8be 2a05 93be
000002a0: b180 a8be 13f8 53be 678b 8abe 855f ccbe
000002b0: 6ec5 acbe 2c6b f73c 1d59 e3be 3958 b7be
000002c0: 7e0e b3be eece d9be 0378 b7be 33a7 f9be
000002d0: 8220 7f3d d979 cabe e08c 953c d221 ffbe
000002e0: de3f 99be 8a70 d8be f75f aebe 1440 d9be
000002f0: aa89 b1be a043 9ebe 6734 53be c252 9fbe
00000300: d064 cbbe 5da2 b2be 6fc8 83be cee5 f2be
00000310: ccb7 adbe c1fa cdbe 42de 82be aa2f a5be
00000320: c9a7 983c e0a9 35bc d051 ccbd 12ee 993d
00000330: 445d 00bf 6c30 abbe 94a8 a0be 6434 8dbe
00000340: 46f9 d4be b1c7 72be b469 183d 1b37 88be
00000350: 3519 19bf 624c 90be 8ae8 d2be 2d88 ecbe
00000360: 3e05 9bbe e430 f3be fbf8 75bc e732 f7be
00000370: 78f8 f9bc 4bd1 a9be 8b01 e4be 9854 b2be
00000380: cb7c 99be 1588 8fbe 22fb b1be 8195 e4be
00000390: 0246 d3be 725f a8be d29e a2be 2735 73be
000003a0: 0a66 30bd 00fc c03c ee88 9fbe 4dcf adbe
000003b0: 78d2 d6be 7889 b2bc 4c2f 96be bd16 a5be
000003c0: 44e3 7b3d 1c11 ccbe ca81 033d bada d4be
000003d0: d775 9ebd 0e6b 6cbd 64a6 a1be f38c 61be
000003e0: 3048 37bc df15 96be 0b7d edbe a59e a8be
000003f0: 9590 0abf bc50 97be 68cf a3be cb77 bebe

linear2.bias f4 [3]
-0.27235532 0.2108813 0.04564346
00000000: 2872 8bbe 44f1 573e a3f4 3a3d
