examples/minecraft/model/model3.0.pth (torch, 13632 bytes, 4 tensors)

linear1.weight f4 [128, 17]
1.2630475 0.64185333 -0.69115704 0.46171266 -0.1301931 -0.7953527 -0.87492025 -0.38600022
0.54862785 -0.5183665 0.2331523 -0.047665928 -2.2601411 -0.2860221 1.3378237 1.4503461
0.48682868 1.7395812 1.452165 -0.812469 0.57883656 -0.11752841 -1.0016017 0.14865448
-0.49825457 0.7317271 -0.32957783 0.051687844 0.5637225 -2.9776268 -0.38912442 0.9476458
1.946954 1.0050778 1.4567124 1.3337494 -0.84397715 0.4543445 -0.29782718 -1.0740368
-0.34014285 -0.5109505 0.35872674 -0.4223086 0.24899721 0.2396895 -2.630972 -0.31845865
1.0770775 1.5861458 0.75663793 -0.094454005 0.01913336 -0.046983615 0.11261845 0.14467034
-0.018013671 0.060262263 -0.095174566 -0.13038664 -0.17994677 -0.12622932 -0.13919908 -0.034453496
0.0186795 -0.17309758 -0.1096299 0.15618747 1.7695047 1.2036369 -1.1084218 0.54999876
-0.14019926 -1.4436588 0.5359755 -0.97479373 0.83354574 -0.48880544 -0.19464311 0.6851715
-2.5655131 -0.40683287 0.819317 1.8341763 1.357836 1.6695523 1.3070409 -1.0705234
0.40968284 -0.17263092 -1.5171742 0.27974743 -0.8408751 0.5055116 -0.44566104 0.06554312
0.86639893 -2.5126278 -0.6043816 1.4378936 1.8459455 1.2563001 1.5708781 1.3444345
-1.2327782 0.7235149 -0.09047098 -1.6334182 0.7283612 -0.701998 0.9935849 -0.04750142
0.14637011 0.8378351 -1.781796 -0.1129909 1.0968714 1.7913979 1.407481 1.8099283
1.3180746 -0.685839 0.2795507 -0.066458546 -0.9146312 0.14155935 -0.6024918 0.7530415
-0.5217762 -0.13087767 0.53020406 -2.8659759 -0.4063519 0.6505641 2.0316522 1.1839187
2.0586452 1.7235823 -1.114763 0.2531683 -0.06552093 -1.3352392 0.5603073 -0.83625317
0.45175514 -0.53907484 0.18073274 0.6075498 -2.5550869 -0.4287266 1.105742 2.0455613
1.1927682 0.67179114 0.79248047 -1.6509289 0.03281077 0.062140714 -1.3205715 -1.8472035
0.10703291 -0.03977356 -1.1553557 -0.20695333 0.71916175 -2.488554 -0.49105698 2.2394521
0.88954353 1.7380234 2.1037133 1.445164 -0.92569005 0.3495255 -0.25779977 -1.4586104
0.26092327 -0.65948033 0.7100674 -0.26074916 -0.0222668 0.7666992 -2.422491 -0.20565292
1.3906475 2.0028818 1.201571 -0.2462551 -0.32798156 -1.319201 -0.37379134 0.15317483
-1.2637712 1.2057563 1.1489209 0.97728467 1.7141974 0.40272433 0.07287139 3.6707637
0.83586377 1.0371263 -1.0422117 0.99412084 0.14963591 -0.32225764 -1.6219832 -0.5644445
-0.13023725 -1.7559214 1.87713 0.04175119 1.1577353 1.6635389 -0.12312369 0.29816443
3.6367471 1.4683206 0.35403854 -0.47400916 1.1001194 1.4723588 1.5513753 -0.78407323
0.618722 -0.37350997 -1.3905137 -0.005710077 -0.3822265 0.5463823 -0.80853856 0.28906953
0.28576994 -2.7478209 -0.40761662 1.3619119 1.7832916 0.9154899 1.6252198 0.95390826
-1.0988127 0.36376166 -0.077971585 -1.7073917 0.55315 -1.0795673 0.6756632 -0.21999024
0.0440993 0.8806237 -1.6825354 -0.08627182 0.59430695 1.962468 1.0814729 1.9941308
00000000: 8aab a13f 8050 243f abef 30bf 9a65 ec3e
00000010: 5751 05be 3c9c 4bbf c6fa 5fbf d2a1 c5be
00000020: e072 0c3f abb3 04bf 7abf 6e3e 593d 43bd
00000030: 27a6 10c0 7d71 92be cf3d ab3f f1a4 b93f
00000040: 9c41 f93e 99aa de3f 8be0 b93f f8fd 4fbf
00000050: a22e 143f bcb2 f0bd 7c34 80bf e138 183e
00000060: 391b ffbe 7852 3b3f 6dbe a8be a2b6 533d
00000070: 1e50 103f 7091 3ec0 513b c7be ea98 723f
00000080: ca35 f93f 64a6 803f 8d75 ba3f 4db8 aa3f
00000090: e30e 58bf d89f e83e ce7c 98be 0a7a 89bf
000000a0: 3427 aebe a7cd 02bf 08ab b73e d538 d8be
000000b0: 20f9 7e3e 2a71 753e d861 28c0 030d a3be
000000c0: addd 893f d306 cb3f 06b3 413f 1a71 c1bd
000000d0: 90bd 9c3c e471 40bd 80a4 e63d 7624 143e
000000e0: 6891 93bc 90d5 763d e2ea c2bd 1384 05be
000000f0: f743 38be 4242 01be 348a 0ebe 1c1f 0dbd
00000100: c005 993c 7e40 31be a485 e0bd 9cef 1f3e
00000110: 217f e23f c610 9a3f c4e0 8dbf b8cc 0c3f
00000120: 6590 0fbe d0c9 b8bf b135 093f 158c 79bf
00000130: 4163 553f b544 fabe 8650 47be 6667 2f3f
00000140: 5e31 24c0 664c d0be c2be 513f 4ac6 ea3f
00000150: 92cd ad3f e4b3 d53f 1e4d a73f e906 89bf
00000160: f3c1 d13e 29c6 30be c432 c2bf 0e3b 8f3e
00000170: 9743 57bf 3569 013f af2d e4be 793b 863d
00000180: 52cc 5d3f e5ce 20c0 c1b8 1abf e60c b83f
00000190: f147 ec3f 71ce a03f 8912 c93f 6e16 ac3f
000001a0: adcb 9dbf 4638 393f d948 b9bd d913 d1bf
000001b0: e175 3a3f 24b6 33bf 945b 7e3f d990 42bd
000001c0: 0ce2 153e 5c7c 563f e411 e4bf c667 e7bd
000001d0: 4866 8c3f 874c e53f 5628 b43f bbab e73f
000001e0: abb6 a83f 2593 2fbf 4521 8f3e 6b1b 88bd
000001f0: 4525 6abf eff4 103e e73c 1abf 54c7 403f
00000200: 2093 05bf cc04 06be 74bb 073f 266c 37c0
00000210: 5b0d d0be 5e8b 263f 9706 0240 a68a 973f
00000220: d8c0 0340 589e dc3f 8eb0 8ebf 479f 813e
00000230: d62f 86bd 1ee9 aabf 4d70 0f3f b014 56bf
00000240: 734c e73e cf00 0abf 0112 393e 6288 1b3f
00000250: 8b86 23c0 0e82 dbbe f488 8d3f 7aea 0240
00000260: a1ac 983f 81fa 2b3f 00e0 4a3f a351 d3bf
00000270: 9664 063d 4387 7e3d 7d08 a9bf 2a71 ecbf
00000280: 1234 db3d 9ae9 22bd b2e2 93bf 93eb 53be
00000290: fc1a 383f 7844 1fc0 d26b fbbe 2f53 0f40
000002a0: 20b9 633f 8d77 de3f 3da3 0640 22fb b83f
000002b0: 06fa 6cbf 02f5 b23e 55fe 83be bfb3 babf
000002c0: bc97 853e b4d3 28bf fac6 353f ea80 85be
000002d0: dd68 b6bc 6646 443f 180a 1bc0 ae96 52be
000002e0: bd00 b23f 372f 0040 14cd 993f 4c2a 7cbe
000002f0: 33ed a7be 94db a8bf 9461 bfbe ddd9 1c3e
00000300: 41c3 a1bf 3956 9a3f d70f 933f 542f 7a3f
00000310: d26a db3f e231 ce3e 983d 953d cbed 6a40
00000320: 2bfb 553f 8ec0 843f 3167 85bf b47e 7e3f
00000330: 283a 193e f4fe a4be 259d cfbf 6f7f 10bf
00000340: ea5c 05be 08c2 e0bf cc45 f03f 4c03 2b3d
00000350: ac30 943f d8ee d43f 4628 fcbd 02a9 983e
00000360: 77c0 6840 eef1 bb3f 8a44 b53e 54b1 f2be
00000370: b6d0 8c3f 4176 bc3f 7793 c63f 06b9 48bf
00000380: 9164 1e3f b33c bfbe 5afc b1bf 991b bbbb
00000390: 31b3 c3be b6df 0b3f 62fc 4ebf ec00 943e
000003a0: 7050 923e 4cdc 2fc0 20b3 d0be 2153 ae3f
000003b0: e642 e43f 8c5d 6a3f 3407 d03f 5533 743f
000003c0: e5a5 8cbf f83e ba3e 91af 9fbd d08b dabf
000003d0: 3d9b 0d3f 432f 8abf 43f8 2c3f 1f45 61be
000003e0: 78a1 343d 8e70 613f 525d d7bf 48af b0bd
000003f0: 8024 183f 2732 fb3f b46d 8a3f ae3f ff3f

linear1.bias f4 [128]
3.0760026 3.523384 3.30118 -0.23835698 3.483903 3.4333625 3.0604384 3.39422
3.4437418 1.6381944 3.1955223 0.33324292 1.4568055 3.2673454 3.4236276 3.2691624
2.8446605 3.4086723 3.402373 -0.47658905 2.947899 0.743647 2.4898722 2.687179
3.1499743 3.4633152 3.036888 3.4535096 2.547906 3.4096582 1.3181709 1.9479946
3.1412427 2.6495798 3.313139 3.2029378 3.5278828 3.5773652 3.3700705 3.1967597
3.1384635 3.3998716 3.4250708 3.340284 3.4014828 2.173498 3.2292445 3.226662
3.5751162 3.3803694 1.9230995 2.729332 3.185266 2.8915603 3.1734774 3.233245
3.1682887 3.470087 3.3575957 2.8756764 0.9315873 3.2366025 3.4511466 2.6755779
3.485595 1.6068009 -0.23702765 3.2686698 3.4695916 2.254247 3.1571767 3.465132
3.383065 2.8531976 3.1212397 3.288184 3.4231746 3.4816113 2.579165 3.312772
3.4297385 3.566094 -0.058184113 3.2226021 2.615609 3.4803565 3.1607716 2.6551197
3.1968064 1.4329351 3.4118793 3.5317817 2.6208863 3.5010827 3.3782 0.99078596
3.4270961 2.9249628 0.9333616 3.232036 3.3780017 2.8523557 3.392206 -0.26048204
3.3334918 3.3516028 3.5775177 3.1232548 3.2416055 3.207437 2.2247276 3.3040617
3.6110115 3.1306005 2.5096724 3.013767 3.487844 2.6259842 3.4347548 3.1464422
3.2777934 1.2860595 3.0395508 3.0926316 3.39382 3.2759073 2.6987572 0.49139422
00000000: 3add 4440 207f 6140 8846 5340 da13 74be
00000010: 44f8 5e40 36bc 5b40 39de 4340 e73a 5940
00000020: 4466 5c40 5bb0 d13f 7083 4c40 d19e aa3e
00000030: 9a78 ba3f 301c 5140 b71c 5b40 f539 5140
00000040: eb0e 3640 b027 5a40 7bc0 5940 7b03 f4be
00000050: 61aa 3c40 a65f 3e3f 115a 1f40 befa 2b40
00000060: 2e99 4940 f5a6 5d40 5f5c 4240 4d06 5d40
00000070: e410 2340 d737 5a40 d3b9 a83f e357 f93f
00000080: 1f0a 4940 b792 2940 780a 5440 effc 4c40
00000090: d5c8 6140 8df3 6440 3caf 5740 b697 4c40
000000a0: 96dc 4840 7f97 5940 5c34 5b40 37c7 5540
000000b0: e5b1 5940 971a 0b40 f1ab 4e40 a181 4e40
000000c0: b4ce 6440 f957 5840 2028 f63f 60ad 2e40
000000d0: 66db 4b40 530f 3940 411a 4b40 7ced 4e40
000000e0: 3ec5 4a40 e815 5e40 d9e2 5640 150b 3840
000000f0: 817c 6e3f 7f24 4f40 96df 5c40 ab3c 2b40
00000100: fd13 5f40 a7ab cd3f 60b7 72be e331 5140
00000110: ca0d 5e40 9545 1040 2f0f 4a40 b9c4 5d40
00000120: 2384 5840 ca9a 3640 64c2 4740 9b71 5240
00000130: 4b15 5b40 b8d2 5e40 0a11 2540 7504 5440
00000140: d680 5b40 e23a 6440 7752 6ebd 1d3f 4e40
00000150: 2366 2740 29be 5e40 154a 4a40 7bed 2940
00000160: 7a98 4c40 6b6a b73f 3b5c 5a40 b608 6240
00000170: 9abc 2740 bd11 6040 6e34 5840 26a4 7d3f
00000180: 8b55 5b40 9732 3b40 c9f0 6e3f aed9 4e40
00000190: 2e31 5840 ff8c 3640 e719 5940 e75d 85be
000001a0: ee57 5540 a980 5640 0df6 6440 68e3 4740
000001b0: 7776 4f40 a646 4d40 f061 0e40 bf75 5340
000001c0: d01a 6740 c25b 4840 799e 2040 8fe1 4040
000001d0: d638 5f40 2010 2840 06d3 5b40 4f5f 4940
000001e0: 5ec7 5140 999d a43f 0088 4240 aded 4540
000001f0: 5934 5940 77a8 5140 70b8 2c40 0698 fb3e

linear2.weight f4 [5, 128]
-2.349227 -1.9960972 -2.3860037 0.02471289 -1.6988544 -1.7093796 -1.2606908 -1.9735467
-1.8579752 -2.3372161 -1.7520089 1.8172123 1.3575432 -2.4494312 -1.3290948 -1.7302803
-1.3301469 -2.1477096 -2.1698208 2.243354 -2.0791643 1.6534982 0.17118259 -2.4390173
-2.2756355 -1.1023495 -1.968797 -2.1286032 -1.8276297 -1.7425059 -1.8807427 0.43025067
-2.3726287 -2.4922218 -1.650037 -2.2852426 -1.7833564 -1.974311 -1.816315 -2.1911283
-2.175578 -1.7871233 -1.6922128 -1.7462676 -1.1298795 -2.26446 -2.046771 -1.1180693
-1.4775124 -1.9200041 -2.8343966 -1.8904576 -2.2552366 -2.3948338 -2.494419 -2.2487307
-2.4284225 -1.7074244 -2.0568686 -1.9637403 1.4094279 -2.4537787 -1.7020622 -2.0939863
-1.836408 1.1366951 -0.011336267 -2.7271216 -1.96664 -2.2407486 -2.3537884 -1.8912394
-1.1269033 -2.0983794 -2.1257 -2.5350661 -1.9958446 -2.1170468 -2.7270458 -1.4817325
-1.4046462 -2.2752533 0.00032898784 -2.6240878 -2.4069073 -1.9418555 -2.3525496 -2.2261343
-1.9198275 -2.4989574 -1.982633 -1.7877347 -2.42029 -1.9759505 -2.033801 -2.3522465
-1.935056 -2.7076464 -0.6794175 -1.7885538 -2.157693 -2.6393008 -2.186679 0.080711864
-2.11731 -1.5996462 -1.2911953 -2.4385324 -2.3672185 -1.667614 -2.5782845 -2.5674758
-2.0640414 -2.4187372 -2.2465906 -2.068621 -1.9466002 -2.2542272 -1.3952602 -1.7679125
-1.5959642 -1.5240144 -2.3036067 -0.5763475 -2.1537983 -2.4039333 -0.5560488 1.6454703
-1.786772 -1.7913843 -1.8049581 -0.010750547 -1.8470002 -1.797205 -1.7270039 -1.7982883
-1.6585163 -1.3089197 -1.8268932 -1.5330857 -1.7564646 -1.6760763 -1.8199122 -1.8066329
-1.7386113 -1.751359 -1.8137131 -1.1284422 -1.8386765 -1.664969 -1.9484674 -1.5024427
-1.6890582 -1.801982 -1.6850525 -1.836886 -1.2745602 -1.7898527 -0.9265303 -2.013446
-1.835546 -1.4736135 -1.7668164 -1.7121824 -1.6433754 -1.8634765 -1.7964383 -1.7136368
-1.659237 -1.7453924 -1.7934824 -1.6898323 -1.837497 -1.5839431 -1.6993376 -1.8734198
-1.9115524 -1.820767 -1.0534014 -1.5446059 -1.759257 -1.5626761 -1.6903741 -1.8351165
-1.8748902 -1.7043445 -1.6760312 -2.091622 -1.7811443 -1.6609793 -1.7890811 -1.5950538
-1.898607 -1.8708644 0.00447122 -1.8417634 -1.7719895 -1.3796853 -1.6984382 -1.7020149
-1.8027934 -1.6779464 -1.7226452 -1.8676927 -1.6929235 -1.6946616 -1.354156 -1.8297135
-1.8376573 -1.9278677 -0.041876886 -1.8377382 -1.5791466 -1.919669 -1.7739338 -1.6005089
-1.7384007 -1.8270826 -1.7817935 -1.7632886 -1.5974495 -1.8755237 -1.6425734 -1.1994442
-1.7649335 -1.7252659 -0.76798326 -1.7014954 -1.8048236 -1.6578285 -1.7602247 -0.07431345
-1.6841242 -1.9081216 -1.7711002 -1.9624394 -1.6842008 -1.7608632 -1.4792181 -1.7360859
-1.7713968 -1.7323009 -1.4517467 -1.6071639 -1.8148777 -1.6113352 -1.8795668 -1.8192122
-1.6787441 -1.1261804 -1.5370563 -1.8922194 -1.6678603 -1.7753764 -1.8517619 -1.5637252
00000000: bc59 16c0 1d80 ffbf 49b4 18c0 b072 ca3c
00000010: 1074 d9bf f3cc dabf 515e a1bf 2e9d fcbf
00000020: 22d2 edbf f394 15c0 d441 e0bf 6a9a e83f
00000030: fac3 ad3f 7bc3 1cc0 c71f aabf d379 ddbf
00000040: 4142 aabf 1374 09c0 58de 0ac0 1d93 0f40
00000050: 0711 05c0 d4a5 d33f 7d4a 2f3e dc18 1cc0
00000060: 03a4 11c0 ca19 8dbf 8a01 fcbf 093b 08c0
00000070: c5ef e9bf 6f0a dfbf 2dbc f0bf d149 dc3e
00000080: 26d9 17c0 9080 1fc0 6a34 d3bf 6a41 12c0
00000090: 0645 e4bf 39b6 fcbf 037d e8bf 723b 0cc0
000000a0: ac3c 0bc0 75c0 e4bf 6e9a d8bf b285 dfbf
000000b0: e49f 90bf eaec 10c0 4cfe 02c0 e51c 8fbf
000000c0: 201f bdbf b2c2 f5bf c166 35c0 84fa f1bf
000000d0: cc55 10c0 f544 19c0 90a4 1fc0 34eb 0fc0
000000e0: 466b 1bc0 e28c dabf bca3 03c0 d85b fbbf
000000f0: 2268 b43f b60a 1dc0 2ddd d9bf df03 06c0
00000100: 6b0f ebbf 3a7f 913f c0bb 39bc 2989 2ec0
00000110: dcba fbbf 6d68 0fc0 78a4 16c0 2214 f2bf
00000120: 5e3e 90bf d94b 06c0 780b 08c0 863e 22c0
00000130: d677 ffbf b27d 07c0 eb87 2ec0 69a9 bdbf
00000140: 72cb b3bf c09d 11c0 007c ac39 0ef1 27c0
00000150: c50a 1ac0 b98e f8bf 2c90 16c0 fc78 0ec0
00000160: e8bc f5bf ebee 1fc0 ebc6 fdbf 7ed4 e4bf
00000170: 08e6 1ac0 f2eb fcbf cc29 02c0 358b 16c0
00000180: eaaf f7bf 144a 2dc0 4eee 2dbf 55ef e4bf
00000190: a417 0ac0 4eea 28c0 8cf2 0bc0 434c a53d
000001a0: 0282 07c0 35c1 ccbf e345 a5bf ea10 1cc0
000001b0: 8280 17c0 6074 d5bf 9d02 25c0 8651 24c0
000001c0: 4119 04c0 97cc 1ac0 24c8 0fc0 4964 04c0
000001d0: 322a f9bf 4245 10c0 e397 b2bf f54a e2bf
000001e0: 8e48 ccbf e712 c3bf 4b6e 13c0 828b 13bf
000001f0: d5d7 09c0 0bda 19c0 3759 0ebf c59e d23f
00000200: f2b4 e4bf 154c e5bf de08 e7bf 1023 30bc
00000210: 816a ecbf d00a e6bf 770e ddbf 502e e6bf
00000220: 434a d4bf ae8a a7bf a3d7 e9bf 273c c4bf
00000230: d5d3 e0bf ab89 d6bf e2f2 e8bf bf3f e7bf
00000240: d18a debf 882c e0bf c027 e8bf cb70 90bf
00000250: c059 ebbf b41d d5bf 6167 f9bf 0b50 c0bf
00000260: 0f33 d8bf 59a7 e6bf cdaf d7bf 151f ebbf
00000270: ca24 a3bf e519 e5bf 1731 6dbf 4ddc 00c0
00000280: 2cf3 eabf 5e9f bcbf 0a27 e2bf cb28 dbbf
00000290: 205a d2bf 6686 eebf b1f1 e5bf 7358 dbbf
000002a0: e161 d4bf 0569 dfbf d590 e5bf 6d4c d8bf
000002b0: 1a33 ebbf a6be cabf e583 d9bf 38cc efbf
000002c0: c0ad f4bf e50e e9bf dbd5 86bf a5b5 c5bf
000002d0: 552f e1bf c505 c8bf 2e5e d8bf 19e5 eabf
000002e0: 67fc efbf f627 dabf 3188 d6bf 23dd 05c0
000002f0: 89fc e3bf f89a d4bf 9c00 e5bf b92a ccbf
00000300: 8e05 f3bf 7c78 efbf 5083 923b e7be ebbf
00000310: 8dd0 e2bf 8799 b0bf 6c66 d9bf a0db d9bf
00000320: efc1 e6bf f3c6 d6bf a37f dcbf 8e10 efbf
00000330: b8b1 d8bf acea d8bf fc54 adbf 0d34 eabf
00000340: 5b38 ebbf 5ec4 f6bf 1987 2bbd 013b ebbf
00000350: 7a21 cabf b7b7 f5bf 4310 e3bf 7add ccbf
00000360: ea83 debf d8dd e9bf cf11 e4bf 71b3 e1bf
00000370: 3a79 ccbf 2911 f0bf d83f d2bf 6387 99bf
00000380: 57e9 e1bf 83d5 dcbf 8d9a 44bf 9aca d9bf
00000390: 7604 e7bf b933 d4bf 0b4f e1bf a631 98bd
000003a0: 6291 d7bf 543d f4bf 69b3 e2bf 3731 fbbf
000003b0: e493 d7bf f763 e1bf 0557 bdbf 1038 debf
000003c0: 21bd e2bf 09bc ddbf d6d2 b9bf 8cb7 cdbf
000003d0: ea4d e8bf 3b40 cebf a595 f0bf f2db e8bf
000003e0: 16e1 d6bf ae26 90bf 43be c4bf 3f34 f2bf
000003f0: 727c d5bf 893f e3bf 8906 edbf 2628 c8bf

linear2.bias f4 [5]
-1.1661861 -1.7042631 -1.4757992 -1.2547058 -1.5770999
00000000: 9645 95bf 4b25 dabf fde6 bcbf 339a a0bf
00000010: 69de c9bf
