examples/minecraft/model/model2.1.pth (torch, 6720 bytes, 4 tensors)

linear1.weight f4 [64, 13]
00000000: 7902 f1bf 13a2 6b3f dfaa 613f 6550 d13f
00000010: 1a76 95bf a358 07be 5673 ef3e 43b2 88bf
00000020: b1a7 1d3f 6b0a 033f c2ac 9d3f ed28 f4bf
00000030: 320f 43bf 3d85 963f 6d3f 06bf 36c8 b9be
00000040: 3a69 c1bf 1e30 bc3f 94b1 cc3f eb44 263f
00000050: 3fd8 5f3f c92d f13d 9933 733f 9d4a 7d3e
00000060: 0d9e dc3f 5129 4abe 76cb a63f 9ee5 f33e
00000070: a586 053f 7ae2 72bf 3ea0 ae3f 5973 9dbc
00000080: d805 c33e 9910 ed3f 7faa 753f 559f e83c
00000090: 2e56 5b3e e110 f93f d397 43be aa4b 0340
000000a0: 1326 2fbf 9610 b53e 79de b9bf dc99 a23f
000000b0: dbe6 033f 9b31 de3e 4e5d b13f d5d2 123f
000000c0: 3f79 d93e 169c 713e 440e 0140 393c 83be
000000d0: f46f e5bf 2a48 a53f 1775 503f fcf2 ee3f
000000e0: 0222 aabf 5cf2 123f c773 5c3f 49b1 94bf
000000f0: 9e1c b8be 4507 f83e d982 9d3f fe14 fbbf
00000100: a718 f4be 24e1 b0bf 3beb 023f 24cc c13e
00000110: 2b0e ec3f 2ce7 9cbf 09eb 873f 10b6 543f
00000120: edc0 41bf cb7b e33d 8699 953e 1e3b 153f
00000130: 3207 04c0 c6ee 073f c021 cdbf 73b4 643f
00000140: a91b 463f ac2c c43f cabf c2bf e06d 433f
00000150: 76f9 1a3f c3de 93bf 74ec 413e fbb4 de3e
00000160: 589d 973f 3a74 08c0 2282 bd3e c30e 0940
00000170: 1392 3ebf afae b23d 2d78 94bf 4abd 863f
00000180: bc19 4a3f 100f b43e 5ac9 aa3f b321 c93e
00000190: 51b1 ec3e a014 723e 431b 0d40 c3ab 8fbe
000001a0: 32f1 fb3f 5830 b0be cfdd 323f e5b3 95bf
000001b0: e556 953f acaf ce3e 8097 f83e a303 b23f
000001c0: 8319 083f 4358 223e d11a 273e 3d49 0640
000001d0: afba cc3b 2690 e23f 2407 e5be 3335 eb3e
000001e0: 2646 a2bf 1fda b43f 2bd4 853e a279 9f3e
000001f0: cbea b33f 34aa 303f 6466 d83e 3fc8 c03d
00000200: f96d 1740 5e4a 0dbe cecf ee3f fd43 c5be
00000210: 1f0b ac3e 131b c4bf 67b3 d23f 2346 0f3e
00000220: c2e0 4e3e f8f1 c33f 8a6d 0d3f 7f11 bb3e
00000230: f67a 933d b48c 1740 5b8e acbe ed35 e8bf
00000240: 56ee 803f aad2 2b3f 4e54 d23f fa0d afbf
00000250: 5121 ad3e d87d b23e fadf 42bf 6d16 cd3e
00000260: 0e6d 1c3f 5e68 983f 5eba fbbf 9af3 13bf
00000270: 8cd5 70bf 363c 233c 4459 f43e 0b51 673f
00000280: a8a2 40bf 5993 9bbf ee5b 1dbe 4945 f9bb
00000290: 38f2 a53f faa4 a9be 2d9a f83e 77d5 37bf
000002a0: 8242 153d c272 dfbf deb6 903f fb28 0e3f
000002b0: 6bce db3f 25d2 3cbf b115 2abf 10d2 423f
000002c0: 0f9b b9bf a0de 913e 2f3a 923e 6c23 853f
000002d0: 7254 f8bf 378b fa3e 86e2 c7be a073 9e3f
000002e0: 39be bb3f 3e19 da3f 91ac 05be 7079 b7bf
000002f0: 1800 d4b8 a315 ab3e 7ae9 5f3f 045a 01bd
00000300: 3b60 883f b3ef 4ebf 1c6f d3be f866 a43f
00000310: 15c3 3e3f a290 9b3f cb97 f9be 5264 653f
00000320: cee4 bbbe 37aa 58be 197e d63f fe81 f93f
00000330: db83 b83c 706d fc3e dbc4 a83f 2b0b 4dbd
00000340: 0923 c4bf 9e16 823f 69ba 0d3f c595 f13f
00000350: b6b2 a6bf c065 7c3f 1c5b 463f 36c5 b6bf
00000360: 2ffd 5e3d b172 173f 5468 813f dd89 ecbf
00000370: f180 71bc 00d8 2bbb f191 723e b2f6 adbc
00000380: e0b3 553d a6ae 16be 85d6 053e 4216 48be
00000390: 6b2e 64bd c7cf 583e a112 07be 95d3 89be
000003a0: 246d 1fbd 886e ecbc 2d37 c3bf 0959 043e
000003b0: 7865 90bf 1b1b d73f 5235 c3be a046 9fbe
000003c0: c4d6 3b3f e8ec 9bbd e022 553f 4668 bbbf
000003d0: 6743 d9bd 6290 a9bf 00bc 043d d409 e13f
000003e0: 3177 6fbf 9cc3 0a3e 06b6 7dbf a949 7a3f
000003f0: 2a43 8c3f be0b f33e cedf 973f f245 e63e
-1.882888 0.9204418 0.88151354 1.635266 -1.1676667 -0.13217406 0.46767682 -1.0679401
0.61584 0.5118777 1.2318347 -1.907499 -0.7619506 1.1759411 -0.5244053 -0.3628556
-1.5110238 1.4702184 1.5991693 0.6494891 0.8743934 0.11776311 0.95000607 0.24735494
1.7235733 -0.19742323 1.3030841 0.47636122 0.52158576 -0.94876826 1.3642652 -0.019220041
0.38090396 1.852069 0.9596328 0.028396288 0.21419594 1.9458276 -0.19100885 2.0514932
-0.6841747 0.35364217 -1.4521018 1.2703204 0.5152413 0.4339722 1.3856599 0.57352954
0.42475316 0.23594698 2.0164957 -0.25631884 -1.792479 1.2912648 0.81428665 1.8667903
-1.3291628 0.5740106 0.8611416 -1.1616603 -0.35959333 0.48443046 1.2305557 -1.9615781
-0.47675058 -1.3818707 0.51140183 0.3785106 1.8441824 -1.2258048 1.0618602 0.83090305
-0.75685006 0.11107596 0.29218692 0.5829333 -2.0629392 0.53098714 -1.6025925 0.89337844
0.77385956 1.5326133 -1.5214779 0.7633953 0.605369 -1.1552356 0.18937856 0.43497452
1.1844893 -2.132094 0.37013346 2.141526 -0.7444164 0.087247245 -1.1599175 1.0526516
0.7894552 0.35167742 1.3342698 0.39283523 0.46229032 0.2364068 2.204789 -0.2806073
1.9682982 -0.34411883 0.69869703 -1.1695524 1.1667143 0.40368402 0.48553085 1.390736
0.5316393 0.15853982 0.16318823 2.09822 0.0062478404 1.7700241 -0.4473201 0.45939025
-1.2677658 1.4129065 0.26138434 0.31147486 1.4056028 0.6900971 0.42265618 0.09413194
2.3660872 -0.137979 1.8657167 -0.38528433 0.33602235 -1.5320762 1.6460999 0.13991599
0.20202926 1.5308218 0.5524527 0.36536786 0.07201187 2.3679628 -0.3370236 -1.8141457
1.0072734 0.6711832 1.6431978 -1.367614 0.3381448 0.34861636 -0.7612301 0.40056172
0.61103904 1.190685 -1.966625 -0.5779358 -0.94075847 0.009963086 0.47724354 0.90358037
-0.75248194 -1.2154342 -0.153671 -0.0076071364 1.2964544 -0.3313368 0.48555127 -0.71810097
0.03644038 -1.7456896 1.1305807 0.5553128 1.7172369 -0.73758155 -0.6643935 0.7610178
-1.4500445 0.28490162 0.28560016 1.0401435 -1.9400771 0.48934337 -0.3904001 1.2379036
1.4667426 1.7038953 -0.1305411 -1.4333935 -0.00010108965 0.33414945 0.8746563 -0.031579986
1.0654367 -0.808345 -0.41295707 1.2843924 0.7451642 1.2153513 -0.4874862 0.896062
-0.36698002 -0.21158682 1.6757232 1.9492795 0.022523811 0.49302244 1.3185076 -0.05005948
-1.5323192 1.0163152 0.55362564 1.8873831 -1.3023288 0.9859276 0.7748277 -1.4278934
0.054440673 0.5915938 1.0109963 -1.8479573 -0.014740215 -0.0026221275 0.23688485 -0.021235798
0.052173495 -0.1471506 0.13070114 -0.1953974 -0.05570833 0.21173011 -0.131907 -0.26919237
-0.038922444 -0.0288613 -1.5251213 0.12924589 -1.1280966 1.6805147 -0.38126618 -0.3110857
0.7337458 -0.07613546 0.8325634 -1.4641197 -0.10608559 -1.3247187 0.032405853 1.7581124
-0.93541247 0.13551182 -0.9910587 0.97768646 1.0957997 0.47469896 1.1865175 0.4497524

linear1.bias f4 [64]
00000000: 7299 2140 36ba 3abf d8f3 0fbf bf89 82bf
00000010: 8fb4 1940 c9b6 3940 8264 3840 6bfa 41bf
00000020: 881b 82bf d8b5 72bf 5cb5 36bf c904 2b40
00000030: 3a8f c03f e620 1340 8d67 0540 edcf b43c
00000040: ed0d 4340 643b a6be 0b59 0040 544c 65bf
00000050: 27f8 2ebf fc8c 2d40 bdb7 cf3f 1ac9 3b40
00000060: f2af 3b40 caba 91be 27ae 4240 2301 2340
00000070: e84f e13f 1ea9 1f40 7eda 66bf ab6b 1e40
00000080: 1e24 1840 3b68 54bf 0978 ed3f 6d82 1140
00000090: 7c4b 3cbf 87e4 4140 0b83 a1bd fab5 dd3f
000000a0: b5ed 0440 98fb 613f 83f4 39bf 0ff4 3240
000000b0: 71e8 35bf 1180 fc3f b5c3 2140 b061 3940
000000c0: 20ff 2440 2e99 39bf 05d4 1a40 1e31 0440
000000d0: e159 d33f 1ab3 82bf 2009 983f 2e88 b23f
000000e0: 81da 1c40 c4cb 3fbf 2246 3ebf 6f3e 6bbf
000000f0: 4132 7bbe 6211 40be d337 febe 2a3f 3b40
2.5249906 -0.72940385 -0.5623145 -1.0198287 2.4016454 2.9017813 2.8811345 -0.7577273
-1.0164652 -0.9480872 -0.7137048 2.672167 1.5043709 2.298883 2.0844452 0.022071803
3.047725 -0.32467186 2.0054348 -0.8956959 -0.683474 2.71173 1.6227947 2.9341493
2.9326138 -0.2846282 3.0418794 2.5469444 1.760251 2.494697 -0.9017714 2.4753215
2.3772044 -0.82971543 1.8552257 2.2735856 -0.7355268 3.0295732 -0.078863226 1.732116
2.0770085 0.88274527 -0.7263872 2.7961462 -0.710578 1.9726583 2.52757 2.8965874
2.5780716 -0.7249936 2.4191906 2.0654979 1.6511804 -1.0210907 1.1877785 1.3947809
2.4508364 -0.74920297 -0.74325764 -0.9189214 -0.24530889 -0.18756631 -0.49651965 2.9257302

linear2.weight f4 [5, 64]
00000000: bbce 84be f52c 06be c5ef c6be 6717 33be
00000010: 8900 9bbe 87ff 67be c086 07bf df6b f5be
00000020: a133 02bf 26b7 e2be 6a4f abbe 13ed ffbe
00000030: 1251 3bbe 5cde 3dbe dc10 f1be 1271 d7be
00000040: b4f4 09bf f38f 903d 44a8 4abc 76f7 c4be
00000050: 1221 debe 0c54 0bbf 9d41 13bf ae4d ddbe
00000060: bb9d d0be b7d3 e03c a15c d1be 445c e9be
00000070: 9c4c b3be 0af2 05bf 85f1 65be ac70 c5be
00000080: ebe6 b5be 9dd1 8dbe 142f abbd ae9a 0fbf
00000090: 66a6 ddbe 78b1 f7be 7089 2fbd 642a fabe
000000a0: e9aa dfbe 64b8 c9bd e746 6abe ab07 00bf
000000b0: ea2e 35be 9a99 4abe 97b9 eebe e3b2 dcbe
000000c0: 6120 92be a325 09bf 006d efbe 05df 11bf
000000d0: cca6 0dbf 2b34 d3be b7ef 8abe c531 d4be
000000e0: 00df 4abe ec3c b6be 6562 a7be de79 fabe
000000f0: 68b0 e13c 0a90 14bc 2550 bdbe 4cde 17bf
00000100: 1b8c 3dbf 8446 0bbf 5686 45bf 904c 27bf
00000110: c669 61bf 1882 46bf 96ed 70bf def4 34bf
00000120: 100e f7be 5a15 f4be 3e2f 0ebf 364d 78bf
00000130: 832e 24bf 1837 39bf fd5b 40bf 9db9 2fbf
00000140: 42e5 56bf 6372 27ba 0909 1fbf 8fd0 07bf
00000150: 75e8 39bf e60a 80bf 6efa 4ebf 1ae4 57bf
00000160: c1fd 80bf 0086 2eba 8017 44bf 4170 5ebf
00000170: 4f83 e1be b167 23bf 318f 24bf feb1 46bf
00000180: 31fc 41bf b443 e5be bb6c 3dbf 14e0 4fbf
00000190: c256 49bf 8dbd 83bf 90c6 c23c 5183 2bbf
000001a0: 9c76 1cbf 3504 24bf 0862 17bf 788b 5abf
000001b0: de31 1dbf 5ffb 63bf 6057 4abf 4e39 4ebf
000001c0: 01da 2abf 64a6 33bf 11dd 54bf 5fb2 5cbf
000001d0: 36c4 68bf e439 18bf a3b4 51bf 0c67 51bf
000001e0: a816 26bf 9be4 2abf c2ce 1abf 8179 1dbf
000001f0: 4688 d4bd 1883 693d ef35 36bf 0bd0 77bf
00000200: 5722 0540 acf9 debf c0c4 acbe 7956 cdbf
00000210: 9075 0d40 d101 0f40 068e 0d40 3d7a d8bf
00000220: e888 abbf cb50 a8bf 4d06 d5bf 6311 0640
00000230: 8c16 0640 72a8 4640 23fd c13f 3106 103e
00000240: 7a15 0240 2809 febd 0f36 2f40 0df5 c8bf
00000250: 8487 71bf 4155 e93f b85c 2740 bfa6 1d40
00000260: 824c 2c40 00e0 84b8 8209 cd3f 1307 3440
00000270: ab3a 3540 db90 1b40 85cc c9bf c55e 2840
00000280: 8f6c bb3f 2b37 e5bf c2b2 2540 bc53 0c40
00000290: 109f 9cbf d591 1d40 98a2 8cbc d73d 0f40
000002a0: 235e 1a40 a3a0 79be f7b1 d4bf 942d 2c40
000002b0: 1bea e1bf 4ac7 1540 be91 1b40 f8c2 0940
000002c0: 6057 3b40 60aa c1bf 0e9c 2d40 7ad5 1440
000002d0: 4e29 b33f 30aa acbf a0f3 51bd 9d79 883f
000002e0: 72ab 3340 64b4 8bbf 1f41 b4bf 0b84 c2bf
000002f0: d462 d63d 80ac 32bd baf3 97bf 2e91 c63f
00000300: f296 c93f c309 143f 3b85 afbf b7ec 3dbf
00000310: 3797 1b40 ba56 2940 71f2 1e40 6859 a7be
00000320: ec76 70bf 68ff 81bf 1b29 b6bf 8a0e f73f
00000330: 1fa6 26bf b921 0940 072f e2bd ed00 9cbf
00000340: b15c 1c40 b56f b5bd 571c d13f cac0 0fbd
00000350: 83b1 07be 1d1c f73f 3172 f43e c43b 2140
00000360: dedc 1840 0334 47bd 9a0e e93f 089e 0a40
00000370: 15ce d63f a314 0540 4c31 79bf 4d0b 923f
00000380: 69c0 1d40 1c9c 63bf bdae 913f f878 2340
00000390: 5604 c53c d51d 1340 d8d0 cabd d445 82bf
000003a0: dd17 2740 3137 1340 6be9 a6bd 541e 0040
000003b0: c3a8 993c 0fe2 143f cb2c 2640 4a5f ec3f
000003c0: 9f27 ff3f 5e66 0abf 448b f93f 96bd 903e
000003d0: d624 55bf abf1 2bbf 97d2 2340 5a9e bdbf
000003e0: f3e9 a93f e980 abbf c7e0 83bf 90db 0dbf
000003f0: ec8d f63d 7da1 e8bc 459b 923e 54f9 9b3f
-0.25938973 -0.13103087 -0.38854805 -0.17489396 -0.30273846 -0.2265607 -0.5293999 -0.47933862
-0.5086003 -0.44280356 -0.33459026 -0.4998556 -0.18292645 -0.18541855 -0.47083175 -0.42078453
-0.5388901 0.07058706 -0.012369219 -0.38470048 -0.43384606 -0.5442512 -0.5752199 -0.43223327
-0.4074534 0.027444704 -0.40890983 -0.45578206 -0.35019386 -0.5232245 -0.22455414 -0.38562524
-0.3552774 -0.27698985 -0.08358589 -0.560954 -0.43291014 -0.48377585 -0.04285568 -0.48860466
-0.43685082 -0.09849623 -0.2287861 -0.500117 -0.17693678 -0.19785157 -0.4662597 -0.4310523
-0.28540328 -0.53573054 -0.46762848 -0.56980926 -0.55332637 -0.41250739 -0.27136013 -0.4144422
-0.1981163 -0.35593355 -0.32692257 -0.48921102 0.027549937 -0.009067545 -0.36975208 -0.59323573
-0.7404191 -0.54404473 -0.77158105 -0.653512 -0.8805202 -0.7754226 -0.9411253 -0.7068614
-0.48252916 -0.4767254 -0.55540836 -0.96992815 -0.6413347 -0.7234969 -0.7514036 -0.686426
-0.8394357 -0.00063875894 -0.6212316 -0.5305261 -0.72620326 -1.0003326 -0.80850875 -0.8433243
-1.007744 -0.0006657541 -0.7659836 -0.86890036 -0.44045493 -0.63830096 -0.6428099 -0.77615345
-0.7577544 -0.44778216 -0.73994035 -0.8120129 -0.78648007 -1.0292221 0.023776323 -0.6699725
-0.61118484 -0.6406892 -0.5913396 -0.8536906 -0.61404216 -0.89055437 -0.79039574 -0.8055619
-0.667389 -0.70175767 -0.8314982 -0.8620967 -0.90924394 -0.59463334 -0.81916255 -0.8179786
-0.6487832 -0.66755074 -0.6047174 -0.61513525 -0.103775546 0.057009786 -0.71176046 -0.96801823
2.080221 -1.7419944 -0.33743858 -1.6042014 2.2103004 2.2344859 2.2117934 -1.6912304
-1.3401155 -1.3149656 -1.6642548 2.0948112 2.0951262 3.104031 1.5155376 0.14064862
2.0325608 -0.1240409 2.7376745 -1.5699784 -0.94347405 1.8229142 2.615034 2.4633024
2.6921697 -6.335974e-05 1.6018527 2.8129318 2.8317058 2.4307163 -1.576554 2.6307843
1.4642504 -1.7907461 2.5890355 2.1926107 -1.2236042 2.462026 -0.017167374 2.2381494
2.4119956 -0.24377684 -1.661681 2.6902819 -1.7649568 2.3402886 2.4307704 2.152525
2.927208 -1.5130119 2.7126498 2.3255296 1.399698 -1.3489437 -0.05125773 1.0662113
2.8073392 -1.0914426 -1.4082373 -1.5196546 0.10468069 -0.04362154 -1.1871254 1.5513055
1.574919 0.57827395 -1.3712534 -0.74189323 2.4311044 2.6459184 2.4835474 -0.326854
-0.9393146 -1.0156069 -1.4231294 1.9301312 -0.6509723 2.1426833 -0.11044126 -1.2187783
2.4431574 -0.08859197 1.6336774 -0.035095967 -0.13251309 1.9305454 0.4774337 2.5192728
2.3884807 -0.048633587 1.8207581 2.1658955 1.6781641 2.0793846 -0.97340846 1.1409699
2.4648688 -0.8891008 1.1381451 2.5542583 0.02404992 2.2986958 -0.09903115 -1.017756
2.6108315 2.3002436 -0.0814999 2.001851 0.01875723 0.5815744 2.596484 1.846658
1.9933966 -0.5406245 1.9495625 0.28269643 -0.8325933 -0.6716563 2.5597284 -1.481395
1.3274521 -1.3398715 -1.0302972 -0.5541315 0.12038788 -0.028397316 0.28634086 1.2185464

linear2.bias f4 [5]
00000000: 0a3b 4ebe d0b4 24bf 9e1d d03f 3cdb c53f
00000010: b376 e8be
-0.20139709 -0.643384 1.6259038 1.545753 -0.4540306
