examples/minecraft/model/model_worker_2.pth (torch, 13632 bytes, 4 tensors)

linear1.weight f4 [128, 17]
0	0x3c9fd490	0.019510537
1	0x3f32a35d	0.6978052
2	0x3f5315f0	0.8245535
3	0xbc5d57d5	-0.01350971
4	0x3f3a716c	0.7282932
5	0x3fcdac15	1.606814
6	0xbe14f394	-0.14546043
7	0x3f1a5e73	0.6030037
8	0x3ff6f13f	1.9292372
9	0x3e506efc	0.20354837
10	0x3f4fe435	0.8120759
11	0x3eb8bacb	0.36080012
12	0x3f3db20a	0.7409979
13	0x3ff3d119	1.9048187
14	0x3f8e644b	1.1124357
15	0xbe12c934	-0.14334565
16	0x3f8a93b1	1.0826322
17	0xbe19a79a	-0.15005341
18	0xbcf9d79a	-0.030498315
19	0x3f492883	0.7857744
20	0x3e15fb8f	0.14646743
21	0x3e9e0d2d	0.30869427
22	0x3f98e9d4	1.1946359
23	0x3ae5d3e9	0.0017534468
24	0x3f5e4944	0.86830544
25	0x3f918abf	1.1370467
26	0x3d6fb9bd	0.058526743
27	0x3f757b3f	0.95891184
28	0x3ef9a72a	0.4876035
29	0x3f009031	0.5022002
30	0x3fb3484d	1.400644
31	0x3f785b84	0.9701464
32	0xbe4d4e48	-0.20049393
33	0x3f8a7a06	1.0818489
34	0xbce7d380	-0.028299093
35	0xbc85befc	-0.01632642
36	0x3f5e75c6	0.8689846
37	0x3dff7b3e	0.124746785
38	0x3f146926	0.57972944
39	0x3f8dcaae	1.1077478
40	0x3e57cea9	0.21074928
41	0x3f02968e	0.5101098
42	0x3f8823ca	1.0635922
43	0xbbdb98d1	-0.0067015667
44	0x3f714225	0.94241554
45	0x3f1288e8	0.5724015
46	0x3f690aaa	0.910319
47	0x3f74579c	0.9544618
48	0x3f895045	1.0727621
49	0x3e24772e	0.16061088
50	0x3f5fbecb	0.874005
51	0xbd2b3800	-0.041801453
52	0xbece763c	-0.4032458
53	0xbf3fe7e4	-0.7496321
54	0xbdf6da0c	-0.12053308
55	0xbee158ca	-0.44013053
56	0xbf9dcfd3	-1.2329048
57	0x3f02fc9f	0.5116672
58	0x3fada7ca	1.356683
59	0xbfa2ce67	-1.2719239
60	0x3eb112ff	0.34584805
61	0x3fc46d45	1.5345846
62	0x3f59bad4	0.850507
63	0x3fb373af	1.4019679
64	0xbf83424e	-1.025461
65	0x3fb00e82	1.3754427
66	0xbe726768	-0.23672259
67	0x3f97995d	1.1843678
68	0xbe54b3fe	-0.20771787
69	0x3f104f2e	0.5637082
70	0x3f904a80	1.1272736
71	0x3e4c29c5	0.19937809
72	0x3ee5f963	0.4491683
73	0x3fa8970a	1.3171093
74	0xbeccee01	-0.40025333
75	0x3e4c6442	0.1996012
76	0x3fcf7a0a	1.6209118
77	0x3e5dc625	0.21657617
78	0x3fa631b0	1.2983913
79	0x3ece20da	0.4025944
80	0x3eec7d2b	0.46189246
81	0x3fd82375	1.6885821
82	0x3fd92343	1.6963886
83	0x3e55a39e	0.20863196
84	0x3fc4dba4	1.5379529
85	0xbd2a5a64	-0.04159011
86	0x3f044e90	0.51682377
87	0x3f98d4ac	1.1939902
88	0xbcb937bc	-0.022609584
89	0x3f691643	0.91049594
90	0x3f8da54a	1.1066067
91	0x3e9b8d03	0.3038102
92	0x3f8b31fe	1.0874631
93	0x3fbcd945	1.4753805
94	0x3eb58dc0	0.3545971
95	0x3f8775c9	1.058282
96	0x3f435bfb	0.76312226
97	0x3fb79984	1.4343724
98	0x3f89e348	1.0772486
99	0x3f873cd5	1.056544
100	0xbde6202c	-0.11236605
101	0x3fc5da24	1.5457196
102	0x3e241f78	0.1602763
103	0x3ef72d56	0.48276776
104	0x3f6a8d17	0.91621536
105	0x3dba1faf	0.090880744
106	0x3ecf5bc2	0.40499693
107	0x3fc130c6	1.509301
108	0xbecab519	-0.39591292
109	0xbd92fee4	-0.07177523
110	0x3ffbec69	1.9681522
111	0x3d87b3bd	0.06626079
112	0x3f3dc496	0.7412809
113	0xbe1e137c	-0.1543712
114	0xbd631ad4	-0.055445507
115	0x4000fde4	2.0154963
116	0x3f21566f	0.6302251
117	0x3d83b56c	0.06431088
118	0x3f381708	0.7191014
119	0xbd89b0e6	-0.06723194
120	0xbda3c299	-0.07996101
121	0x3f4f98a7	0.81092304
122	0x3e83ec0a	0.2576602
123	0x3ec9c83a	0.39410573
124	0x3faad7f7	1.3347157
125	0xbeba73ac	-0.36416376
126	0x3e7ae164	0.24500042
127	0x3f9cfb68	1.2264223
128	0x3dbc56e1	0.09196258
129	0x3fc083dc	1.504024
130	0x3e461654	0.19344455
131	0x3dfbc55d	0.122935034
132	0x3fd0c678	1.6310568
133	0x3fe23748	1.767312
134	0x3e3d5992	0.184912
135	0x3fa2f0fa	1.272979
136	0x3e33a3a4	0.17542893
137	0x3f2c1fa9	0.6723581
138	0x3f276e71	0.65402895
139	0x3e7023aa	0.23451105
140	0x3f24b98d	0.6434563
141	0x3fde7232	1.73786
142	0x3dd74080	0.10510349
143	0x3f9512dd	1.1646382
144	0x3fd710b9	1.6801978
145	0x3e8d16ef	0.2755656
146	0x3e923d4e	0.28562397
147	0x3ea970d3	0.3309389
148	0x3fb53ce3	1.4159206
149	0x3fe3184c	1.774179
150	0x3f3306cc	0.69932246
151	0x3e451180	0.19244957
152	0x3f684f1b	0.90745705
153	0xbd6fbc20	-0.05852902
154	0x3e517bff	0.20457457
155	0x3f5c96f0	0.8616781
156	0x3e168849	0.14700426
157	0x3eef9d3e	0.46799654
158	0x3fdc9701	1.7233583
159	0x3dafe6e4	0.08588961
160	0x3f16b28a	0.5886618
161	0x3fc731f9	1.5562125
162	0x3da1c28f	0.07898437
163	0x3f28c715	0.65928775
164	0x3eadba7b	0.33931336
165	0x3f1b867f	0.607521
166	0x3fedd70b	1.8581251
167	0x3f9dd8c0	1.2331772
168	0xbda1fe64	-0.07909849
169	0x3f8ab78e	1.0837266
170	0xbce2f568	-0.02770491
171	0x3f357293	0.7087795
172	0x3f245930	0.6419859
173	0x3d57d453	0.052692723
174	0x3f501492	0.8128139
175	0x3fc2517c	1.5181117
176	0xbdb5962c	-0.08866534
177	0x3f1fb96f	0.62392324
178	0x3fd85326	1.6900375
179	0x3ed0cfb4	0.40783465
180	0x3f508ef8	0.81468153
181	0x3e850e74	0.2598759
182	0x3f5ad19e	0.854761
183	0x3fda4732	1.7052977
184	0x3f9d5ec9	1.2294551
185	0xbe5e5ab7	-0.21714292
186	0x3fbb2961	1.4622003
187	0xbd2657bc	-0.040611014
188	0x3ea5d9d8	0.32392764
189	0x3f50f1d9	0.8161903
190	0x3cd4fa22	0.025998179
191	0x3e031cfd	0.12804027
192	0x3fbc05e5	1.4689299
193	0x3d9156a2	0.07096602
194	0x3f24f514	0.6443646
195	0x3fb3d964	1.4050717
196	0x3d44b413	0.048023295
197	0x3f7eff7d	0.99608594
198	0x3f08ddcc	0.53463435
199	0x3f094fcb	0.5363738
200	0x3fc2ea8b	1.5227827
201	0x3f1d7ca5	0.6151832
202	0x3d39f7f8	0.045402497
203	0x3fab8dfd	1.3402706
204	0xbd492b04	-0.04911329
205	0xbe8ff8c4	-0.2811948
206	0xbf84d428	-1.0377245
207	0xbdad1b29	-0.08452446
208	0xbeb06b45	-0.3445684
209	0xbfb80188	-1.4375467
210	0x3eba13ee	0.3634333
211	0x3fa86cea	1.3158238
212	0xbfc46d54	-1.5345864
213	0x3e9c4bdd	0.3052663
214	0x3f951db3	1.1649688
215	0x3f5c6257	0.86087555
216	0x3f9080bf	1.128929
217	0xbfe62f85	-1.7983252
218	0x3fd3beb2	1.654257
219	0x3d17cf08	0.037062675
220	0x3f95b887	1.1696938
221	0xbe0570f4	-0.1303137
222	0xbe55fc0d	-0.20896931
223	0x3f2d759a	0.6775757
224	0x3db9da1b	0.090748034
225	0x3f36d52e	0.71419036
226	0x3f950672	1.1642592
227	0x3e9b22e5	0.3030006
228	0x3fb2f1ec	1.3980079
229	0x3fbaf7e6	1.4606903
230	0x3ef222d4	0.47292197
231	0x3d0698d0	0.032860577
232	0x3f36c2f4	0.71391225
233	0x3fd31608	1.6491098
234	0x3f8e1cdc	1.1102557
235	0xbd2ce635	-0.04221173
236	0xbe5f4328	-0.21802962
237	0x3fa69259	1.3013412
238	0xbc4efdf0	-0.012633786
239	0x3ea064f0	0.3132701
240	0x3eed08f0	0.4629588
241	0x3e9119d6	0.28340024
242	0x3f3667d0	0.71252155
243	0x3e2734e0	0.16328764
244	0x3f1e3462	0.6179868
245	0x3f945b64	1.159039
246	0x3dd5ccdd	0.10439465
247	0x3e722318	0.236462
248	0x3f878201	1.0586549
249	0x3f44015c	0.76564574
250	0x3fa2b27f	1.2710723
251	0xbdd65347	-0.10465103
252	0x3fd73751	1.6813756
253	0xbcb03fc0	-0.021514773
254	0x3fd56153	1.6670326
255	0x3d422e18	0.04740724

linear1.bias f4 [128]
0	0x4019f8ea	2.4058175
1	0x400763e4	2.1154718
2	0x3fe70db1	1.8051053
3	0x3fc8a0ea	1.5674107
4	0x402cd683	2.7005928
5	0x401597f3	2.3373992
6	0x40086226	2.1309905
7	0x40065774	2.0990877
8	0x4014b881	2.3237612
9	0x401d4023	2.4570396
10	0x4025da3f	2.5914457
11	0x40076e09	2.116091
12	0x3fbebac7	1.490075
13	0x400742bf	2.1134489
14	0x401c012a	2.437571
15	0xbe8f1169	-0.2794297
16	0x4002ee19	2.0457823
17	0x401a94ce	2.4153323
18	0x4009e866	2.1548095
19	0x3ff0f666	1.8825195
20	0x3fdf4108	1.7441721
21	0x3ff69f14	1.9267297
22	0x3fe6f24b	1.8042692
23	0x3fac2a7a	1.3450463
24	0x3fbf1ca3	1.4930614
25	0x3fc721f1	1.5557233
26	0x40273220	2.6124344
27	0x3fe7c8b6	1.8108127
28	0x400a9207	2.1651628
29	0x4028ebe6	2.639398
30	0x401b800f	2.429691
31	0x4004f335	2.0773442
32	0x3fe52f29	1.7905017
33	0x3fc56906	1.5422676
34	0x3fb1cca5	1.3890578
35	0x401d5f6b	2.4589489
36	0x4013203f	2.2988431
37	0x3fd05f83	1.6279148
38	0x4012798a	2.2886682
39	0x400d3f9f	2.2070081
40	0x40154782	2.3324895
41	0x3fe7db87	1.811387
42	0x400b99b5	2.1812565
43	0x400e3ec9	2.222582
44	0x4019228d	2.3927338
45	0x3fe95d7d	1.8231655
46	0x3ffd62a5	1.9795729
47	0x3fdd8faa	1.7309468
48	0x4024352c	2.5657454
49	0x3f91fa45	1.1404501
50	0x4028d6a3	2.6381004
51	0x3f92fde3	1.148373
52	0x3fc5b457	1.544566
53	0x3fe29a28	1.7703295
54	0x3fe215cc	1.7662902
55	0x3fa43b96	1.2830684
56	0x3fe8fe01	1.8202516
57	0x3f683b5c	0.90715575
58	0x4007ccd7	2.1218774
59	0x4019af7b	2.4013355
60	0x3facdeb4	1.3505464
61	0x40114477	2.2698038
62	0x3f78728c	0.97049785
63	0x400a635a	2.162314
64	0x3fe47cb4	1.7850556
65	0x401c5899	2.4429076
66	0x3fb4cf6c	1.41258
67	0x3fa76dc5	1.3080374
68	0x3fc9acd6	1.575587
69	0x401cbdbd	2.4490807
70	0x402dbcbe	2.714645
71	0x3ff253a2	1.8931773
72	0x40201fa3	2.501931
73	0x400d9884	2.2124338
74	0x40191dfa	2.3924546
75	0x40092571	2.1429102
76	0x40009a22	2.0094075
77	0x400d1b39	2.2047865
78	0x400201bb	2.0313556
79	0x3fe110c6	1.7583244
80	0x401cc3ae	2.4494433
81	0x3faab197	1.3335446
82	0x402b2c6f	2.674587
83	0x4002fe6a	2.0467782
84	0x3f9be3a9	1.2178851
85	0x3fe9ce1c	1.8266025
86	0x4013ec4d	2.3112977
87	0x3fea52f7	1.8306569
88	0x400f9737	2.2436044
89	0x402480f2	2.5703702
90	0x4014d07a	2.3252244
91	0x401943f8	2.3947735
92	0x3fd6db4e	1.6785676
93	0x400c9df2	2.1971402
94	0x40087ded	2.132686
95	0x3fce80af	1.6133021
96	0x402bfce1	2.6873095
97	0x3fcb3a5d	1.5877186
98	0xbe6b7707	-0.22994624
99	0x4002ab8f	2.041721
100	0x401fbfa5	2.496072
101	0x3fd09244	1.6294637
102	0x3fb268cd	1.3938233
103	0x40157347	2.335161
104	0x3fd33867	1.6501588
105	0x3ff8588b	1.9402021
106	0x3fdc7bb9	1.7225257
107	0x401ab4ed	2.4172928
108	0x40053d9b	2.081885
109	0x4012ce32	2.2938352
110	0x400d2212	2.2052045
111	0x3facc4e8	1.3497591
112	0x400eafd8	2.2294827
113	0x401bcb27	2.4342744
114	0x3f9ba81c	1.2160678
115	0x4004ce51	2.0750926
116	0x40025a85	2.0367749
117	0x401e3aa1	2.4723284
118	0x3fc00c84	1.500382
119	0x3fcf70a5	1.6206251
120	0x4002bb64	2.0426874
121	0x401e85b9	2.4769118
122	0x3fe653bc	1.7994304
123	0x3fc0de95	1.5067927
124	0x400abc49	2.167742
125	0x40226eac	2.5380049
126	0x40167d69	2.3514044
127	0x3fe166cb	1.7609495

linear2.weight f4 [5, 128]
0	0xbf566c74	-0.83759236
1	0xbf3d48eb	-0.7393939
2	0xbf04310c	-0.5163734
3	0xbf01a833	-0.50647277
4	0xbf48ed2d	-0.784869
5	0xbf1975d6	-0.5994543
6	0xbf34a3ea	-0.70562613
7	0xbf507b1d	-0.81437856
8	0xbf308b72	-0.68962777
9	0xbf4dfb08	-0.8046117
10	0xbf5ace6e	-0.85471237
11	0xbf4c4741	-0.79796225
12	0xbed01c2e	-0.406465
13	0xbf3e0a63	-0.742346
14	0xbf20c81a	-0.6280533
15	0x3d397fe6	0.04528799
16	0xbf47c253	-0.7803089
17	0xbf43388c	-0.7625816
18	0xbf1a3ed4	-0.6025212
19	0xbf4b2db6	-0.79366624
20	0xbf29a131	-0.66261584
21	0xbf3605fa	-0.7110287
22	0xbf14d5ad	-0.58138543
23	0xbee90ded	-0.45518437
24	0xbf26d5dd	-0.6517008
25	0xbefe7f27	-0.49706385
26	0xbf4f788a	-0.81043303
27	0xbec7f2eb	-0.3905252
28	0xbf418fbe	-0.7560996
29	0xbf3a7672	-0.72836983
30	0xbf3fc53a	-0.7491032
31	0xbf60b897	-0.8778166
32	0xbf24f253	-0.6443226
33	0xbf2c5bee	-0.67327774
34	0xbef433d8	-0.47695804
35	0xbf362474	-0.71149373
36	0xbf3bf87b	-0.73426026
37	0xbee7edfd	-0.45298758
38	0xbf40fe84	-0.7538836
39	0xbf54363d	-0.8289526
40	0xbf3b0c8d	-0.73066026
41	0xbf33e54d	-0.7027176
42	0xbf50bfb2	-0.81542504
43	0xbf308f69	-0.68968827
44	0xbf3eb390	-0.7449274
45	0xbf26c55e	-0.6514491
46	0xbf3932ff	-0.7234344
47	0xbf2315d7	-0.637052
48	0xbf4327d1	-0.7623263
49	0xbeb43163	-0.3519393
50	0xbf48d786	-0.7845386
51	0xbee303d6	-0.44338864
52	0xbef87480	-0.48526382
53	0xbf3b31dd	-0.7312296
54	0xbf2f297f	-0.68422693
55	0xbec184ab	-0.3779653
56	0xbf1eb543	-0.61995333
57	0xbec0ff13	-0.37694606
58	0xbf37ffe4	-0.71874833
59	0xbf463a8d	-0.7743309
60	0xbee96d10	-0.4559102
61	0xbf806072	-1.0029433
62	0xbebe16a4	-0.37126648
63	0xbf44faea	-0.76945364
64	0xbefaec8b	-0.49008593
65	0xbf3d78a9	-0.7401224
66	0xbefe221d	-0.496354
67	0xbeb85eb1	-0.36009744
68	0xbec58bd7	-0.38583252
69	0xbf4bedc9	-0.79659706
70	0xbf57a68d	-0.8423851
71	0xbf2deb3c	-0.67937064
72	0xbf429aa6	-0.76017225
73	0xbf42c460	-0.76080894
74	0xbf468251	-0.775426
75	0xbf3231b2	-0.6960708
76	0xbf30323f	-0.6882667
77	0xbf2098f7	-0.62733406
78	0xbf446036	-0.76709306
79	0xbf30d028	-0.6906762
80	0xbf4beefe	-0.7966155
81	0xbedc5154	-0.43030798
82	0xbf237066	-0.6384338
83	0xbf6b1d52	-0.91841614
84	0xbed18550	-0.40922022
85	0xbf2f311e	-0.6843432
86	0xbf297d46	-0.6620678
87	0xbf1c6ef9	-0.6110683
88	0xbf298260	-0.6621456
89	0xbf2dfd66	-0.6796478
90	0xbf5ac531	-0.8545714
91	0xbf4ee8d9	-0.8082405
92	0xbf00020d	-0.5000313
93	0xbf28026d	-0.656287
94	0xbf2bbc93	-0.67084616
95	0xbf4c5eae	-0.7983197
96	0xbf44d54f	-0.76887983
97	0xbf1cbb55	-0.61223346
98	0x3ddc42f9	0.107549615
99	0xbf309987	-0.68984264
100	0xbf45a59f	-0.7720584
101	0xbf062ad7	-0.5240912
102	0xbf11ef22	-0.5700551
103	0xbf2fb660	-0.6863766
104	0xbf2921e8	-0.6606736
105	0xbf3fa6c5	-0.74863845
106	0xbf48f843	-0.7850382
107	0xbf3b677d	-0.73204786
108	0xbf4840a6	-0.78223646
109	0xbf3735e8	-0.7156663
110	0xbf30cee2	-0.6906568
111	0xbf066f6d	-0.5251377
112	0xbf2f1e10	-0.68405247
113	0xbf4b0823	-0.7930929
114	0xbee8ed3f	-0.45493504
115	0xbf3a3f4f	-0.7275285
116	0xbf41a341	-0.7563973
117	0xbf57d45d	-0.84308416
118	0xbef2f612	-0.47453362
119	0xbf211642	-0.6292459
120	0xbf262f2b	-0.6491572
121	0xbf2963b0	-0.66167736
122	0xbf2edc8a	-0.68305266
123	0xbf20e052	-0.62842286
124	0xbf42e22d	-0.76126367
125	0xbf1e8a20	-0.6192951
126	0xbf3fb877	-0.74890846
127	0xbf5954a7	-0.84894794
128	0xbec76611	-0.38945058
129	0xbc3e5bf8	-0.011618607
130	0x3dd822b2	0.105534926
131	0xbe4a9d71	-0.19786622
132	0xbe7e323f	-0.24823855
133	0xbea41238	-0.3204515
134	0xbe492b8b	-0.19645517
135	0xbe8155f2	-0.25260884
136	0xbe9ba9d0	-0.30402994
137	0xbea08447	-0.3135092
138	0xbefdeaf4	-0.49593318
139	0xbe5faa03	-0.21842198
140	0xbe97bba4	-0.29635346
141	0xbe366ad5	-0.1781419
142	0xbe6d4da3	-0.23174147
143	0xbd1ee2a3	-0.038790356
144	0xbe83c1b0	-0.2573371
145	0xbdd97df0	-0.10619724
146	0xbe6c082a	-0.2304999
147	0xbdf86e6c	-0.12130436
148	0xbe31536b	-0.17316978
149	0xbea42279	-0.3205755
150	0xbe36d940	-0.17856312
151	0xbe377860	-0.17917013
152	0xbe04d0a5	-0.12970217
153	0xbecc006f	-0.3984408
154	0xbe908e77	-0.28233692
155	0xbe49e8ba	-0.19717684
156	0xbe44e411	-0.19227625
157	0xbe8dd4ea	-0.27701503
158	0xbe95a859	-0.29230002
159	0xbe94fe81	-0.2910042
160	0xbe729baa	-0.23692194
161	0xbe730a28	-0.23734343
162	0xbebc0c8f	-0.3672833
163	0xbe5eff7e	-0.2177715
164	0xbe922070	-0.28540373
165	0xbe8b4da0	-0.2720766
166	0xbe7cde86	-0.24694261
167	0xbe3abfe8	-0.18237269
168	0xbe8a8723	-0.27056226
169	0xbe3e29fd	-0.18570705
170	0xbe6863dd	-0.22694345
171	0xbe82c202	-0.2553864
172	0xbe40973a	-0.18807688
173	0xbd52e816	-0.051490866
174	0xbe17774d	-0.14791603
175	0x3d7ce1d9	0.061738823
176	0xbe4f1e97	-0.20226513
177	0xbe124fc4	-0.1428824
178	0xbe471e1a	-0.19445077
179	0xbe8a0454	-0.26956427
180	0xbe09ad1c	-0.13444942
181	0xbe620370	-0.22071624
182	0xbe0d9d09	-0.13829435
183	0xbe80a9af	-0.25129458
184	0x3ad610c7	0.0016331904
185	0xbe434146	-0.19067869
186	0xbe3ae380	-0.18250847
187	0xbe1c955f	-0.15291356
188	0xbda107a9	-0.07862789
189	0xbeca4f66	-0.395137
190	0xbd7dde30	-0.061979473
191	0xbe15dced	-0.14635058
192	0x3da4d137	0.08047717
193	0xbe709007	-0.23492442
194	0xbea82ec4	-0.3284818
195	0x3e631b88	0.22178471
196	0xbe30b99f	-0.17258309
197	0xbe146871	-0.14492966
198	0xbea162ba	-0.31520635
199	0xbe957482	-0.2919045
200	0xbe9081a8	-0.2822392
201	0xbe1d3d8e	-0.15355512
202	0xbe76510a	-0.24054351
203	0xbe6a9ccd	-0.22911377
204	0xbea352b2	-0.3189903
205	0xbe467a29	-0.19382538
206	0xbe1604a9	-0.14650215
207	0xbe10b721	-0.14132358
208	0xbebd5a3c	-0.36982906
209	0xbe7ac3f1	-0.24488808
210	0xbe781c7c	-0.24229616
211	0xbead040f	-0.3379216
212	0xbe20b2be	-0.15693185
213	0xbdc470ff	-0.09591865
214	0xbdf7c7f0	-0.12098682
215	0xbd7581b0	-0.059938133
216	0xbeb44cef	-0.35214946
217	0xbe041811	-0.12899806
218	0xbeff8258	-0.49904132
219	0xbe897535	-0.26847234
220	0xbe518340	-0.20460224
221	0xbeaf3b00	-0.342247
222	0xbe42d1c1	-0.19025327
223	0xbebf737b	-0.37392792
224	0xbe93eb67	-0.28890535
225	0xbea107fe	-0.3145141
226	0x3db61fd1	0.08892787
227	0xbdd942e6	-0.10608463
228	0xbe86a34d	-0.26296464
229	0xbe51f652	-0.2050412
230	0xbeb97d9e	-0.3622865
231	0xbe49f2cd	-0.19721527
232	0xbe0cc61f	-0.13747452
233	0xbea9e545	-0.3318273
234	0xbe281408	-0.16413891
235	0xbe472efa	-0.19451514
236	0xbe900969	-0.2813218
237	0xbe660f47	-0.22466765
238	0xbe8ae711	-0.27129415
239	0xbe668ccc	-0.22514647
240	0xbe69171a	-0.22762719
241	0xbde51000	-0.111846924
242	0xbe837233	-0.25673065
243	0xbe051748	-0.12997162
244	0xbe41efe2	-0.18939164
245	0xbea0a27b	-0.31373963
246	0xbe8e3aa6	-0.2777912
247	0xbda329e3	-0.07966974
248	0xbea508f9	-0.32233408
249	0xbe488a29	-0.19583954
250	0xbe419440	-0.18904209
251	0xbebd2ea0	-0.36949635
252	0xbe37f59e	-0.1796479
253	0xbe750684	-0.23928267
254	0xbe52bcdc	-0.20579857
255	0xbe6f9f65	-0.23400648

linear2.bias f4 [5]
0	0xbf1ce4fd	-0.6128691
1	0xbdc9b8e9	-0.09849722
2	0x3f8e9a42	1.1140826
3	0x3f8cd1ee	1.1001565
4	0x3f96c20b	1.1777967
