examples/minecraft/model/model.pth (torch, 13632 bytes, 4 tensors)

linear1.weight f4 [128, 17]
000000 ba 5f 4d 3e 70 00 10 3d cb 36 99 3e 88 5a 80 3d
       0.20056048 0.035156667 0.29924616 0.062672675
000010 68 b1 43 be 80 94 fc 3d f0 e9 50 3e 9a 72 d6 bd
       -0.19110644 0.123330116 0.2040174 -0.10471077
000020 76 32 07 be ea 3b 1f be 9a 33 d1 3d ea 4a a6 3e
       -0.13202843 -0.15550199 0.1021492 0.3247903
000030 c3 02 61 bd d9 a6 08 be b5 21 81 3e 24 a9 1f 3e
       -0.054934274 -0.13344897 0.2522103 0.15591866
000040 75 1d aa 3e 40 a7 55 3b dc 0c f3 bd 58 e9 3b be
       0.332256 0.003260091 -0.11867687 -0.18350732
000050 c7 f9 0e be 5e ba 4a 3e 02 a0 0f be 4a 8b 4a be
       -0.1396247 0.19797656 -0.14025882 -0.19779697
000060 77 bd a4 3e f9 5d 6b 3d 00 0c 61 bd c1 b7 5c 3e
       0.321758 0.057462666 -0.054943085 0.21554472
000070 d1 60 11 be 3d 85 73 3e 5a 08 06 3e f9 29 7c 3e
       -0.14197089 0.23781295 0.13089123 0.24625386
000080 8e d4 44 3e 42 40 2c 3e 70 32 9d bd b0 4f d0 bd
       0.19221708 0.16821387 -0.07675636 -0.10171449
000090 58 67 5e be 0c e4 5f be 3e 29 48 be 3e be 35 be
       -0.2171911 -0.21864337 -0.19546983 -0.17748353
0000a0 a0 e5 90 bc d6 24 82 3e f2 ce 44 be a5 d9 4c be
       -0.017687619 0.2541873 -0.19219568 -0.200049
0000b0 37 b9 ac 3e 94 11 a5 3c 1b e6 3f be 9b 5b 2f be
       0.33735058 0.020149983 -0.18740122 -0.17124788
0000c0 52 c0 ce bd ec 9f cb 3d f6 37 47 be 8c 76 bf 3d
       -0.10095276 0.09942612 -0.19454941 0.09348783
0000d0 88 2c b1 bc b0 70 4c be de d4 43 3e 58 3f a4 3d
       -0.02162768 -0.19964862 0.19124171 0.08019894
0000e0 90 67 4a be b0 a3 f2 3c e9 ba 3f be 60 b9 08 3d
       -0.19766068 0.029619068 -0.18723644 0.033379912
0000f0 f0 8b 08 bd 5f 06 94 3e 45 ec 38 be c8 52 50 3e
       -0.03333658 0.2891111 -0.1805888 0.20344079
000100 3e 9a 6d be 48 eb fd 3d c8 d2 64 3d b1 2c 3a be
       -0.2320337 0.12398392 0.05586508 -0.18181111
000110 f6 c4 35 3e 22 7f 40 3e d0 56 99 bc 32 53 b0 bd
       0.17750916 0.18798497 -0.018718153 -0.08609618
000120 48 1e dd 3d 88 b6 53 3d 07 29 45 be 4e 2d 30 be
       0.10796791 0.051687747 -0.19253932 -0.17204782
000130 7c ab 14 bd e8 34 1a 3e ba f6 2c be 4a 90 01 3e
       -0.036296353 0.15059245 -0.16890994 0.12652698
000140 d0 7f 6c 3e 50 e2 53 be e4 d5 e3 bd 97 e4 22 be
       0.23095632 -0.206918 -0.11124781 -0.15907513
000150 28 8a 0f be 8a a9 3b be f9 87 0b be 6e 6a 90 be
       -0.14017546 -0.18326393 -0.13626088 -0.282062
000160 b8 b5 c8 bd 4c 3c fe bd 00 e4 5a 3b 97 89 4c be
       -0.09800285 -0.124138445 0.0033400059 -0.19974361
000170 32 ae b8 3c 55 41 c5 3d 3a aa 15 3e 3d 7b a4 3e
       0.022544 0.09631602 0.14615718 0.32125273
000180 a8 f6 e9 bd e4 c0 8e 3e 98 40 04 3e cc c3 af 3e
       -0.11423999 0.2788154 0.12915266 0.3432907
000190 08 ed 67 be 48 69 41 be e0 8d 17 3e 88 4d 78 bd
       -0.22649014 -0.18887818 0.14800215 -0.060620815
0001a0 85 74 f4 3d 34 cd c3 3d 76 4b 1b be 20 3c 77 3d
       0.11936287 0.09560624 -0.15165505 0.060360074
0001b0 0c 4d 7e bd 19 cb 7c be b2 06 e2 bd 54 39 3f bd
       -0.062085196 -0.2468685 -0.11036433 -0.04668553
0001c0 95 41 d4 3d fa a0 81 3e a4 86 70 be c8 77 e6 3e
       0.10364071 0.25318128 -0.23488861 0.4501326
0001d0 68 60 ac bd c0 22 3a bc ac 81 d8 3e 3e e1 31 3e
       -0.084168255 -0.011360824 0.42286432 0.1737108
0001e0 70 5a 74 3d f8 f8 25 be 8b 75 29 be 84 73 1a be
       0.05965656 -0.16208255 -0.16548745 -0.15083128
0001f0 39 ba 3d be 86 4c 84 bd 25 9e 3d 3e 40 84 1b 3d
       -0.1852807 -0.06459908 0.18517359 0.03796792
000200 ca 4c ac bd 93 c7 80 3d 23 d0 7d bd a5 86 40 3d
       -0.08413084 0.06288066 -0.061966073 0.047003407
000210 3d a7 34 be ac 32 0a be fe 7e 02 3e e0 f4 e8 bd
       -0.17641921 -0.13495892 0.12743756 -0.11374831
000220 1c 2f 41 3e 54 4a 3b be cc 30 ab 3d 28 70 46 3d
       0.18865627 -0.18290073 0.08358917 0.048446804
000230 70 c0 7d 3d 98 93 a4 bd f4 8e 8a bd ac 1a c3 3d
       0.0619511 -0.08035964 -0.067655474 0.09526572
000240 e0 f2 4f 3e 92 4f e3 bd 68 c5 e8 3d a0 e6 8c 3c
       0.20307493 -0.11099161 0.11365777 0.017199814
000250 12 89 29 3e 30 ea be 3d 44 9b 54 be 1f 37 65 be
       0.16556194 0.093220115 -0.20762354 -0.22384308
000260 40 41 2a be b3 0e 02 be e8 04 e9 bd 9c 83 35 3e
       -0.16626453 -0.1270092 -0.11377889 0.17725986
000270 d8 9c 05 be f0 fe ab 3c 07 e5 58 be f8 b9 26 3e
       -0.13048112 0.020995587 -0.21181117 0.16281879
000280 95 e3 9a 3d 2f 08 4b 3e 14 3b 48 be 30 ec 66 3d
       0.07562939 0.1982734 -0.19553787 0.05637759
000290 73 f0 5b 3e 4f c7 1a 3e 52 69 b9 3e bd d3 4a be
       0.21478443 0.15115093 0.36213166 -0.19807334
0002a0 c8 7f 0c 3d 48 c4 0f 3e d0 e7 13 3e 84 90 73 3e
       0.03430155 0.14039719 0.14443898 0.23785597
0002b0 60 7f dd bd 5c 5d ca 3d f6 13 03 3e 30 06 b9 3d
       -0.108153105 0.09881088 0.12800583 0.09034383
0002c0 f8 69 19 bd 68 da 65 be 83 14 ab bd 26 1c 13 be
       -0.037454575 -0.22446597 -0.08353522 -0.14366207
0002d0 16 6a 19 be e1 2f e5 3d 65 67 3b be 85 2e 2d 3e
       -0.14981875 0.11190773 -0.1830116 0.16912277
0002e0 e6 10 2b 3e ba 96 26 be fa 3f 6a 3e 74 53 ad bd
       0.16705665 -0.16268435 0.22875968 -0.08463183
0002f0 24 6a 50 bd ea e5 83 3e 68 54 33 3d 78 1a cb 3d
       -0.050882474 0.25761348 0.043781668 0.09917158
000300 b7 09 f1 bd 9e 05 59 3e e9 67 f2 bd 24 bd af 3d
       -0.11769431 0.21193549 -0.118362255 0.085809976
000310 5a 99 61 3e 65 f7 40 3e a0 e1 d8 3c 63 ee ad 3d
       0.22031155 0.18844374 0.026474774 0.08492734
000320 1c ae 20 be ee f8 37 be 88 31 38 3d fc b4 33 be
       -0.15691417 -0.17966053 0.04496911 -0.17549509
000330 c6 61 c3 bd 8c a5 5e 3e 62 0e 24 3e 20 82 70 bd
       -0.09540133 0.21742839 0.16021112 -0.058717847
000340 bc 24 9d bd cf 2c 71 be ba c2 1c be 6c 06 93 3e
       -0.07673022 -0.2355225 -0.15308657 0.28715837
000350 a8 42 96 3d c4 92 bb bd f6 86 87 3e 97 d3 09 be
       0.073369324 -0.09158853 0.26470155 -0.13459621
000360 2a 88 73 3e 9a f5 69 ba 43 a2 4e be 20 7c 06 3c
       0.23782411 -0.0008924842 -0.20179085 0.008208305
000370 52 fd 0a 3d bc bd 6c be 36 18 75 3e 82 70 0b be
       0.03393299 -0.23119253 0.23935017 -0.13617137
000380 2c ff 8b bd 90 80 5e bc 80 a4 92 3a da bf 4e 3e
       -0.068357795 -0.013580456 0.0011187941 0.20190373
000390 3d 21 27 3e 30 1f 95 3c b0 d8 04 3e e8 5f 89 bc
       0.16321273 0.018203348 0.12973285 -0.016769364
0003a0 fe fd 8d 3e 00 6b bd 3c 4a 90 1a be 8d 2b 41 be
       0.27732843 0.02312231 -0.15094104 -0.1886427
0003b0 e8 ba 46 bd 56 63 06 3e 28 7c 2e 3e 68 b4 33 be
       -0.04851809 0.13123831 0.1703955 -0.17549288
0003c0 b3 e7 7e 3e 3a 3b 32 be 94 b8 37 be 00 2a 72 ba
       0.24893074 -0.17405406 -0.17941505 -0.0009237826
0003d0 f4 62 a2 3d 6d 1f 20 be 01 d6 25 be 6c 9e 33 be
       0.0792903 -0.15636988 -0.16194917 -0.17540902
0003e0 b5 05 25 3d 45 f5 7f 3e 04 51 af bc a7 3c 95 3d
       0.040288646 0.24995907 -0.021400936 0.07286959
0003f0 80 43 86 be 7c 5e e0 bd 8e 79 88 3e c8 86 d9 bc
       -0.26223373 -0.109555215 0.2665524 -0.026553527

linear1.bias f4 [128]
000000 d3 38 b7 3d d6 68 c3 3e a4 f6 28 3e 50 a2 9e bd
       0.08946385 0.3816592 0.16500336 -0.077458024
000010 3e 31 e9 3b 0a 9e 9a 3e 01 67 79 3e ef cc 32 3e
       0.007116466 0.301987 0.24355699 0.17460988
000020 ee a8 67 be 2d e5 84 3e 0f 2b 32 bd a1 d8 ec 3d
       -0.22623035 0.25956097 -0.043498095 0.11564756
000030 6e c6 b1 3d 91 58 da bd 86 be 1b 3e d4 bd 66 3e
       0.086804256 -0.10661424 0.15209398 0.22533351
000040 00 79 25 3e 55 e6 5a be 21 8f ee bd 98 ae a6 3e
       0.16159439 -0.21376927 -0.116483934 0.3255508
000050 b2 49 77 3e 42 29 50 3c 3a ff a0 3e e4 34 8c 3d
       0.24149206 0.012705149 0.31444722 0.068460256
000060 0b e1 25 3d d1 c1 82 3e 1e aa 4d 3e 0e 20 9d bd
       0.04049782 0.25538495 0.20084426 -0.076721296
000070 dd 26 b3 3d e5 34 81 3e 56 59 50 3e bc 8b 31 3d
       0.08747647 0.25235668 0.20346579 0.04334615
000080 7e 7a 99 bd a6 c4 b9 3c a5 37 24 3e 0d 24 5c 3e
       -0.07494067 0.022676777 0.16036852 0.21498127
000090 b6 37 5f 3e 42 82 69 be f3 c0 67 3e a0 43 20 be
       0.21798596 -0.22803596 0.22632198 -0.15650797
0000a0 4e 79 17 3e 27 3a a7 3e 31 93 ad bc 90 8c 26 be
       0.14792368 0.32661554 -0.02118835 -0.16264558
0000b0 23 a0 c5 3c 43 aa 5e 3e 7a d1 35 be 12 7c da bb
       0.02412421 0.21744637 -0.1775569 -0.0066676224
0000c0 35 51 8b 3e 25 46 5e be 1f bc 4a be 96 15 5c 3e
       0.27210394 -0.21706446 -0.19798325 0.2149261
0000d0 13 7e c8 3d d3 33 dc 3d 8e 4a 4d 3e e3 03 80 3c
       0.09789672 0.10752072 0.20047972 0.015626853
0000e0 08 97 64 be 26 d3 a0 3e fe 55 2f 3e a3 56 63 be
       -0.22323239 0.31411093 0.17122647 -0.22201018
0000f0 62 f9 e3 3b 24 8a 28 3d a1 92 3a 3e e7 85 3b 3d
       0.006957219 0.041147366 0.18219997 0.045781996
000100 e2 74 6c bd d9 f9 1c bd 4b 23 6c bd b4 9b 3e 3e
       -0.057728656 -0.03832421 -0.057650845 0.18614084
000110 66 21 98 3e 49 06 70 be 9a 43 fe 3d 15 3e 82 bd
       0.2971298 -0.23439898 0.12415238 -0.063594975
000120 f6 7d 6b bd 44 89 59 bb b2 e9 61 3e 3e cd 26 3e
       -0.057493173 -0.003319339 0.22061804 0.16289231
000130 94 a7 51 be cf 80 5c be eb 0f 9e 3d 26 de 36 3e
       -0.20474082 -0.21533512 0.0771788 0.1785818
000140 b4 39 10 3e fb 97 92 3e 14 34 34 3c 1d 22 88 3e
       0.14084512 0.28631577 0.0109987445 0.26588526
000150 b6 5d bb bc 55 9d 3f be 64 95 a6 3e 9c 90 2f 3e
       -0.022871833 -0.18712361 0.3253585 0.17145008
000160 52 48 18 be e9 ac 14 3e e0 80 f7 3d b6 bf a3 3e
       -0.14871338 0.14519085 0.12085128 0.319822
000170 c5 89 77 be 04 1c 2b be b1 2f 60 3d e4 c3 13 be
       -0.24173649 -0.16709906 0.054732982 -0.14430195
000180 5a 24 86 3d 99 af 6b 3e 75 e3 80 3e f7 4e 9a 3e
       0.06549902 0.23016204 0.25173536 0.3013837
000190 14 dc a5 3e 0d bf a7 bd 81 b9 9a 3e ac 14 f2 bd
       0.3239447 -0.08190737 0.30219653 -0.11820349
0001a0 74 c6 64 3e 97 0b 3a 3e 30 eb 70 be 56 cd cb bd
       0.22341329 0.18168484 -0.23527217 -0.09951274
0001b0 02 77 86 3e 5f 34 c5 3d 96 84 d5 bd 89 d7 72 3e
       0.2626267 0.096291296 -0.104256794 0.23715033
0001c0 6a 5d d7 bd 51 d7 75 3d f7 fe 28 3e cd a7 84 3e
       -0.10515864 0.060019795 0.16503511 0.25909272
0001d0 5f 2c 5b be 2c b1 7b 3e f3 53 93 3e 98 2e 53 3e
       -0.21403645 0.24579304 0.28774986 0.20623243
0001e0 cb 2d cb 3d 9e ff 4e be 25 75 4b 3e 04 6e c8 3e
       0.09920844 -0.20214698 0.19868906 0.39146435
0001f0 42 13 98 3d 27 fc 71 be ec 96 05 be 09 61 52 3e
       0.07425548 -0.23631345 -0.13045853 0.20544828

linear2.weight f4 [5, 128]
000000 35 1e 24 be b8 b1 0a be ac 29 93 bd f1 04 fa 3c
       -0.16027148 -0.13544357 -0.07185683 0.030519934
000010 b0 52 82 3d b5 8c c7 ba dd e7 1c be 39 f0 90 3d
       0.06363428 -0.0015224429 -0.15322824 0.07077069
000020 96 86 5a 3d 17 98 40 bb c3 0d 11 3c 95 6a e8 bd
       0.053351007 -0.0029387528 0.008853379 -0.11348454
000030 7c 34 14 bd ab 88 cf bd fa 40 7c bd 37 07 f2 bd
       -0.036182866 -0.10133489 -0.061585404 -0.11817782
000040 a1 e4 8f bb 06 66 13 bd 39 8c ab 3d 34 77 15 be
       -0.0043912684 -0.03598597 0.08376355 -0.14596254
000050 64 d4 17 bd b6 65 24 3d 1d e3 35 be 27 55 d7 bd
       -0.037067786 0.04013606 -0.17762418 -0.105142884
000060 89 49 e2 bc cf dd 1b be 36 12 94 bd 32 7a 29 3d
       -0.027622955 -0.15221332 -0.07230036 0.0413763
000070 27 4b 99 bd 1a 65 67 bd b7 b9 0b bb d5 bc 94 3c
       -0.07485037 -0.056492902 -0.0021320411 0.018156448
000080 eb c8 ae 3c 75 f1 16 bd 2c 02 0d be 10 93 06 be
       0.02133604 -0.036851365 -0.1377036 -0.13142037
000090 50 b9 c6 bd e1 53 53 3d 56 72 1d be 48 bc 90 bd
       -0.09703314 0.051593665 -0.15375647 -0.07067162
0000a0 2d 8f b5 bd e4 69 f8 bc 30 93 a3 3d 80 d6 ea 3c
       -0.08865199 -0.03032393 0.07987058 0.028666735
0000b0 2d db b6 bd 61 52 d1 bd d8 7e 89 3c 50 66 8b bd
       -0.08928523 -0.10220791 0.016784117 -0.06806624
0000c0 87 01 47 bd f0 ad 06 bc c2 68 06 3d dd dc 7b bd
       -0.04858544 -0.008220181 0.03281475 -0.06148993
0000d0 65 47 12 be 23 27 c0 bd b6 d6 b9 3c 5e 83 b1 3c
       -0.14285047 -0.09382465 0.02268539 0.021669086
0000e0 cb f4 95 3d 15 ad 23 3c d5 0d 99 bd b3 de 8c bd
       0.07322081 0.009989996 -0.074733414 -0.06878414
0000f0 d1 ea 83 bd df 95 90 3c 7d fe 88 bd 4c ca 14 be
       -0.06441272 0.01764959 -0.06689165 -0.14530295
000100 55 eb ab 3c f1 4c 50 bc 76 a0 74 3c 94 47 06 be
       0.020986238 -0.012713657 0.014930835 -0.13113242
000110 44 63 12 be 04 83 04 bd b9 5d 7a bd 47 69 d4 bd
       -0.1429568 -0.03235151 -0.061124537 -0.103716426
000120 d5 3d 0c be 8c c4 27 be 1b 4f 2d be e1 38 e0 bd
       -0.13695462 -0.1638357 -0.16924708 -0.10948349
000130 d3 01 27 3d 41 0c 9f 3d 0b ab d9 bd 09 38 76 bc
       0.040773224 0.07766009 -0.10628327 -0.015028008
000140 fc 9e 1f bd de 69 08 be 70 d2 24 be be 4a 1a bc
       -0.03896998 -0.13321635 -0.160959 -0.009417234
000150 92 40 6c 3c 8c 14 8a 3c 61 3b 1c bd e5 6f 97 3c
       0.014419692 0.0168555 -0.038142566 0.018485973
000160 58 1d 15 3d b5 c5 e7 bc 7e 44 30 be a8 a8 21 be
       0.036404938 -0.028292516 -0.17213628 -0.15786994
000170 12 cd 5c 3d ee 32 76 3d ad b6 06 be d4 94 83 bc
       0.053906508 0.060107164 -0.13155623 -0.016062178
000180 53 2d 9c 3d 83 99 15 bc 06 4f 0e be 0c 1a cc bd
       0.076258324 -0.009130838 -0.13897333 -0.099659055
000190 70 85 f0 bd d6 4b 77 3d ac fe 92 bd 08 cd 96 3c
       -0.11744201 0.060375057 -0.07177481 0.018408313
0001a0 03 42 62 bd 43 f5 00 be d2 36 69 3d 63 04 c2 bd
       -0.055238735 -0.1259356 0.056937046 -0.09473493
0001b0 2b e2 d8 bd f2 a4 db bd 78 8b 17 be 7c e1 d1 bc
       -0.10590013 -0.1072482 -0.14799297 -0.025620215
0001c0 d5 0d c2 bc 8a f7 b5 bd 99 27 c9 bd 8b 6b 74 bd
       -0.023688236 -0.08885105 -0.09822006 -0.059672873
0001d0 18 80 11 bc 20 1c 97 bd 2c 5f 82 bd 33 f0 27 be
       -0.008880638 -0.07378411 -0.06365809 -0.16400222
0001e0 ea ca 4c bc 68 c0 d8 3c 80 38 ea bc 7e d3 38 be
       -0.01249955 0.026458934 -0.028591394 -0.18049428
0001f0 d0 09 ec ba 71 f3 29 bd d0 12 2a 3d a5 29 fe bd
       -0.0018008295 -0.04149193 0.041521847 -0.12410287
000200 0a 54 f8 bd 87 21 6a bd 19 65 0b bd 09 d8 4e 3d
       -0.12125404 -0.05716088 -0.03403196 0.050498996
000210 98 72 69 bd 97 ff 1c be e3 a3 49 be c9 cf 35 be
       -0.05699405 -0.15331875 -0.19691424 -0.17755045
000220 27 a6 38 bd ac 83 a7 bd f5 4c 22 bd 62 e4 cd bd
       -0.04508033 -0.08179411 -0.039624173 -0.10053326
000230 00 9b 73 bd 4f 00 80 bd 21 72 c6 bd 50 4c d6 bd
       -0.05947399 -0.06250059 -0.09689737 -0.10463774
000240 2c e1 a1 bd 22 78 61 3d 8a 14 07 bd cb e5 53 be
       -0.07904276 0.05504621 -0.032978572 -0.20693128
000250 77 ea 07 be 1e 4a 61 bd 02 7c 08 be d8 cb 24 be
       -0.13273035 -0.055002324 -0.13328555 -0.16093385
000260 06 2d 9e bd b8 9c 84 bd ce 88 11 bc 1a 88 a6 bd
       -0.07723431 -0.06475204 -0.008882714 -0.08131428
000270 ad 7d 8a 3c 2e 98 37 be ea 2d 18 be d3 6a 07 bd
       0.01690563 -0.17929146 -0.14861265 -0.03306086
000280 15 2a 78 bd c0 0d 25 be 1d d9 e7 bd 97 ec 0f bc
       -0.060587008 -0.16118526 -0.11320708 -0.008784435
000290 b3 e5 c8 3a 0d 95 a5 bd 63 cc d4 bd 3b 8e 87 bd
       0.0015327245 -0.0808507 -0.10390546 -0.06618925
0002a0 52 5e 85 bc 08 53 17 bd 5b 50 8f 3d d3 11 00 bd
       -0.016280327 -0.03694442 0.069977485 -0.031267
0002b0 3e 7b ce bd ab e9 26 be 0c b4 a7 bd 46 79 ec bd
       -0.100821 -0.16300075 -0.08188638 -0.115465686
0002c0 b6 3c 02 be 47 73 89 3d bc d6 06 3d ad e3 28 be
       -0.12718472 0.067114405 0.03291963 -0.16493101
0002d0 e7 d2 fa bd 85 0c 02 be c2 ba 79 bc 51 ef cb bc
       -0.12247258 -0.12700088 -0.01524228 -0.024894388
0002e0 63 ba 95 bd bc a3 a5 bd 14 05 f7 bd 27 58 66 bd
       -0.07310941 -0.080878705 -0.120615155 -0.056236412
0002f0 75 c8 a3 bd 0c e0 52 bd b8 84 e2 bd 79 d2 0f be
       -0.079972185 -0.0514832 -0.1106047 -0.14045133
000300 4d 0f 5a 3d 46 67 d6 bd 96 7e 23 bd cd 8c 24 be
       0.05323725 -0.104689166 -0.039915644 -0.16069336
000310 4c 7b 5a 3b ec bc 0d 3d ee 60 af bd 7d 35 02 be
       0.003333765 0.034603998 -0.0856341 -0.12715717
000320 f5 5e b5 bc f3 76 e5 bc 4d 1a 3c be cf 8e b5 3b
       -0.022140006 -0.028010821 -0.18369408 0.0055407058
000330 97 3f 58 bd f5 21 9f bd df 95 c7 bd cf 49 c4 bd
       -0.05279502 -0.07770149 -0.097453825 -0.0958439
000340 5c 46 93 3c 98 3c 4f be 1b 4e df 3b fb 4c d8 bd
       0.017977886 -0.20237958 0.006814731 -0.10561558
000350 31 ba 8f bd 29 f7 75 3d ae 16 cc bd df 2c 3e bd
       -0.07017935 0.060050163 -0.09965263 -0.04642951
000360 7b 99 a5 bd 10 5d 47 bd 3f 43 ca bc c5 da bb ba
       -0.08085915 -0.048672736 -0.024690269 -0.0014332166
000370 c2 99 05 3d 00 79 78 3b a8 af 6a bc bb 4f 81 3d
       0.032617338 0.0037913918 -0.014324106 0.063140355
000380 44 67 8c 3c 0c 7a f0 bd 4b 6a bd bd fc ff 1a bd
       0.017139085 -0.117420286 -0.092487894 -0.037841782
000390 ec 5b 1a be 3e 32 4a 3d 0a f0 28 be fd 07 a1 bd
       -0.15074128 0.04936432 -0.16497818 -0.07862852
0003a0 7b cb fd bd 48 4c 14 bd f0 d0 df 3b 25 86 19 be
       -0.123923264 -0.03620556 0.006830327 -0.14992578
0003b0 09 53 47 be a8 67 17 be 64 9b 4f bd f2 51 28 be
       -0.19465269 -0.14785635 -0.0506853 -0.1643751
0003c0 98 46 85 bd e7 e3 63 bd 39 2d 20 be 28 41 80 bc
       -0.06507605 -0.055637266 -0.15642251 -0.015656069
0003d0 28 ac b4 3c 4f d9 0f bd 00 31 ec bd 31 93 2d be
       0.022054747 -0.03511935 -0.115327835 -0.1695068
0003e0 b4 99 16 be a3 05 93 3d 0b 20 99 bd b8 52 22 be
       -0.1470707 0.071788095 -0.07476815 -0.15851867
0003f0 4d 85 5a bc 3e 6d e4 bc 1c 14 86 bd 0a 10 d5 bd
       -0.013337445 -0.027884122 -0.06546804 -0.1040345

linear2.bias f4 [5]
000000 1b f6 2e be f7 ba 0d bd a5 0b 03 be a6 a8 9c 3d
       -0.1708607 -0.03460213 -0.12797411 0.07649355
000010 3f 75 22 be
       -0.15865038
