examples/minecraft/model/model10.pth (torch, 59200 bytes, 4 tensors)

linear1.weight f4 [1024, 10]
-0.4001388 0.28655618 0.33449677 -0.23492889 -0.36354584 0.0911234 -0.82461876 -0.94360524
0.698828 -0.25498244 0.45151818 -1.3831493 0.1637097 -0.66509175 -0.041246407 -0.1160602
-0.34265187 0.9663593 0.04728931 0.23780537 -0.03418529 0.083711 0.12723908 -0.2242327
-0.043300718 -0.18341254 -0.0117537975 -0.07180983 0.15786067 -0.008408219 -0.10160657 -0.57634085
-0.69930744 -0.3245201 0.19130167 -0.17511907 1.026858 -1.003167 0.9828628 -0.81675136
-0.10845676 -0.18849364 -0.069859475 0.017483711 -0.10842958 -0.21342734 -0.06172961 0.2815732
0.029132098 0.05532673 0.7568853 0.08837594 0.37956467 -0.19292197 -0.009809307 0.28394803
-0.44390398 0.2570755 -1.2319615 -0.27019233 -0.13269944 -0.3955638 -0.3423017 0.21916135
-0.85211176 0.40376315 0.35740057 0.18140712 0.15789533 -0.6399206 -0.3539447 -1.7052146
0.13861537 -0.030928519 -0.14817135 -0.3517761 0.29923895 1.139427 -0.48389763 0.65962666
0.23767081 -0.051318288 -0.14651436 0.12110272 -0.21649405 -0.16747265 0.13042547 -0.29367363
-0.008405805 0.011654079 0.55627567 -0.24443464 -0.4922245 0.44092914 0.014132829 -0.27872628
0.53173107 0.23657049 -0.19030982 -0.28507245 0.22001079 0.49347925 -0.21051693 -0.74772024
-0.071031876 0.042519525 -0.45849147 -0.7542211 0.6717849 -0.5758095 0.17387092 0.38800427
0.9482604 -0.3345127 0.15980749 0.16358946 -0.37303123 0.08938388 0.40613008 -0.79817826
-0.38967723 0.057229053 -1.4515734 -0.02198748 -0.57278585 0.39716506 -0.09714619 0.8706467
0.937515 0.7763319 0.19968186 -0.09691729 0.07852175 0.49381387 -0.41156134 0.23847452
0.6538141 0.40678662 -0.14489104 -0.86451834 0.7004851 -0.48051205 -0.286388 0.07563868
-0.2751774 -0.119351625 0.57851154 0.3628567 0.08979652 -1.0400462 0.2821706 -0.32025802
-0.10210243 0.021883942 0.049010284 -0.03577229 0.5164879 0.45422953 -0.12806246 -0.41656572
0.22597232 -0.15459627 -0.30298018 0.15907538 0.12493107 -0.28150788 0.08811337 -0.23240358
-0.12350513 -0.0032960176 0.5643309 -1.1284695 -0.3522783 -0.4679996 -0.35291362 -0.35837242
-0.0017645257 0.8263785 0.2498932 -0.27611196 -0.8670846 0.4327153 -0.5779557 0.87684846
0.05416198 0.24349631 -0.081608 -0.77179515 -0.13792673 0.2918801 -0.20573172 0.754968
0.26998085 0.29295668 0.14708354 0.068483315 -0.98063457 -1.1209712 0.8211751 -0.12527838
-0.31291503 0.7465099 0.29829884 0.14374562 -0.21615581 -0.518829 -0.23349771 0.053005863
-0.2833748 0.10920121 0.2687432 -0.94641995 -0.3085173 -0.43024597 -0.060964692 -0.51469827
-0.26370057 0.45340496 0.5357236 -0.37122437 -0.620897 -0.09025923 1.0322926 -0.58778423
0.9210847 0.13999836 -0.83247656 0.2131348 -0.38758063 -0.11213663 0.44652322 -0.29145503
-0.44409123 0.22139817 -0.15310444 0.111817576 0.5874056 0.38832685 0.14543803 -1.1083676
-0.0067156553 -0.24893203 -0.29032478 0.25556722 0.0052883625 -0.120571375 0.16515175 -0.00025755167
-0.0698012 -0.11248022 0.48976845 0.8755406 0.15735832 0.048157036 0.009384007 0.40092993
00000000: fede ccbe 7eb7 923e 2943 ab3e 3391 70be
00000010: ae22 babe e89e ba3d 371a 53bf 1d90 71bf
00000020: 64e6 323f 0f8d 82be 642d e73e 090b b1bf
00000030: 84a3 273e 7443 2abf fef1 28bd f8b0 edbd
00000040: 1170 afbe 5363 773f 6fb2 413d 4083 733e
00000050: e005 0cbd ac70 ab3d f64a 023e 429d 65be
00000060: 185c 31bd 7fd0 3bbe 0093 40bc 0811 93bd
00000070: 3aa6 213e a0c2 09bc 1b17 d0bd 138b 13bf
00000080: d005 33bf 8027 a6be 96e4 433e 6a52 33be
00000090: 1570 833f c767 80bf e59c 7b3f 9e16 51bf
000000a0: 941e debd 7a04 41be 7c12 8fbd 003a 8f3c
000000b0: 5410 debd b28c 5abe 30d8 7cbd 5d2a 903e
000000c0: 70a6 ee3c 489e 623d 3cc3 413f 72fe b43d
000000d0: 4d56 c23e 568d 45be 37b7 20bc a361 913e
000000e0: 6247 e3be 669f 833e eab0 9dbf a656 8abe
000000f0: 5de2 07be 5787 cabe 2b42 afbe d56b 603e
00000100: ff23 5abf 0bba ce3e 35fd b63e cac2 393e
00000110: 50af 213e d6d1 23bf 3d38 b5be 7944 dabf
00000120: 30f1 0d3e ce5d fdbc 3bba 17be ff1b b4be
00000130: d935 993e bed8 913f 6ec1 f7be 4bdd 283f
00000140: fa5f 733e 2033 52bd dc07 16be b404 f83d
00000150: 9eb0 5dbe f37d 2bbe 418e 053e 645c 96be
00000160: 80b8 09bc c0f0 3e3c 1568 0e3f 134d 7abe
00000170: da04 fcbe 77c1 e13e 628d 673c 36b5 8ebe
00000180: 871f 083f 893f 723e 94e0 42be 04f5 91be
00000190: 824a 613e 50a9 fc3e c091 57be 986a 3fbf
000001a0: 2979 91bd f428 2e3d 65bf eabe a214 41bf
000001b0: 18fa 2b3f 4068 13bf 380b 323e 7fa8 c63e
000001c0: 32c1 723f 4045 abbe 93a4 233e ff83 273e
000001d0: f3fd bebe e50e b73d 48f0 cf3e 6955 4cbf
000001e0: c683 c7be 0369 6a3d 28cd b9bf 161f b4bc
000001f0: 18a2 12bf 3859 cb3e 95f4 c6bd b4e2 5e3f
00000200: fc00 703f b0bd 463f 6779 4c3e 927c c6bd
00000210: 03d0 a03d 2cd5 fc3e 2bb8 d2be aa32 743e
00000220: 5c60 273f 5646 d03e 515e 14be 1351 5dbf
00000230: fe52 333f ad05 f6be 73a1 92be 74e8 9a3d
00000240: 0de4 8cbe a06e f4bd 5519 143f 5ac8 b93e
00000250: 3de7 b73d 3c20 85bf aa78 903e dcf8 a3be
00000260: 141b d1bd f445 b33c 02bf 483d f785 12bd
00000270: 8d38 043f c690 e83e ce22 03be 1a48 d5be
00000280: 4a65 673e 7c4e 1ebe 3820 9bbe a8e4 223e
00000290: dcdb ff3d cd21 90be c874 b43d 34fb 6dbe
000002a0: 42f0 fcbd 0002 58bb fd77 103f b071 90bf
000002b0: d25d b4be a59d efbe 18b1 b4be 977c b7be
000002c0: a847 e7ba 8b8d 533f 01e4 7f3e 8c5e 8dbe
000002d0: 42f9 5dbf dc8c dd3e e8f4 13bf 2479 603f
000002e0: f4d8 5d3d 1957 793e 1822 a7bd 5e94 45bf
000002f0: aa3c 0dbe 4f71 953e 56ab 52be 9545 413f
00000300: ee3a 8a3e 6bfe 953e 119d 163e fb40 8c3d
00000310: de0a 7bbf fc7b 8fbf 8838 523f fa48 00be
00000320: 6636 a0be 461b 3f3f a0ba 983e 0d32 133e
00000330: f357 5dbe fad1 04bf 061a 6fbe ad1c 593d
00000340: 8016 91be e2a4 df3d b598 893e 9448 72bf
00000350: fbf5 9dbe 3349 dcbe 1db6 79bd 44c3 03bf
00000360: c303 87be b224 e83e 2f25 093f 1f11 bebe
00000370: 1bf3 1ebf d5d9 b8bd 2a22 843f 0779 16bf
00000380: 35cc 6b3f bb5b 0f3e 2f1d 55bf 0240 5a3e
00000390: f870 c6be e4a7 e5bd b19e e43e 9839 95be
000003a0: ed5f e3be 34b6 623e 69c7 1cbe 9d00 e53d
000003b0: 3760 163f c7d2 c63e b5ed 143e fdde 8dbf
000003c0: 000f dcbb 0ae8 7ebe 73a5 94be b5d9 823e
000003d0: 004a ad3b 20ee f6bd 8a1d 293e 0008 87b9
000003e0: eef3 8ebd 085c e6bd eec2 fa3e 6e23 603f
000003f0: 8a22 213e 5040 453d 61bf 193c b046 cd3e

linear1.bias f4 [1024]
0.27273244 -0.6081882 -0.30183434 0.776953 -0.31229407 0.46289507 0.54894036 0.030658936
-0.13369745 1.2941717 -0.19022574 -0.14202708 0.038486373 0.7648947 0.90023816 1.0290022
-0.29856625 0.012376252 -0.28797802 0.18464676 -0.03785995 -0.34185866 -0.314088 0.7152753
-0.2664253 0.25088075 0.19998036 1.1323743 0.46789056 0.15380166 0.2239677 0.26569775
-0.242568 1.1069142 0.0819255 0.95076233 0.8998053 -0.09463966 0.6389224 -0.3507131
-0.26808956 1.087221 1.2494471 0.39713648 -0.1028768 -0.5689147 -0.27130756 0.3526815
0.38503706 -0.7630027 1.1753771 0.8517435 0.8140172 -0.47058043 -0.045996137 0.26248512
0.24268201 -0.10504393 0.21034366 0.6386439 -0.367075 -0.35412508 0.9485185 0.13601783
0.46184093 0.36908042 0.8762035 -0.16374737 0.012392143 0.09098883 0.9512705 -0.2157521
0.6573641 1.1539621 0.6278425 -0.062193383 -0.12758109 0.6004113 0.6566211 0.30421346
-0.30775988 0.42247406 0.06375276 0.8912118 0.9739246 -0.31945956 0.4140483 0.58753616
-0.0037389612 0.98335904 0.15130706 -0.10786858 0.29452217 -0.17956996 0.4700384 0.012026859
0.14137729 0.16321845 0.84043425 0.9552979 -0.0027982646 0.77075505 1.0144738 -0.11399035
0.47622907 0.3309156 -0.24926546 -0.2559297 0.81835353 -0.21742846 1.1727195 -0.2279039
0.47401837 -0.5817536 0.39334694 0.5502126 0.49555996 0.085879155 0.30608886 0.11328115
-0.47784957 0.96292067 0.24890177 0.14532384 0.36669886 0.8838891 0.70515597 1.03419
-0.41607806 0.71753633 0.1637755 -0.13283755 -0.1380399 -0.25955003 0.43414512 0.59437025
0.14067613 0.26727736 0.11457354 0.4259033 0.7869312 -0.26963997 -0.7290964 0.24995932
0.07814625 -0.1612013 0.24634044 0.13712277 -0.37046275 0.5038758 -0.07187717 -0.4714108
0.07363384 0.06552672 -0.1758996 -0.32856336 0.2741659 0.27810314 -0.56339824 0.5145488
-0.11624342 1.0378062 0.60221523 0.096059926 0.95883405 0.71643305 -0.10418911 0.10873242
0.1354303 0.2050832 0.633724 0.018161107 0.2649763 0.7434406 1.1140866 0.37922472
0.76178336 -0.2203705 0.44880575 0.21147373 0.12519717 -0.0738016 -0.5621176 0.787681
0.21859607 -0.6817745 0.9963319 -0.02645073 0.28743324 0.9103126 0.49435663 -0.30246437
0.50846267 0.94089895 0.63125557 0.4670933 -0.04683701 0.101301625 0.6499699 0.39288646
0.6491933 0.093133524 1.0038244 -0.27679172 -0.5475991 0.90442026 1.1736217 0.75319225
1.1901671 0.9256247 1.1980091 -0.29581437 1.1326067 0.65405583 1.0504377 0.871997
0.37030172 0.53726184 1.1202773 -0.08144974 0.7132783 -0.055239167 0.33922544 1.0919588
0.6569629 -0.08499655 1.1510222 0.044633992 0.3616888 0.21935591 0.7485663 0.39870587
0.96005255 0.86232495 0.052090906 0.27094227 -0.50804037 0.41335508 0.5060821 -0.068029106
0.11400727 0.68890625 0.9576036 0.18830411 0.21873319 1.0003366 -0.33562994 1.2680669
-0.2902494 0.21575852 1.1140189 0.599883 0.8391703 -0.14229552 0.20366007 1.0540776
00000000: 96a3 8b3e 39b2 1bbf 088a 9abe 64e6 463f
00000010: 02e5 9fbe 9500 ed3e 5b87 0c3f 7328 fb3c
00000020: fce7 08be 6ba7 a53f 89ca 42be 8c6f 11be
00000030: e3a3 1d3d 24d0 433f 0276 663f 58b6 833f
00000040: addd 98be c3c5 4a3c db71 93be 0a14 3d3e
00000050: 0913 1bbd 1908 afbe 24d0 a0be 481c 373f
00000060: e668 88be 7173 803e a7c7 4c3e a4f1 903f
00000070: 5a8f ef3e 2f7e 1d3e ca57 653e 8909 883e
00000080: bf63 78be 5daf 8d3f 8ec8 a73d 2965 733f
00000090: a459 663f 70d2 c1bd 6b90 233f ab90 b3be
000000a0: 0943 89be 0f2a 8b3f e2ed 9f3f 7955 cb3e
000000b0: 12b1 d2bd 65a4 11bf d3e8 8abe ab92 b43e
000000c0: 9423 c53e 2554 43bf c272 963f dd0b 5a3f
000000d0: 6e63 503f ebef f0be 7266 3cbd 7364 863e
000000e0: a281 783e 4621 d7bd 5464 573e 2b7e 233f
000000f0: 41f1 bbbe e24f b5be 1cd2 723f 4248 0b3e
00000100: 6a76 ec3e 1cf8 bc3e df4e 603f 64ad 27be
00000110: 6a08 4b3c 5a58 ba3d 7786 733f 1eee 5cbe
00000120: 0349 283f 08b5 933f 49ba 203f 7dbe 7ebd
00000130: 9ea4 02be 8eb4 193f 5218 283f dec1 9b3e
00000140: b492 9dbe 854e d83e cf90 823d 7526 643f
00000150: 1f53 793f 3490 a3be 24fe d33e c568 163f
00000160: 5c09 75bb 6bbd 7b3f 3df0 1a3e 34ea dcbd
00000170: 9ccb 963e 30e1 37be e0a8 f03e 4e0c 453c
00000180: 35c5 103e bd22 273e b326 573f 678e 743f
00000190: 1763 37bb 3450 453f 47da 813f c673 e9bd
000001a0: 4cd4 f33e c56d a93e 723f 7fbe 3809 83be
000001b0: 9e7f 513f 91a5 5ebe ac1b 963f a45f 69be
000001c0: 89b2 f23e ceed 14bf c564 c93e bcda 0c3f
000001d0: 09ba fd3e 69e1 af3d aeb7 9c3e f3ff e73d
000001e0: b3a8 f4be f881 763f 1be0 7e3e c6cf 143e
000001f0: f4bf bb3e 8e46 623f 1a85 343f 5760 843f
00000200: 2f08 d5be 76b0 373f c4b4 273e 9106 08be
00000210: 555a 0dbe bee3 84be 4548 de3e a628 183f
00000220: 670d 103e 94d8 883e 88a5 ea3d ff0f da3e
00000230: 5374 493f 400e 8abe 10a6 3abf 56f5 7f3e
00000240: 240b a03d f411 25be ab40 7c3e e969 0c3e
00000250: 4bad bdbe 01fe 003f 5634 93bd c25c f1be
00000260: 57cd 963d df32 863d 061f 34be 7539 a8be
00000270: 795f 8c3e 8963 8e3e de3a 10bf 78b9 033f
00000280: 0811 eebd d5d6 843f c72a 1a3f 11bb c43d
00000290: 2676 753f 2868 373f 1a61 d5bd 1aaf de3d
000002a0: 3eae 0a3e 5501 523e bc3b 223f 9ac6 943c
000002b0: f9aa 873e 2052 3e3f 649a 8e3f be29 c23e
000002c0: 3c04 433f cea8 61be dec9 e53e 928c 583e
000002d0: b033 003e 4b25 97bd f0e6 0fbf 76a5 493f
000002e0: a6d7 5f3e c688 2ebf 9b0f 7f3f 34af d8bc
000002f0: 732a 933e 3f0a 693f 501c fd3e 9cdc 9abe
00000300: 9c2a 023f c1de 703f f799 213f da26 ef3e
00000310: 2ad8 3fbd 3a77 cf3d 6d64 263f 6a28 c93e
00000320: 8831 263f cabc be3d 517d 803f a5b7 8dbe
00000330: 742f 0cbf 1688 673f 3c39 963f 35d1 403f
00000340: 6557 983f bef5 6c3f 5d58 993f fb74 97be
00000350: 42f9 903f 3470 273f be74 863f 323b 5f3f
00000360: 3098 bd3e fe89 093f 3f65 8f3f 1fcf a6bd
00000370: 6899 363f 7742 62bd f5ae ad3e 4ec5 8b3f
00000380: b82e 283f ac12 aebd b254 933f 22d2 363d
00000390: 462f b93e d69e 603e 0ba2 3f3f 2d23 cc3e
000003a0: 01c6 753f 54c1 5c3f 465d 553d f2b8 8a3e
000003b0: ef0e 02bf 47a3 d33e 998e 013f d852 8bbd
000003c0: a57c e93d 295c 303f 8225 753f cbd2 403e
000003d0: 98fb 5f3e 080b 803f b0d7 abbe 0450 a23f
000003e0: 929b 94be cdef 5c3e 2c98 8e3f ef91 193f
000003f0: ddd3 563f ebb5 11be 448c 503e 04ec 863f

linear2.weight f4 [3, 1024]
-1.0231385 0.44717455 -0.017174263 1.1472907 0.014860563 -1.0535768 -0.35601404 -0.14501034
-0.016306397 -0.37181914 -0.047367755 0.4347333 0.584377 -0.30049452 -0.38592455 -0.27354744
-0.013005611 0.08446088 -0.51157296 -0.75679046 0.32577646 0.20433353 0.89017177 -0.351496
0.026487436 -1.2474128 -1.0853695 -0.50238127 -0.8440534 -1.7831737 -1.4811784 -0.16219829
-0.17407241 -0.35525882 -2.2302234 -0.58344436 -0.26901484 -0.0064904746 -0.2321454 1.3376026
0.16193844 -0.20942384 -0.44588456 -0.35026714 -0.14788595 0.4771816 -0.001384005 -0.3093187
-0.45662758 1.7331601 -0.22083877 -0.40061587 -1.1297523 0.47797853 0.14450818 -0.21192403
0.1646861 0.032645267 -1.0318905 -0.22827834 0.22353238 0.010897173 -0.28768653 -1.731403
-0.18532182 -0.9292627 -0.1937842 -0.8610585 -0.92838943 -2.360893 -0.27765018 0.6219366
-0.3615003 -0.27450916 -0.35013407 0.40754414 -2.3207643 -0.32238257 -0.17599113 -0.21496868
-0.27750617 1.7359726 0.12587553 -0.43210983 -0.4922625 0.013097099 -0.6046856 -0.331754
-0.14641881 -0.24895206 -0.05532799 0.37954366 -1.2043587 -1.1551741 -0.19637257 -0.252158
0.41613388 -0.9431301 -0.32080853 -0.37285334 -1.0395839 -0.19325028 -0.27285594 -0.46022958
-0.5561527 -0.063581124 -0.009083379 -0.54315966 -0.3705974 -1.2040306 -0.24501385 0.47701985
-0.0891223 1.0473106 -0.24767202 1.2838299 -0.060194198 -1.1582894 -2.027722 -0.83202183
0.9865989 -0.26425025 -1.2289277 -0.72362465 -1.931809 -0.17072439 -1.0098156 -0.4079423
0.35448822 -0.27030203 -0.7911501 -0.007508386 0.68680185 0.64094895 -0.35664114 -0.19011989
-0.09086623 -0.9835761 -0.8999355 0.47239318 -0.11125466 0.6511573 0.38835368 1.7071869
0.005280209 -0.93922985 -1.0788031 -0.06711363 0.06738621 -0.22975999 -0.74566114 2.3623426
0.20975733 0.05560421 -1.0620679 -0.052235916 0.08661127 -0.46681187 1.2303995 0.0723877
-2.0209904 -0.51182604 0.03285441 -0.52437127 -0.2346587 -0.35516605 -0.0015808642 -1.1807464
-0.25720078 -0.62047946 -0.2774148 -0.93664867 -0.83360827 -0.32303223 -0.24609517 -0.9389262
-0.18077374 0.011604127 -0.6071838 -1.4717251 -1.4059635 -0.002583844 -0.41788143 -0.11049652
-0.29138488 -0.01687325 -0.23887883 1.1328526 -0.113545954 -0.18644382 -0.022945188 -0.022661515
-0.28248477 -0.283892 -0.14594999 -2.0713685 1.2780428 -1.2137017 -0.43370613 -0.25116837
-0.93902445 -0.41671526 -0.6038954 0.19234924 1.1471125 -1.2920125 -0.34299624 -0.29887754
-0.23969331 -0.25858682 -0.23316112 0.0051742196 -0.2794368 -0.88439053 -0.39418274 -0.3545525
-0.48994502 -0.26547676 -0.2828013 -0.69747645 -0.61189604 0.09638549 0.543173 -0.16545129
-0.17613128 -1.3350724 -0.27545515 -1.1393774 -0.14327215 -1.2486155 -0.083080016 0.020990755
-0.9460163 -0.2742202 -1.2371279 -0.88242626 -0.7361737 -0.7995991 -0.34627068 0.17553052
0.12204819 -0.2661519 -0.24166632 0.04142591 -0.11886597 -1.1051788 0.02112663 -0.23688874
-0.007148431 -0.8318177 -0.20071988 -0.22841653 -0.20879707 0.12812985 -1.0161853 -0.2299399
00000000: 34f6 82bf 10f4 e43e 0ab1 8cbc 6cda 923f
00000010: b879 733c 9bdb 86bf 7947 b6be 977d 14be
00000020: fe94 85bc 145f bebe b104 42bd 5d95 de3e
00000030: bb99 153f 6bda 99be e797 c5be 690e 8cbe
00000040: 7c15 55bc d3f9 ac3d 72f6 02bf 05bd 41bf
00000050: 2ccc a63e cf3c 513e 4ce2 633f 49f7 b3be
00000060: 2efc d83c 39ab 9fbf 63ed 8abf 0f9c 00bf
00000070: e213 58bf 093f e4bf 4197 bdbf 4f17 26be
00000080: 0a40 32be 7ce4 b5be fbbb 0ec0 9c5c 15bf
00000090: 50bc 89be 0cae d4bb 86b7 6dbe 9036 ab3f
000000a0: 31d3 253e 3473 56be fb4a e4be 3756 b3be
000000b0: 6a6f 17be 2651 f43e 8067 b5ba 055f 9ebe
000000c0: 17cb e9be 31d8 dd3f 8f23 62be 861d cdbe
000000d0: b99b 90bf 9ab9 f43e f4f9 133e 9d02 59be
000000e0: 79a3 283e 0bb7 053d fd14 84bf ccc1 69be
000000f0: ace5 643e 0e8a 323c a64b 93be 9d9e ddbf
00000100: 01c5 3dbe 29e4 6dbf 5e6f 46be 546e 5cbf
00000110: eeaa 6dbf df18 17c0 2a28 8ebe 3d37 1f3f
00000120: 9116 b9be 778c 8cbe c644 b3be a0a9 d03e
00000130: 6787 14c0 540f a5be 0537 34be c020 5cbe
00000140: 4a15 8ebe 5a34 de3f 84e5 003e 803d ddbe
00000150: d509 fcbe 3795 563c adcc 1abf a9db a9be
00000160: d0ee 15be 4aed 7ebe 9a9f 62bd 8c53 c23e
00000170: 6d28 9abf bfdc 93bf e415 49be da1a 81be
00000180: 800f d53e f970 71bf 0441 a4be a2e6 bebe
00000190: 1611 85bf 67e3 45be c6b3 8bbe 36a3 ebbe
000001a0: 0660 0ebf d236 82bd 74d2 14bc 830c 0bbf
000001b0: f1be bdbe ad1d 9abf e9e4 7abe f23b f43e
000001c0: c185 b6bd 460e 863f bc9d 7dbe 8a54 a43f
000001d0: 318e 76bd d442 94bf 32c6 01c0 62ff 54bf
000001e0: bf91 7c3f cf4b 87be 814d 9dbf 773f 39bf
000001f0: 8445 f7bf 60d2 2ebe a341 81bf d0dd d0be
00000200: 7b7f b53e 0765 8abe d088 4abf e808 f6bb
00000210: 3fd2 2f3f 3b15 243f ab99 b6be caae 42be
00000220: 1318 babd a5cb 7bbf 2c62 66bf 85dd f13e
00000230: 7cd9 e3bd 3fb2 263f 4bd6 c63e 1a85 da3f
00000240: 9a05 ad3b 5e71 70bf 3816 8abf df72 89bd
00000250: c801 8a3d 3446 6bbe a6e3 3ebf 9f30 1740
00000260: a0ca 563e 3dc1 633d d7f1 87bf 54f5 55bd
00000270: 4061 b13d f701 efbe bb7d 9d3f 0140 943d
00000280: e857 01c0 0807 03bf 5992 063d 323d 06bf
00000290: 5f4a 70be 53d8 b5be 0035 cfba b322 97bf
000002a0: d2af 83be bed7 1ebf 5009 8ebe 35c8 6fbf
000002b0: 5a67 55bf 7b64 a5be 5f00 7cbe 785d 70bf
000002c0: c01c 39be 3c1f 3e3c 6670 1bbf 7d61 bcbf
000002d0: 9df6 b3bf b555 29bb 8ef4 d5be 004c e2bd
000002e0: 6630 95be c539 8abc a79c 74be 5001 913f
000002f0: c88a e8bd 21eb 3ebe 8cf7 bbbc a4a4 b9bc
00000300: d8a1 90be 4b5a 91be ea73 15be 4d91 04c0
00000310: e896 a33f 945a 9bbf bb0e debe 2499 80be
00000320: e863 70bf b45b d5be e498 1abf 33f7 443e
00000330: 95d4 923f aa60 a5bf 349d afbe 7a06 99be
00000340: 2a72 75be 7e65 84be cac1 6ebe 808c a93b
00000350: 5712 8fbe 6b67 62bf 52d2 c9be e887 b5be
00000360: 13da fabe 92ec 87be 55cb 90be d18d 32bf
00000370: 38a5 1cbf c165 c53d 630d 0b3f 106c 29be
00000380: c25b 34be a7e3 aabf 7508 8dbe 1ed7 91bf
00000390: efb5 12be a2d2 9fbf db25 aabd cef4 ab3c
000003a0: 202e 72bf 9766 8cbe 355a 9ebf b0e6 61bf
000003b0: e175 3cbf 87b2 4cbf 644a b1be 46be 333e
000003c0: 67f4 f93d 1045 88be 6077 77be 37ae 293d
000003d0: 0070 f3bd 8076 8dbf c111 ad3c f692 72be
000003e0: 633d eabb 01f2 54bf 8389 4dbe 06e6 69be
000003f0: e6ce 55be 7934 033e 5c12 82bf 5d75 6bbe

linear2.bias f4 [3]
-0.28700185 -0.53188103 -0.09687314
00000000: e8f1 92be 5b29 08bf 6d65 c6bd
