examples/minecraft/model/model2.pth (torch, 6720 bytes, 4 tensors)

linear1.weight f4 [64, 13]
000000 60 70 5a 3f d3 db ed bf b8 69 00 bf 1f f9 ca bf
       0.8532772 -1.858271 -0.50161314 -1.5857276
000010 3e e9 cb 3f 8f af 5b 3f 3a 66 f1 3d 92 44 d9 3f
       1.5930555 0.85814756 0.11787076 1.6974051
000020 43 f9 d0 3f 6b 1f 95 bd 2b 1f 8e be c7 21 a2 3f
       1.6326069 -0.07281383 -0.27758154 1.2666558
000030 da af 06 3d 8f 86 64 3f de 59 a6 bf 35 20 64 be
       0.03288255 0.8926782 -1.2996175 -0.22277911
000040 b2 24 b7 bf 2c c3 eb 3f 63 3d 25 3f 75 9f d9 be
       -1.4308074 1.8418937 0.64546794 -0.4250447
000050 44 7a 05 40 56 c3 d8 3f 0d 77 5d bd bb b8 f0 bd
       2.0855875 1.6934612 -0.054068614 -0.117539845
000060 36 69 c2 3f d4 ef e8 be 1e 3f b6 3f 49 f2 a4 bf
       1.5188358 -0.45495474 1.4238012 -1.288644
000070 1a 16 f6 be 0f d1 03 c0 fe 6c 8f 3f e2 1b c2 3e
       -0.48063737 -2.059635 1.1205137 0.37911898
000080 82 34 a9 bd aa bf 05 40 57 bb fa 3f 81 a2 7c be
       -0.08261968 2.0898232 1.9588422 -0.24671365
000090 6d 7e 9a be 16 17 b9 3f d8 a9 27 bd bc c2 9b bf
       -0.3017458 1.446017 -0.04093346 -1.2168803
0000a0 18 14 13 40 57 08 b6 3f a2 43 d9 3f 9d 60 8c bf
       2.2981014 1.4221295 1.6973765 -1.0966984
0000b0 a7 36 94 be 0d 42 89 3f 10 a5 d4 bf 56 85 b4 bf
       -0.28947946 1.0723282 -1.6612873 -1.4103191
0000c0 39 f7 95 3f 71 1c 87 3f 3d 18 93 bf d9 4b a0 bd
       1.1716071 1.0555555 -1.1491772 -0.07826967
0000d0 1d 0c b8 3f aa ef e8 bf c3 9d af be 90 9c fb bf
       1.4378697 -1.819814 -0.3430005 -1.9657154
0000e0 30 a6 a2 3f 3d 33 0f 3f 11 6b 9e be 1b 47 fa 3f
       1.2706966 0.5593756 -0.3094106 1.955295
0000f0 d2 08 ea 3f c3 93 e5 3d 6c 86 20 be 85 df af 3f
       1.8283942 0.11209824 -0.15676278 1.3740088
000100 d4 78 df be e5 5d a0 3f fb a9 c0 bf bf 32 94 be
       -0.43646872 1.2528654 -1.5051874 -0.28944966
000110 9b 8a aa bf 49 4a fc 3f f9 f9 0f 3f b6 65 e2 be
       -1.3323549 1.971017 0.56240803 -0.44218224
000120 73 04 05 40 8b 82 f2 3f 56 26 fb 3b 2a d6 c8 be
       2.0783966 1.8946089 0.007664482 -0.39225894
000130 42 7c b0 3f f3 17 c3 be dc e6 d2 3e 69 a7 85 bf
       1.378792 -0.3810421 0.41191757 -1.0441715
000140 8d 91 8c bc fd 60 97 bf b4 37 9e 3f 94 92 a9 3e
       -0.017159248 -1.1826473 1.2360749 0.33119643
000150 92 67 d2 3c 48 cc 95 3f 8e 65 76 3f 6f 51 24 bd
       0.025684152 1.1702967 0.9624871 -0.040116724
000160 74 cf 90 bc d9 1e 5e 3f 18 6a fd bd e9 15 42 bf
       -0.017677046 0.8676582 -0.123737514 -0.7581468
000170 5f 58 fb 3f 18 bb 79 3f db 7b 63 3f 5b 3f a0 bf
       1.9636344 0.9755111 0.88860863 -1.2519335
000180 2b 8c 91 3d ca 3a a1 3f e8 de ae bf d9 a9 86 bf
       0.07106813 1.2596066 -1.3661776 -1.0520583
000190 c9 f1 91 3f 0b c7 a9 3f 5a c3 89 bf 83 d5 5f be
       1.1401912 1.3263868 -1.0762742 -0.21858792
0001a0 d0 e7 88 3f 0d 83 ef bf 76 01 47 bf c3 4e 09 c0
       1.0695744 -1.8711869 -0.77736604 -2.1454322
0001b0 84 d5 82 3f a3 c6 48 3f 2f 97 37 3e eb 7e db 3f
       1.022141 0.78428096 0.17928766 1.7148107
0001c0 97 f7 d1 3f 58 7c 69 3b 81 8a 8f 3e 46 ab d3 3f
       1.6403683 0.0035627093 0.28035358 1.6536644
0001d0 c0 fd 18 3b f8 5b a4 3d d6 0a 50 be 80 83 65 bc
       0.0023344606 0.08025354 -0.20316634 -0.014008403
0001e0 36 0f df bd 8d fc 59 3e 26 27 9f 3d 04 c1 71 bd
       -0.10891573 0.21287747 0.07771139 -0.059021965
0001f0 c6 fd 87 be 11 b1 cb bd dc 8f 8b bd 1c 62 e4 3d
       -0.265608 -0.09945882 -0.068145484 0.111515254
000200 cb 92 14 3d 5a f0 66 3e 33 9e 63 bf 3e 3c f4 3f
       0.036272805 0.22552624 -0.8891327 1.9080884
000210 95 0b 4c 3f dc ce fc 3f 50 99 80 bf e6 7e e5 bd
       0.7970517 1.9750628 -1.0046787 -0.112058446
000220 4b c7 57 3f bd 85 a1 bf 18 b8 78 bf 61 e2 72 3f
       0.8428847 -1.2618939 -0.97155905 0.94876677
000230 41 76 7f 3f aa bf bd bf 99 d2 e2 3e 3c b8 40 bf
       0.99789816 -1.4824116 0.44301298 -0.7528112
000240 c0 e8 f7 3f 17 87 6c 3f 32 52 dc 3f c4 c7 87 bf
       1.9367905 0.9239363 1.7212584 -1.0607839
000250 e4 68 ca 3e 44 15 80 3f 2a 30 62 bf 32 ca 0b bf
       0.3953315 1.000649 -0.8835474 -0.546054
000260 81 7f c1 3e e1 a0 27 3f d8 7f 40 bf 59 dd 98 3e
       0.3779259 0.65479857 -0.75195074 0.29856375
000270 86 69 61 3f 1c ef 64 3f 5f 48 ec 3f d2 b8 32 be
       0.8805164 0.8942735 1.8459586 -0.17453316
000280 e0 75 ab 3f 74 5a d0 3e bf ec a0 be 24 0d c9 3f
       1.3395348 0.4069401 -0.31430623 1.5707135
000290 a0 91 01 40 64 5e 45 3e 17 19 fd be 62 cb 8b 3f
       2.0245132 0.19274288 -0.49433205 1.0921443
0002a0 d1 d7 7c bd ff 02 8b 3f ae bd bc bf 18 95 9a be
       -0.061729256 1.0860289 -1.4745386 -0.30191875
0002b0 2a 9a fe bf 99 47 a6 3f b9 3c fd 3e 90 7e 96 be
       -1.9890797 1.29906 0.4946039 -0.29393435
0002c0 f6 52 fe 3f 20 61 e8 3f 01 39 1c be d9 00 a4 be
       1.9869068 1.815464 -0.1525612 -0.32031897
0002d0 fe ce c0 3f b6 8a e6 be 44 a7 fc 3e 4d d9 06 c0
       1.5063169 -0.45027703 0.49346364 -2.107013
0002e0 c3 d5 a9 bf 79 aa dd bf 36 6b 0a 3f e7 ba 96 3f
       -1.326836 -1.7317649 0.5406984 1.1775788
0002f0 b0 a9 b9 3f 91 a3 18 3f be 5d 0a 3f 51 4a 1b 3f
       1.450491 0.5962458 0.5404929 0.6066027
000300 2d 8d 73 3f 02 0f 86 3f 1b fc c2 3d 6b 51 3d 3f
       0.9513729 1.047333 0.095207416 0.7395236
000310 86 b2 ed bf a2 e3 6e be 1f 83 8c bf 58 27 be 3f
       -1.8570106 -0.23329023 -1.0977515 1.4855757
000320 b5 78 0b 3f c9 06 c6 3e 75 e8 90 3f ef 06 94 3f
       0.5448106 0.38677052 1.132094 1.1564616
000330 6e a0 83 3d a0 76 a1 3e 10 2c 8b 3f db b9 1c be
       0.06427084 0.31535816 1.0872822 -0.15305273
000340 c0 fc 92 bf 04 b1 22 40 61 5a ca 3f 56 b4 04 40
       -1.1483383 2.5420542 1.5808831 2.0735068
000350 a5 0a 74 bf 89 e2 bb be be 66 43 3f ae 71 ce bf
       -0.9532874 -0.3669627 0.7632865 -1.6128442
000360 1a e8 85 bf f8 b5 73 3f 84 b7 6b 3f 31 cf b2 bf
       -1.0461457 0.9519954 0.920769 -1.396948
000370 07 c1 61 bd 8f 4b 13 bf 44 4e 39 3f 41 40 dd be
       -0.055115726 -0.5753717 0.7238505 -0.43213084
000380 7b fe 8f 3f 99 71 c0 bf f5 33 25 3f 82 47 db 3f
       1.1249536 -1.5034667 0.64532405 1.7131197
000390 76 7f 9b bf 47 99 b1 bf 6e 0e 55 3f f3 21 be 3f
       -1.2148273 -1.3874902 0.8322514 1.485411
0003a0 1d 10 65 bf 2c 0b c6 3e 94 43 db 3e 7c 14 18 3f
       -0.8947771 0.38680398 0.42824996 0.59406257
0003b0 eb 7e d4 3f dc e3 0d 3e 3f db 25 3f 9d f9 b7 bd
       1.6601232 0.13856453 0.6478767 -0.08983157
0003c0 7f 04 c9 be 38 1a ae 3f 7c 90 bb 3f d6 47 14 bd
       -0.39261243 1.3601751 1.4653468 -0.03620132
0003d0 c8 ee a8 bd d8 7f c8 3e 35 c2 9a bd 5f a1 a0 bf
       -0.08248669 0.39160037 -0.07556573 -1.2549247
0003e0 e5 eb 09 40 30 34 48 3f 5c 50 ee 3f f7 81 b4 bf
       2.1550229 0.7820463 1.8618274 -1.4102162
0003f0 a3 7c c1 3d 17 fa 4c 3f 36 34 3a bf 8b 50 eb be
       0.09447601 0.80069107 -0.7273592 -0.45959887

linear1.bias f4 [64]
000000 09 c7 8e 3d 38 66 37 bd 6e 3c 7d 3e b6 6c 8e 3f
       0.06971557 -0.044775218 0.24730083 1.1126926
000010 04 62 4a be 90 63 85 3e f7 8e 97 be 91 da 8d 3f
       -0.19763952 0.26052523 -0.2960126 1.1082326
000020 97 90 e0 bb e7 39 19 be c0 24 71 3f 49 63 46 3f
       -0.006853174 -0.14963494 0.941967 0.7749525
000030 55 fd 63 3e 05 d3 8c 3e 1c 93 2c 3e 60 af 96 be
       0.22264607 0.27504745 0.16852993 -0.29430676
000040 8e e6 9b 3f f6 04 6a 3f 0d 6b 1b 3f 0f 63 69 3f
       1.2179735 0.9141382 0.6071022 0.91166776
000050 ff e0 34 3f 77 d6 7f 3e 16 43 04 be ce 9e bf 3e
       0.70655817 0.24984156 -0.12916216 0.37425846
000060 33 b9 e0 3d e1 b4 5f 3f 57 78 35 3f 22 80 97 be
       0.10972824 0.87385374 0.7088675 -0.29589945
000070 f3 31 e1 3d 28 3b ad bc d2 d7 61 3f 44 07 6f 3f
       0.10995855 -0.021146372 0.8821994 0.9337046
000080 a9 5b c4 be 0e bc 15 3e ae 3b aa be 95 c2 90 3f
       -0.3835118 0.14622518 -0.33248657 1.1309382
000090 f4 1d c9 3d 72 ae 1e 3f 87 98 21 bd 48 31 91 be
       0.09820166 0.6198493 -0.039452102 -0.2835791
0000a0 b3 f0 7f 3e 39 8d 93 3f 9e 6b 86 3f 57 10 20 3e
       0.24994163 1.1527473 1.0501592 0.15631233
0000b0 3e c8 5c 3f b8 8a 0d 3f 57 29 4e 3f 08 1f 76 3f
       0.86243045 0.55289793 0.8053183 0.961411
0000c0 e2 52 7e 3f 2d f9 85 3f c1 4c 95 3f 1c b8 82 3f
       0.9934522 1.0466667 1.1664048 1.0212436
0000d0 65 fc a5 3f 36 8f 10 3f 16 0f 88 3e 15 7f 2f 3e
       1.296765 0.5646852 0.2657401 0.17138322
0000e0 b6 0e c4 be 4d 88 b3 3e c7 4a 83 3f 10 c0 d4 bd
       -0.38292474 0.35064927 1.0257195 -0.103881955
0000f0 f7 68 bb be 24 3e 17 be 54 d4 3e 3f 64 df f5 3e
       -0.3660352 -0.14769799 0.74542737 0.48021996

linear2.weight f4 [5, 64]
000000 e9 23 f1 be 22 08 c6 bf 89 41 9f bf 49 18 e6 3f
       -0.4709771 -1.5471232 -1.2441875 1.7976161
000010 11 1a 4b bf 8c 7b bb bf d0 df f7 be cf a0 b9 3f
       -0.7933665 -1.4647079 -0.48412943 1.45022
000020 db e9 95 be a6 85 ac 3d 53 20 d1 3f 7d 7a 8f 3f
       -0.2927998 0.08423929 1.633799 1.1209255
000030 1d 8a af bf 10 17 99 bf 5b 72 74 3f 5f d5 6c be
       -1.3714024 -1.1960163 0.9548699 -0.2312827
000040 0a 7a c2 3f 25 8a 10 40 55 36 39 bf 67 88 ab 3f
       1.5193493 2.2584317 -0.7234853 1.3401002
000050 a3 d4 a9 bf ae a3 a3 bf 84 63 fd be c3 7b db bf
       -1.3268017 -1.2784326 -0.49489987 -1.7147144
000060 f9 7e 26 3f 5e 90 ad 3f 80 2a a2 bf 46 c4 19 3e
       0.65037495 1.3559682 -1.266922 0.15016279
000070 a8 53 b8 bf 8a 6b a9 bf c1 08 c9 bf b2 31 ae 3f
       -1.440053 -1.3235943 -1.5705796 1.3608916
000080 8e 9b e7 be 33 9d 8c bf 5e 95 92 bf 16 03 77 3f
       -0.45235866 -1.0985473 -1.1451833 0.96489084
000090 a8 6a 17 bf 0b fb d0 bf ad 28 c5 bf e0 99 8d bf
       -0.5914712 -1.6326612 -1.5403038 -1.1062584
0000a0 1f 68 bc bf 53 67 da 3f 20 f5 df 3f fc 64 ac be
       -1.4719275 1.7062782 1.7496681 -0.33670795
0000b0 03 f4 d0 be 46 e6 d4 bf 27 59 00 c0 6b 0a 02 40
       -0.40811166 -1.6632774 -2.0054414 2.0318859
0000c0 6a 84 08 40 8e 0f 95 bf 60 79 bc 3f 84 bc 94 3f
       2.133082 -1.1645372 1.4724541 1.162003
0000d0 ac 0f 18 3f fa ba e5 3f 1d 39 9f bf fc 1d 62 be
       0.59398913 1.7947686 -1.2439305 -0.2208175
0000e0 ed 16 54 bf f1 8e e4 3e 2e d4 a1 3f 77 62 84 3e
       -0.8284748 0.44640306 1.2642877 0.25856373
0000f0 d6 4f 7a bf ef 20 a5 bf d3 ef 1b 40 3d 8a 70 3f
       -0.9777807 -1.2900676 2.4365127 0.93960935
000100 1b 3e 2d bf d4 96 12 bf 12 3b 19 bf 56 c9 47 be
       -0.6767289 -0.57261395 -0.5985576 -0.19510397
000110 48 84 1b bf 7c 64 34 bf 7c c8 2c bf cd 15 05 bf
       -0.6074872 -0.70465827 -0.67493415 -0.5198639
000120 d5 03 27 bf c4 7f ec 3d 09 f3 6b be 4a 78 52 be
       -0.6524022 0.11547807 -0.2304193 -0.20553699
000130 32 fe 24 bf 3a f0 ec be b9 a4 3d bf e6 84 07 bf
       -0.6445037 -0.46277028 -0.7407947 -0.5293716
000140 f9 44 b3 be 2d 87 f0 3d bc de 01 bf 57 3f 6e bd
       -0.3501356 0.11744533 -0.5073049 -0.058165874
000150 83 4c eb bd 12 b5 33 bf 50 bf 08 bf 51 19 b8 bd
       -0.11489203 -0.70198166 -0.5341692 -0.08989204
000160 7e 83 2d bf 17 67 d1 be 03 1d 40 bf 53 32 86 3d
       -0.67778766 -0.40898964 -0.7504427 0.06552567
000170 be 5d 01 bf 7c 20 14 bf 13 8e 8b 3d 87 63 2b be
       -0.50533664 -0.5786207 0.06814208 -0.16737185
000180 15 d2 fc be 83 e2 18 bf 00 77 2c bf c8 b9 d8 be
       -0.4937903 -0.5972063 -0.6736908 -0.4232924
000190 73 21 02 bf 32 2d 2e bf 57 70 e3 be 7d c7 11 bf
       -0.5083229 -0.6803771 -0.44421646 -0.5694502
0001a0 5c 08 26 bf c0 4a 41 be 80 34 d7 be 5e fb 79 3e
       -0.64856505 -0.18876171 -0.42032242 0.24412295
0001b0 54 22 2a bf 17 7b ae be e3 19 14 bf c7 4f 81 be
       -0.6645863 -0.34078285 -0.57852 -0.25256178
0001c0 a2 21 b9 be 1a 2d a4 be 17 fd a1 be ce 9d 9e be
       -0.36158472 -0.3206566 -0.31638405 -0.3097977
0001d0 0f bd 33 bf 37 3d 41 bf 63 84 ee be 7c 47 43 bf
       -0.70210356 -0.7548403 -0.46585378 -0.7628095
0001e0 38 34 20 bf d5 2d 2c bf c8 c5 86 be 01 6c 28 bc
       -0.6257968 -0.67257434 -0.2632277 -0.010279656
0001f0 a7 88 26 bf 18 f1 09 bf 53 46 84 be 15 fe 1c bf
       -0.65052265 -0.53883505 -0.25834903 -0.613252
000200 0a 83 b0 bf 2a 0f d0 bf cc c4 b9 bf 55 54 25 40
       -1.378999 -1.6254628 -1.4513183 2.5832722
000210 a0 46 b2 bf cf d1 c4 bf 4a 8e 4d bf a1 90 ce 3f
       -1.3927803 -1.5376529 -0.8029524 1.6137887
000220 7a ad ec bf d3 da 19 3e 7e 09 17 40 c5 d1 e9 3f
       -1.8490441 0.15024881 2.3599544 1.8267142
000230 16 30 07 3e 60 8c b1 bf 69 26 d7 bf 4d b6 e8 bf
       0.13201937 -1.3870964 -1.6808597 -1.8180634
000240 f3 7f 31 40 e2 c0 83 3f 46 db 89 3e e6 bc 07 40
       2.7734344 1.0293238 0.26925105 2.1209044
000250 06 f1 e5 3f 27 04 c4 bf 8a 8f c7 bf d8 8b 0c 3f
       1.796418 -1.5313767 -1.559068 0.54900885
000260 ce 24 c4 bf 28 bb 38 40 42 3c 6f 3e 11 34 8e bd
       -1.5323732 2.886423 0.2336283 -0.06943525
000270 dd 3a a6 bf 80 12 c4 bf 11 d2 55 3f 01 6b 00 40
       -1.2986714 -1.5318146 0.8352366 2.006531
000280 d6 59 aa bf f5 a0 a5 bf 7a ac bf bf 35 d5 3b 40
       -1.3308666 -1.2939745 -1.4974511 2.9348881
000290 f4 ba aa bf 1d f0 53 bc 1c 91 bf bf af d8 d1 bf
       -1.3338304 -0.012935665 -1.4966159 -1.6394252
0002a0 ce 55 99 bf a6 88 f3 3f 0a 2b 15 40 3a 7c 1e bf
       -1.197931 1.9026077 2.330752 -0.61908305
0002b0 f7 9b 8f 3f 4a 02 13 40 16 c7 bf 3e 0a 4d d2 3f
       1.1219472 2.2970147 0.37456578 1.642976
0002c0 e9 0d 26 40 c5 db fb 3f 7d cf 33 40 1a 0f 1a 40
       2.594599 1.9676443 2.809539 2.4071717
0002d0 43 30 58 3f 4f 0f 97 bf 45 62 91 be ad 29 86 bf
       0.8444864 -1.1801547 -0.28395286 -1.0481468
0002e0 52 a3 d6 bf 65 25 47 bf 15 ac df 3f 0f a9 f1 3d
       -1.6768591 -0.77791435 1.747439 0.117998235
0002f0 b4 88 b3 bf 1b f5 c5 bf 0e 99 06 bf dd dc a4 bf
       -1.4026093 -1.5465425 -0.5257729 -1.2879902
000300 f8 0f 12 bf ab af 2c bf 99 d3 81 bf df 11 82 3e
       -0.57055616 -0.6745555 -1.01427 0.2540426
000310 5c 92 74 bf ee b7 24 bf fd b2 0b bf f2 61 fc be
       -0.95535827 -0.64343154 -0.5456999 -0.49293476
000320 9c db 72 bf 7e 57 8a 3d a6 2c 91 3e ca e2 27 3e
       -0.9486635 0.06754969 0.28354377 0.16395107
000330 ed 6f 2b bf ae 1b 6c bf c2 f4 68 bf c6 90 a0 be
       -0.6696766 -0.92229736 -0.9099847 -0.31360453
000340 86 6e 18 3f 83 3a af 3e c8 05 4b bf c9 37 5c 3e
       0.59543645 0.34224328 -0.79305696 0.21505655
000350 f6 6c 0d 3d 96 19 51 bf a7 02 57 be 23 14 20 bf
       0.03452774 -0.81679666 -0.20997106 -0.62530726
000360 ad 7b 37 bf b4 3b 20 3f c7 1b 27 bf b7 f4 c3 bc
       -0.7167309 0.625911 -0.6527676 -0.0239204
000370 90 18 76 bf 2c 99 8d bf ac 08 93 3b 3a 85 81 3e
       -0.9613123 -1.1062369 0.0044871178 0.25296956
000380 9d 9d 0a bf 4d 22 79 bf d5 6d 42 bf 0a 46 ca 3e
       -0.5414675 -0.97317964 -0.7594884 0.3950656
000390 74 a1 6e bf f7 5b bc be af dc 3a bf 6f ae 3f bf
       -0.9321511 -0.36788914 -0.72992986 -0.7487554
0003a0 5a 9c 72 bf 91 e9 f1 3d 13 da af 3d 0b 45 fb be
       -0.94769824 0.118121274 0.08586516 -0.49076113
0003b0 3c 0b 8c bd 44 50 2a 3e c1 60 2a 3d 85 e4 36 3f
       -0.0683808 0.16632181 0.041596178 0.71442443
0003c0 7c e2 8e 3e 97 4e db bb e6 c3 08 3f ef 25 ca 3e
       0.2790717 -0.0066927182 0.5342392 0.39482066
0003d0 1a 4a ff be 42 d0 16 bf c1 b6 3c bf 9a c2 da be
       -0.49861223 -0.58911526 -0.7371636 -0.42726594
0003e0 1e ac 4a bf ba 88 2c bf 54 ed 2f 3d 8a 57 b7 bb
       -0.7916888 -0.6739613 0.042950943 -0.0055951523
0003f0 69 5b 42 bf 9b 90 7f bf 80 74 4f 3e 49 f7 41 bf
       -0.7592073 -0.99830025 0.20259285 -0.7576795

linear2.bias f4 [5]
000000 f4 27 b4 3e 06 83 21 bf d8 51 09 3f 5f 64 89 be
       0.35186732 -0.6309055 0.5364051 -0.2683439
000010 51 02 15 bf
       -0.5820666
