examples/minecraft/model/model.pth (torch, 13632 bytes, 4 tensors)

linear1.weight f4 [128, 17]
0	0xbe43d848	-0.19125473
1	0x3eade081	0.33960345
2	0xbd813b4f	-0.0631014
3	0xbdb7ab91	-0.089682706
4	0x3e380743	0.1797152
5	0x3bd8ada0	0.0066124946
6	0x3e56b219	0.20966376
7	0x3ed808f6	0.42194337
8	0xbeb03aa3	-0.34419736
9	0x3e68649d	0.22694631
10	0xbcbad2fd	-0.022805685
11	0x3e045318	0.12922323
12	0x3e570aad	0.21000166
13	0xbdc003a6	-0.09375696
14	0x3ebb7964	0.3661605
15	0xbe0aa2e0	-0.13538694
16	0x3e8560b1	0.26050332
17	0xbe262e2a	-0.16228548
18	0x3c772f31	0.015086935
19	0xbdf40c34	-0.1191639
20	0x3cdd2276	0.026993971
21	0xbd983628	-0.074322045
22	0x3e3bdc55	0.18345769
23	0x3d999f82	0.07501127
24	0xbcfad54e	-0.03061929
25	0x3e9254db	0.28580365
26	0xbe86fb45	-0.26363578
27	0x3eec33b5	0.461332
28	0xbe36171b	-0.17782252
29	0x3d106733	0.03525467
30	0xbda330c1	-0.079682834
31	0x3cb33a56	0.021878403
32	0x3c5e50e0	0.013569087
33	0xbe0f10fa	-0.1397132
34	0xbe0983c8	-0.13429177
35	0x3dee2690	0.11628449
36	0xbe2e30c4	-0.1701079
37	0x3e2138ff	0.15744399
38	0x3e61a123	0.22034125
39	0xbe5ce57c	-0.21571916
40	0xbe544df9	-0.20732869
41	0xbe65063e	-0.22365662
42	0x3ddfdc4e	0.10930692
43	0xbc7f3d30	-0.015578553
44	0xbe520b9a	-0.20512238
45	0x3d5c2220	0.05374348
46	0xbdd9b62c	-0.1063045
47	0xbcc1b7b0	-0.02364716
48	0xbc704710	-0.01466538
49	0x3db7d888	0.08976847
50	0xbdf36863	-0.118851446
51	0x3d2e0820	0.042488217
52	0x3d9b7d58	0.07592267
53	0x3e239c3a	0.15977564
54	0x3e3e784d	0.18600579
55	0xbe3cadac	-0.18425626
56	0xbe7d2617	-0.24721561
57	0xbd862968	-0.06550866
58	0xbeaa0306	-0.33205432
59	0xbc536100	-0.012901545
60	0xbc83fd64	-0.016112037
61	0x3eaddd04	0.33957684
62	0x3e2031b8	0.15643966
63	0xbdb782e2	-0.08960511
64	0x3dff8a3b	0.12477537
65	0x3e7f2287	0.24915515
66	0xbdcdb1a2	-0.100436464
67	0xbe24cfab	-0.16094844
68	0xbd3b38e4	-0.045708552
69	0xbd6416cc	-0.055685803
70	0x3e767571	0.24068238
71	0x3e763216	0.24042544
72	0xbe7232aa	-0.2365214
73	0xbe084b67	-0.13310014
74	0xbe2d8695	-0.1694587
75	0x3d01c27d	0.03167962
76	0x3e38a305	0.18030937
77	0x3db5ffbc	0.08886668
78	0x3e2f3fd5	0.17114194
79	0x3e1b6df2	0.1517866
80	0xbe53105a	-0.20611706
81	0x3ea589a5	0.32331577
82	0xbc8c26a4	-0.017108269
83	0xbd9d717a	-0.076876596
84	0x3e02aa49	0.12760271
85	0x3e3fa236	0.18714222
86	0xbe2b45ae	-0.167258
87	0xbe0f9918	-0.14023244
88	0xbd2e8d84	-0.04261543
89	0xbdbd54e8	-0.0924471
90	0xbd54d7fc	-0.05196379
91	0xbe2a62d6	-0.16639265
92	0xbcc14738	-0.02359353
93	0xbcae6aa0	-0.021291077
94	0x3d0983b0	0.033572853
95	0x3df23214	0.11825958
96	0xbe0bca64	-0.13651425
97	0xbe5fe06f	-0.21862958
98	0x3e56f85a	0.20993176
99	0xbdbc8422	-0.0920489
100	0x3d005b78	0.03133723
101	0xbe3e5d8c	-0.18590373
102	0x3d134ec0	0.035963774
103	0x3dbc87e6	0.09205608
104	0xbd1d05f8	-0.03833577
105	0x3e296c60	0.16545248
106	0x3ecab2a4	0.39589417
107	0x3cb0b358	0.021569893
108	0x3e69f834	0.22848588
109	0x3eca8b41	0.39559367
110	0xbe497d6d	-0.19676752
111	0xbd2a7426	-0.041614674
112	0x3df6b08d	0.12045393
113	0x3e8b7351	0.27236417
114	0x3e11d3e8	0.14240992
115	0xbe6b2edf	-0.22967099
116	0x3e1f7faf	0.15576051
117	0x3e222082	0.15832713
118	0xbc0c85fc	-0.008576866
119	0xbe5c11b1	-0.21491124
120	0xbe090c70	-0.13383651
121	0x3df8d27c	0.12149522
122	0xbbda5320	-0.0066627413
123	0x3c874582	0.016512636
124	0x3eb0a816	0.3450324
125	0x3e985baf	0.2975745
126	0x3f053cf0	0.5204611
127	0x3e958d59	0.29209402
128	0x3c41c7b4	0.011827398
129	0xbdb8933f	-0.0901246
130	0x3ecb28ce	0.3967957
131	0xbc8a57af	-0.016887514
132	0x3e866827	0.26251337
133	0x3e370815	0.17874177
134	0x3b106380	0.0022031963
135	0x3ea61cdb	0.3244389
136	0x3cfaacf0	0.030600041
137	0x3dbade39	0.09124417
138	0xbcf0e76b	-0.029407224
139	0x3e28f305	0.16498955
140	0xbdd84f01	-0.10561944
141	0xbe8e0fdf	-0.27746484
142	0xbe064f62	-0.1311622
143	0xbea83f34	-0.3286072
144	0x3ddc3917	0.107530765
145	0x3d00370c	0.031302497
146	0x3e94d2f8	0.29067206
147	0x3d76f73e	0.060294382
148	0x3dabeb07	0.08394437
149	0x3e46aab3	0.19401054
150	0xbe14161f	-0.14461564
151	0xbe759dac	-0.23985928
152	0x3e60e77d	0.21963306
153	0x3dddb36c	0.10825238
154	0xbe894915	-0.2681357
155	0xbe13ebc7	-0.1444541
156	0xbd85454d	-0.06507359
157	0xbd1345ee	-0.035955362
158	0x3eb787ad	0.358457
159	0xbea5088b	-0.3223308
160	0xbe48043f	-0.1953287
161	0x3eba3ef4	0.36376154
162	0x3d334016	0.04376229
163	0xbd64700f	-0.05577093
164	0xbe3c911f	-0.18414734
165	0xbd65cc75	-0.05610319
166	0xbd38aea7	-0.045088436
167	0x3c82a7a5	0.01594908
168	0x3d664e78	0.056227177
169	0xbdf60798	-0.12013167
170	0xbe1646a3	-0.14675383
171	0x3e78c6c4	0.24294573
172	0xbde65e3d	-0.11248443
173	0x3d04bdc0	0.032407522
174	0x3d4e5714	0.050376013
175	0x3ed13029	0.40857056
176	0xbe106c1c	-0.1410374
177	0x3e7878dd	0.24264856
178	0x3ebf5e29	0.37376526
179	0x3d7ccc4b	0.061718266
180	0xbdc8c046	-0.09802298
181	0xb9f17c2e	-0.00046059623
182	0xbbb48387	-0.0055088433
183	0xbb9251d4	-0.004465321
184	0x3e59e984	0.21280485
185	0xbcc43360	-0.023950279
186	0x3cba48fa	0.022739876
187	0x3e362512	0.17787579
188	0xbda36a70	-0.07979286
189	0x3e36fe40	0.17870426
190	0x3e16e933	0.14737396
191	0xbcd16ae9	-0.025563674
192	0x3ea8505f	0.32873818
193	0x3e34b54d	0.17647286
194	0xbe1192b1	-0.14216115
195	0x3e8f9e88	0.28050637
196	0xbd3dde67	-0.046354678
197	0xbe3fe22e	-0.18738624
198	0xbe178bf6	-0.14799485
199	0xbe733f29	-0.23754562
200	0x3ed4f676	0.41594285
201	0x3e4b3bc8	0.19847023
202	0x3e22f804	0.15914923
203	0x3db6f792	0.08933939
204	0xbe020e75	-0.12700827
205	0xbcbfab6c	-0.02339717
206	0xbe54873c	-0.20754713
207	0x3e3f05c5	0.18654545
208	0x3da61db3	0.081111334
209	0xbe0e9a0e	-0.13925955
210	0x3e827e4f	0.2548699
211	0xbddfe0fa	-0.10931583
212	0xbe80d300	-0.2516098
213	0x3ddfba2b	0.109241806
214	0x3d5765e7	0.052587416
215	0x3e489c26	0.19590816
216	0x3e3d8d95	0.1851104
217	0x3db0d58a	0.08634479
218	0xbddf2b6c	-0.10896954
219	0x3ddcb124	0.107759744
220	0xbe9063a3	-0.28201017
221	0x3d4ee3a0	0.05051005
222	0x3e7785b4	0.24172097
223	0x3e1f1bb1	0.15537907
224	0x3d8d8b4e	0.06911336
225	0xbe5ae251	-0.21375395
226	0x3e4834ab	0.19551341
227	0xbde220e5	-0.110414304
228	0x3e7440fe	0.23852918
229	0x3ea02419	0.3127754
230	0x3e11f869	0.14254917
231	0xbe7cda22	-0.24692586
232	0xbd3b6a19	-0.04575548
233	0xbdc72f32	-0.09725799
234	0x3e9767dc	0.29571426
235	0xbea1634f	-0.3152108
236	0x3e4851d6	0.19562468
237	0x3e39363a	0.18087092
238	0xbd198148	-0.037476808
239	0x3f06313f	0.52418894
240	0xbd906e4e	-0.07052289
241	0x3e25a1f4	0.16175061
242	0x3e8017d6	0.25018185
243	0x3ec1ed8f	0.37876555
244	0xbe607b2e	-0.2192199
245	0x3f3171c9	0.6931425
246	0x3ee2b364	0.4427749
247	0x3e9e0d90	0.30869722
248	0xbe65c5b6	-0.22438702
249	0x3e90611c	0.2819909
250	0x3ecda490	0.40164614
251	0x3e88b326	0.2669918
252	0xbe800187	-0.25001165
253	0xbdbc5f50	-0.09197867
254	0x3e483362	0.19550851
255	0xbda65cbe	-0.08123158

linear1.bias f4 [128]
0	0xbc2c0272	-0.01049863
1	0x3dc5511c	0.09634611
2	0xbe911863	-0.28338918
3	0x3e66b574	0.22530156
4	0xbe858600	-0.26078796
5	0xbe598401	-0.21241762
6	0x3e7af4e4	0.24507481
7	0x3cb2424b	0.021760127
8	0x3e7bbe8e	0.2458441
9	0x3ea10370	0.31447935
10	0x3ef26688	0.4734385
11	0x3e4b036b	0.19825523
12	0xbdc9a3ca	-0.098456934
13	0x3eb4c391	0.35305455
14	0x3eadf05e	0.33972448
15	0x3e977b5c	0.29586303
16	0x3dc0b8f0	0.09410274
17	0x3e680df6	0.22661576
18	0x3e4b1eb4	0.19835931
19	0xbd5a0b75	-0.053233583
20	0xbc9ef442	-0.01940358
21	0x3e4f71df	0.20258282
22	0x3e1eb5a5	0.1549898
23	0x3e3a6299	0.18201675
24	0x3d4f8770	0.050666273
25	0x3e52ba1e	0.2057881
26	0xbd269854	-0.040672615
27	0x3ec27bf8	0.37985206
28	0xbe1e79a5	-0.15476091
29	0xbc8159f0	-0.015789956
30	0x3dd74483	0.105111144
31	0x3d99631a	0.07489605
32	0x3e0baf4f	0.13641094
33	0x3e3e9c6d	0.18614359
34	0x3e0a5162	0.13507608
35	0x3d32d408	0.04365924
36	0x3da326e1	0.079664
37	0x3d87d694	0.066327244
38	0x3ebe7502	0.37198645
39	0x3e8f330f	0.27968642
40	0x3d8d5d97	0.069026165
41	0x3e30529d	0.17219014
42	0x3db2ccaf	0.087304465
43	0x3e097b63	0.13425975
44	0x3ee8ff62	0.45507342
45	0xbdcc3839	-0.09971661
46	0x3ea93e0a	0.33055145
47	0x3e48ea55	0.1962064
48	0x3d3914ed	0.045185972
49	0x3b6b7cf1	0.0035932625
50	0x3ecbff71	0.39843324
51	0xbd465006	-0.04841616
52	0x3ede6dad	0.4344305
53	0x3eb6d176	0.3570668
54	0x3e93ca56	0.28865308
55	0x3ecec76b	0.4038652
56	0x3db5b2ab	0.08871969
57	0x3e55ce4e	0.2087948
58	0xbe68111f	-0.22662781
59	0x3e963c5c	0.29342926
60	0xbe16097f	-0.1465206
61	0x3e808717	0.25103065
62	0x3e84a1ba	0.25904638
63	0x3e527c2f	0.20555185
64	0x3e8611ba	0.261854
65	0x3e8cebc4	0.27523625
66	0xbb07334f	-0.0020629948
67	0x3e68e130	0.22742152
68	0x3b7d20e8	0.003862435
69	0x3e13a634	0.1441887
70	0x3dd9a081	0.10626317
71	0x3dc4215b	0.095766746
72	0x3e76681a	0.24063149
73	0x3da0893d	0.07838676
74	0xbd32fe67	-0.04369965
75	0x3e829c75	0.25509992
76	0x3e086c0a	0.13322464
77	0x3e91f892	0.28509957
78	0x3e018842	0.12649634
79	0xbbad4f47	-0.0052889916
80	0x3e76c61e	0.24099013
81	0x3d94a386	0.07257752
82	0x3ebd7169	0.37000588
83	0x3d15832f	0.03650206
84	0x3e2e2256	0.17005286
85	0x3e8bfac9	0.2733977
86	0x3e8dfd97	0.27732536
87	0x3e9768fa	0.29572278
88	0x3de564e0	0.11200881
89	0x3e3cdd16	0.18443713
90	0x3dab733b	0.08371588
91	0xbd507437	-0.05089208
92	0x3e8e88eb	0.27838835
93	0x3e8bba3a	0.27290517
94	0x3d1c17aa	0.038108505
95	0x3e9b1590	0.30289888
96	0x3e0bf08d	0.13665982
97	0x3e25e68b	0.16201226
98	0xbe81409c	-0.25244606
99	0x3e629be0	0.22129774
100	0x3e9aefcf	0.30261084
101	0x3e744fee	0.23858616
102	0xbd990bd5	-0.0747296
103	0x3e0ae2a3	0.13563018
104	0x3e5954c3	0.2122374
105	0x3dc291db	0.09500476
106	0x3eabb539	0.335367
107	0x3edf4c56	0.43612927
108	0x3c2847b4	0.010271002
109	0x3e34cb76	0.17655739
110	0x3e83c46a	0.2573579
111	0x3da2188b	0.079148374
112	0x3e691822	0.22763112
113	0x3ec93fd2	0.39306504
114	0x3e84855a	0.2588299
115	0xbd4c2f4e	-0.0498498
116	0x3edac938	0.42731643
117	0xbe587514	-0.21138412
118	0x3d231c47	0.03982189
119	0x3e98af62	0.29821306
120	0x3ea46f2e	0.32116073
121	0x3d5367e4	0.05161275
122	0x3e2a6c2b	0.16642825
123	0x3e5e87bd	0.21731468
124	0x3e57fc28	0.21092284
125	0x3e7152d7	0.23566757
126	0x3d8b393d	0.06798027
127	0x3ebc8b50	0.36825037

linear2.weight f4 [5, 128]
0	0xbe1457bc	-0.14486593
1	0xbe4d7c77	-0.20067011
2	0xbc9116c2	-0.017711047
3	0xbe7b3671	-0.24532486
4	0x3bf8ac65	0.0075889104
5	0xbcbcad7c	-0.023031943
6	0xbe37b423	-0.1793981
7	0xbe41c2aa	-0.18921915
8	0xbe91a0be	-0.2844295
9	0xbe0d7dea	-0.13817564
10	0xbe7446e3	-0.23855166
11	0xbd35ce74	-0.044386342
12	0xbdea21c5	-0.11432222
13	0xbd80614e	-0.062685594
14	0xbddd3082	-0.10800268
15	0xbe2f2bd9	-0.1710657
16	0xbcb664a5	-0.022264788
17	0xbd66e7ac	-0.056373283
18	0xbe03e47f	-0.12880133
19	0xbe8347d1	-0.2564073
20	0xbe47ae40	-0.19500065
21	0xbd69673e	-0.056983225
22	0xbe07431e	-0.13209197
23	0xbe4fe43a	-0.20301905
24	0xbe21f830	-0.15817332
25	0xbebaf3e8	-0.3651421
26	0xbdeafae0	-0.11473632
27	0xbdeeac0f	-0.11653911
28	0x3d9399c5	0.072070636
29	0xbe33f2d4	-0.175731
30	0xba976e18	-0.0011553196
31	0xbe27a41b	-0.16371195
32	0xbe4b1f93	-0.19836263
33	0xbcf6b428	-0.030115202
34	0xbd3403af	-0.043948825
35	0xbea6de07	-0.32591268
36	0xbdfaafca	-0.1224056
37	0xbde58496	-0.112069294
38	0xbdec67d8	-0.11543244
39	0xbe110b24	-0.14164406
40	0xbeab80a9	-0.33496597
41	0xbda3df6e	-0.080016
42	0xbeac14fc	-0.3360976
43	0xbdcd1af5	-0.10014907
44	0xbe8463bb	-0.25857338
45	0xbd9d43ba	-0.076789334
46	0xbe59a053	-0.21252565
47	0xbe473fbf	-0.19457911
48	0xbe3a0206	-0.18164834
49	0xbe1355c6	-0.14388189
50	0xbe4a8f34	-0.1978119
51	0xbe95e33d	-0.29274932
52	0xbe7d941b	-0.24763529
53	0xbe3021ea	-0.17200437
54	0xbd794968	-0.06086102
55	0xbe76a7d8	-0.24087465
56	0x3d47c40f	0.04877096
57	0xbd5dda20	-0.0541631
58	0xbde4026f	-0.11133277
59	0xbe220c4c	-0.15825003
60	0x3c028979	0.007967346
61	0xbe8bc5bb	-0.27299294
62	0xbdfe3bb6	-0.12413733
63	0xbdbdd828	-0.09269744
64	0xbe0ea529	-0.13930191
65	0xbe0319ca	-0.12802806
66	0xbd767212	-0.06016738
67	0xbdd05914	-0.1017324
68	0x3cf5235c	0.029924087
69	0xbe1f6ecd	-0.15569611
70	0xbe89bd73	-0.2690235
71	0xbe875092	-0.26428658
72	0xbebf97ef	-0.37420604
73	0xbe79e07f	-0.24402045
74	0x3c2a2b15	0.010386248
75	0xbe4a2c07	-0.19743358
76	0xbe88cf99	-0.26720884
77	0xbe671505	-0.22566612
78	0xbe1eb45d	-0.1549849
79	0xbe3d1a13	-0.18466978
80	0xbe44351e	-0.19160888
81	0xbdd49bd5	-0.10381285
82	0xbe2c8f4d	-0.1685154
83	0x3c31720d	0.0108304145
84	0xbddce9d9	-0.107867904
85	0xbe0fba2f	-0.14035867
86	0xbe4ddbb0	-0.20103335
87	0xbe732bf5	-0.23747237
88	0xbde6b921	-0.11265779
89	0xbe1d4548	-0.1535846
90	0xbded6949	-0.11592347
91	0x3c90da9f	0.017682372
92	0xbe856f3a	-0.26061422
93	0xbe5401c2	-0.20703796
94	0xbe1ff007	-0.15618907
95	0xbe46cd1e	-0.19414183
96	0xbe93a5bc	-0.28837383
97	0xbe84898a	-0.25886184
98	0xbd8ae001	-0.067810066
99	0xbe68a0b5	-0.22717555
100	0xbe937c99	-0.28805998
101	0xbe05d645	-0.13070019
102	0xbc9fed38	-0.019522294
103	0xbe2584b7	-0.16163908
104	0xbdf1b1bb	-0.118014775
105	0x3d4714d4	0.048603848
106	0xbe566d0e	-0.20940039
107	0xbe5ec6bd	-0.217555
108	0xbe8d20dd	-0.27564135
109	0xbd9748c9	-0.073869295
110	0xbe585439	-0.21125878
111	0xbe593381	-0.21211053
112	0xbe00ee02	-0.12590793
113	0xbe9bc79f	-0.30425736
114	0xbdb6323a	-0.08896299
115	0xbd8dcc1a	-0.06923695
116	0xbe721497	-0.23640667
117	0x3d368b1c	0.04456626
118	0xbe920497	-0.28519127
119	0xbe04fa3d	-0.12986083
120	0xbe776aba	-0.24161807
121	0xbe9c93bc	-0.30581462
122	0xbe52fa27	-0.20603238
123	0xbe7413b9	-0.23835649
124	0xbe564e12	-0.20928219
125	0xbe9bdead	-0.30443326
126	0xbe2b9542	-0.16756156
127	0xbe9c2cf5	-0.3050305
128	0xbd30510b	-0.04304604
129	0xbd730d53	-0.05933888
130	0x3d1d4685	0.03839733
131	0xbe1e43fb	-0.1545562
132	0xbcd13463	-0.025537675
133	0x3d7bd176	0.061479054
134	0xbe421799	-0.18954314
135	0xbe067f80	-0.13134575
136	0xbe0de7ed	-0.13858004
137	0xbe65678c	-0.22402781
138	0xbe36049d	-0.17775197
139	0xbde4ae26	-0.11166029
140	0xbe218cca	-0.15776363
141	0xbe5b25e6	-0.21401176
142	0xbe41d2dc	-0.18928093
143	0xbe24cabe	-0.16092965
144	0xbd86a95e	-0.06575273
145	0xbdc9d1fc	-0.098545045
146	0xbd9ac67a	-0.07557388
147	0xbe4ac1e1	-0.19800521
148	0xbe8066a7	-0.25078318
149	0xbd01ccf2	-0.03168959
150	0xbdd0665f	-0.10175776
151	0xbe7192ad	-0.23591109
152	0xbe223533	-0.15840606
153	0xbe94f070	-0.2908969
154	0xbc9cb26d	-0.019128049
155	0xbe1fc0ee	-0.1560094
156	0xbe2f0914	-0.17093307
157	0xbe623928	-0.22092116
158	0xbc4f631b	-0.012657906
159	0xbd88320a	-0.06650169
160	0xbe20370c	-0.15645999
161	0xbc85ec47	-0.016348017
162	0xbe2c81e2	-0.16846421
163	0xbe44bf03	-0.1921349
164	0xbd8fe0d0	-0.070253015
165	0xbdb76ad8	-0.08955926
166	0xbe36b0a6	-0.17840824
167	0xbe622606	-0.22084817
168	0xbe91917c	-0.28431308
169	0xbadbf32a	-0.0016780843
170	0xbe73816a	-0.23779836
171	0xbd6bcef2	-0.057570405
172	0xbe8e4885	-0.27789703
173	0x3d5bcc0b	0.053661387
174	0xbe0030c4	-0.12518603
175	0xbe744e58	-0.23858011
176	0xbd64120f	-0.055681285
177	0xbda32b0f	-0.07967197
178	0xbe3cb7d3	-0.18429498
179	0xbe8a17d4	-0.26971304
180	0xbe400c20	-0.18754625
181	0xbe1a394a	-0.15060917
182	0xbe2255f4	-0.15853101
183	0xbe054d43	-0.13017754
184	0xbe0faf5e	-0.14031741
185	0xbd07a914	-0.03312023
186	0xbe007ad3	-0.12546854
187	0xbe7098e9	-0.2349583
188	0xbdd4c470	-0.1038903
189	0xbe764351	-0.24049117
190	0xbda5751c	-0.080789775
191	0xbde634c2	-0.112405315
192	0xbe2431ac	-0.16034573
193	0xbdffe0e3	-0.124940656
194	0xbd517b57	-0.051143017
195	0xbe07f27e	-0.13276097
196	0xbd53dd17	-0.05172452
197	0xbe433fa0	-0.1906724
198	0xbe0d2bd1	-0.13786246
199	0xbe4f3b54	-0.20237476
200	0xbe98182b	-0.2970594
201	0xbe200b68	-0.15629351
202	0x3b00b91e	0.0019641588
203	0xbe684e83	-0.226862
204	0xbe21f7ac	-0.15817136
205	0xbe3389a1	-0.1753297
206	0xbe3839b1	-0.17990758
207	0xbe5c7c26	-0.21531734
208	0xbe3928b1	-0.18081929
209	0xbe9738c0	-0.29535484
210	0xbe28b03d	-0.1647348
211	0xbe4f94b7	-0.20271574
212	0xbe47c801	-0.19509889
213	0xbe5db8aa	-0.21652475
214	0xbd874202	-0.06604387
215	0xbe3e721b	-0.18598215
216	0xbe750772	-0.23928621
217	0xbe256f06	-0.16155633
218	0xbe19c0ee	-0.15015003
219	0x3c74652d	0.0149167
220	0xbe0e74a6	-0.13911685
221	0xbdd0f73d	-0.10203407
222	0xbdf79533	-0.12089004
223	0xbe2b718e	-0.16742536
224	0xbe6ef257	-0.23334633
225	0xbe80152a	-0.25016147
226	0x3d1fe58a	0.039037265
227	0xbd1ce0c8	-0.038300306
228	0xbe0e732b	-0.1391112
229	0xbd5b7651	-0.053579632
230	0xbda53315	-0.08066384
231	0xbe77490f	-0.24148963
232	0xbdca756a	-0.09885676
233	0xbd4ccbef	-0.049999174
234	0xbdcfe68e	-0.10151397
235	0xbe39d54d	-0.18147774
236	0xbe6a5eb4	-0.22887689
237	0xbd5939be	-0.053033583
238	0xbe009a5d	-0.12558885
239	0xbe6a1ed4	-0.22863322
240	0xbe5bd3f7	-0.21467577
241	0xbe8904a8	-0.26761365
242	0xbd85daa7	-0.06535845
243	0xbc90e108	-0.017685428
244	0xbe50eb19	-0.20402183
245	0xbdb88555	-0.09009806
246	0xbe0585dc	-0.13039345
247	0xbe116d54	-0.14201862
248	0xbe8ec862	-0.27887255
249	0xbe29c4d0	-0.16578984
250	0xbe580ca1	-0.21098568
251	0xbe2cd877	-0.1687945
252	0xbe14d220	-0.14533281
253	0xbe5fff03	-0.21874623
254	0xbd8596ba	-0.065228894
255	0xbe1c9855	-0.15292485

linear2.bias f4 [5]
0	0xbe482bbe	-0.19547936
1	0xbe5ee65c	-0.21767563
2	0xbdb03c11	-0.08605207
3	0x3d125109	0.035721812
4	0xbd1b6a54	-0.0379432
