examples/minecraft/model/model2.4.pth (torch, 6720 bytes, 4 tensors)

linear1.weight f4 [64, 13]
1.6346697 1.511281 0.84453064 0.2540226 -0.07858026 0.7699183 1.5689898 0.8807643
0.6040653 0.31528124 1.1551094 1.3914449 1.1869726 1.6574198 1.7569749 0.58634967
0.5156223 -0.0492699 0.4015171 1.6975062 1.1111355 0.89521307 0.37339124 0.6802872
1.2556033 1.4190239 1.2119355 0.968683 0.62771994 0.221865 0.22087733 0.6953217
1.2780191 0.92756736 0.79609513 0.37099338 0.82432115 0.7924776 0.9661853 -0.26536223
-0.08925832 0.31603706 0.19953167 -0.21798722 -0.24728367 -0.124610014 -0.08029854 0.12578182
-0.07937229 -0.26524904 -0.0681234 0.26272705 1.426037 1.6424276 0.64913034 0.40086478
-0.13459417 0.36114663 1.2829006 0.7780687 0.87234104 0.23490418 1.0047928 1.3487617
1.5343714 1.2126893 1.3586719 0.48829946 0.26466838 -0.21011075 0.6985393 1.2352903
0.439123 0.80494684 0.18757005 1.0447887 1.1431943 1.5573257 1.4338773 1.8580539
0.83467627 0.27805835 0.049340226 0.34130487 1.5276116 0.65594757 0.7581856 0.5210462
1.1487825 1.4361585 1.5379841 1.6643947 1.435524 0.4013815 0.22901751 -0.0949938
0.42093387 1.4706687 0.8464112 0.9505408 0.49897593 1.0049837 1.0266743 1.4108071
1.7259488 1.3961098 0.660377 0.45788503 0.03493058 0.654263 1.6437919 0.73230547
0.94473565 0.46596178 0.821774 1.2274768 1.6047667 1.3602954 1.6744543 0.6305426
0.52113193 0.16690838 0.77378637 1.5825152 0.9242268 1.0536574 0.14676258 0.6768266
1.0178611 1.5957164 1.5989481 1.410057 0.33670202 0.5572083 0.21515812 0.6741152
1.2539936 1.0465944 0.7209488 0.60304374 1.0577583 1.311061 1.1962729 1.5155096
1.5679482 0.9237504 0.30032906 0.06092074 0.29909077 1.6010675 1.049393 0.9257919
0.43944535 0.69039375 1.1342114 1.6588057 1.1993778 1.6442131 0.49431074 0.3322903
0.18241805 0.3731812 1.7186868 0.67506945 1.0956601 0.47478583 1.174684 1.5641003
1.4515976 0.4681766 0.53728324 0.6710077 0.417522 0.112618074 0.2753109 0.49522257
0.49706057 0.82148445 0.41631117 0.5795581 0.70785326 1.3744917 1.247533 1.3700609
0.34837955 0.52721107 -0.2328877 0.47645515 1.1662557 0.9710852 0.98824036 0.47983867
1.0726185 0.92577523 1.6854244 1.1744411 1.6602525 0.8523355 0.4639115 0.095885165
0.30819434 1.2167999 0.9662652 0.5854317 0.40812096 1.0651375 1.302144 1.567852
1.4856558 1.7217065 0.8353366 0.32577816 0.21478662 0.2855361 1.6284795 0.8905296
1.020938 0.5881005 1.2133193 1.448586 1.4860121 1.3279312 1.7860385 0.70838827
0.5331204 0.2683939 0.73752576 1.4816655 0.70299375 1.0599048 0.62570626 0.9913144
1.4086655 1.3173559 1.6775361 1.3854792 0.87528783 0.702126 -0.11423542 0.41300327
1.7798029 1.0645646 0.886903 0.091005854 0.7636918 1.1847444 1.5320117 1.6739906
1.3283955 0.52593416 0.6998101 0.037634954 0.6185513 1.4534984 0.7007894 0.72477716
00000000: db3c d13f a871 c13f 2933 583f 400f 823e
00000010: b0ee a0bd 5e19 453f a8d4 c83f c579 613f
00000020: 06a4 1a3f 8b6c a13e a0da 933f de1a b23f
00000030: b8ee 973f 5526 d43f 8ee4 e03f 031b 163f
00000040: d3ff 033f 3ccf 49bd a693 cd3e e247 d93f
00000050: b039 8e3f af2c 653f 232d bf3e 4d27 2e3f
00000060: 9cb7 a03f 93a2 b53f b420 9b3f 9cfb 773f
00000070: 41b2 203f 9430 633e ab2d 623e 9a00 323f
00000080: 2196 a33f 0e75 6d3f e4cc 4b3f d8f2 bd3e
00000090: b606 533f d0df 4a3f eb57 773f 8fdd 87be
000000a0: 11cd b6bd 9ccf a13e 0852 4c3e 0b38 5fbe
000000b0: ee37 7dbe 8933 ffbd 9073 a4bd f3cc 003e
000000c0: f08d a2bd b9ce 87be 4884 8bbd 2984 863e
000000d0: 6188 b63f 113b d23f 682d 263f 263e cd3e
000000e0: 0ed3 09be 36e8 b83e 1636 a43f 832f 473f
000000f0: be51 5f3f b98a 703e 0d9d 803f 39a4 ac3f
00000100: 4866 c43f 6739 9b3f f6e8 ad3f 6302 fa3e
00000110: 9d82 873e 4627 57be 79d3 323f fe1d 9e3f
00000120: bbd4 e03e ff10 4e3f 5d12 403e a3bb 853f
00000130: 3154 923f 7356 c73f 4b89 b73f b6d4 ed3f
00000140: 58ad 553f aa5d 8e3e fa18 4a3d 83bf ae3e
00000150: c788 c33f 2eec 273f 7418 423f 4963 053f
00000160: 4e0b 933f 0bd4 b73f aadc c43f e30a d53f
00000170: 40bf b73f e081 cd3e 9183 6a3e 1c8c c2bd
00000180: a584 d73e df3e bc3f 68ae 583f a456 733f
00000190: c679 ff3e 4ea3 803f 106a 833f 5495 b43f
000001a0: e4eb dc3f bab3 b23f 780e 293f e86f ea3e
000001b0: 5e13 0f3d c87d 273f c667 d23f 5f78 3b3f
000001c0: 32da 713f 8b92 ee3e c85f 523f f61d 9d3f
000001d0: ff68 cd3f 291e ae3f 8554 d63f 3d6b 213f
000001e0: e768 053f 08ea 2a3e dd16 463f dc8f ca3f
000001f0: 219a 6c3f 3fde 863f ee48 163e 8244 2d3f
00000200: 4649 823f 6f40 cc3f 55aa cc3f bf7c b43f
00000210: 3564 ac3e 34a5 0e3f 6952 5c3e d092 2c3f
00000220: dd82 a03f cef6 853f 1a90 383f 1361 1a3f
00000230: a064 873f d9d0 a73f 781f 993f 38fc c13f
00000240: 87b2 c83f e87a 6c3f bbc4 993e 0788 793d
00000250: 6d22 993e c8ef cc3f 8352 863f b300 6d3f
00000260: fbfe e03e a5bd 303f d72d 913f bf53 d43f
00000270: 3685 993f 9375 d23f 4c16 fd3e f421 aa3e
00000280: cccb 3a3e 9b11 bf3e eefd db3f 5ad1 2c3f
00000290: 973e 8c3f 2117 f33e 0c5c 963f 7034 c83f
000002a0: f3cd b93f d8b4 ef3e 658b 093f 29c7 2b3f
000002b0: 72c5 d53e 4ea4 e63d 8df5 8c3e d08d fd3e
000002c0: b97e fe3e ce4c 523f bd26 d53e eb5d 143f
000002d0: df35 353f 58ef af3f 29af 9f3f 285e af3f
000002e0: ce5e b23e 4ef7 063f 1d7a 6ebe eef1 f33e
000002f0: de47 953f 0a99 783f 52fd 7c3f 6aad f53e
00000300: 904b 893f 9bff 6c3f fdbb d73f 1654 963f
00000310: 2783 d43f a932 5a3f cf85 ed3e 715f c43d
00000320: a6cb 9d3e 19c0 9b3f 285d 773f dade 153f
00000330: 3bf5 d03e 6d56 883f a8ac a63f 60af c83f
00000340: f829 be3f e160 dc3f 9fd8 553f 65cc a63e
00000350: 06f1 5b3e ca31 923e 0472 d03f bff9 633f
00000360: 19ae 823f c18d 163f 0c4e 9b3f 446b b93f
00000370: a535 be3f a6f9 a93f e99c e43f ef58 353f
00000380: 947a 083f ed6a 893e 7dce 3c3f 37a7 bd3f
00000390: 66f7 333f f6aa 873f 492e 203f c8c6 7d3f
000003a0: 274f b43f 1e9f a83f 81b9 d63f 6257 b13f
000003b0: dd12 603f 88be 333f 43f4 e9bd 2a75 d33e
000003c0: 95d0 e33f a743 883f 130c 633f 4761 ba3d
000003d0: 4e81 433f b4a5 973f f618 c43f 5345 d63f
000003e0: dd08 aa3f 9fa3 063f c126 333f 1c27 1a3d
000003f0: 6159 1e3f 3c0c ba3f ef66 333f ff8a 393f

linear1.bias f4 [64]
2.3455665 2.4347587 1.5474858 -0.038521152 2.1187723 2.4349453 2.0800607 2.375375
2.5231636 2.4439034 2.5102968 2.047836 2.0958002 1.8485848 2.293678 2.1690047
2.0448508 2.20188 2.6656663 2.4577599 -0.10256653 2.09153 2.295092 2.3351982
-0.22685714 2.2346687 0.64330596 2.0521955 2.4948332 2.1167257 2.440349 1.9663966
2.0772119 2.495007 2.3857443 2.499316 -0.28192034 1.7193654 2.3571389 2.2295167
1.8675257 -0.1738871 2.3939018 0.51540345 2.2018628 2.0837712 -0.2157954 2.2897055
2.1988924 2.3194933 1.9008502 1.6609316 1.9610963 2.184919 2.3644524 2.1445084
2.2477834 2.5288212 2.3040185 2.4716392 2.3447917 1.9685717 2.029825 2.5851185
00000000: c31d 1640 16d3 1b40 0414 c63f 5bc8 1dbd
00000010: f799 0740 25d6 1b40 b71f 0540 2506 1840
00000020: 837b 2140 ea68 1c40 b4a8 2040 bf0f 0340
00000030: 9721 0640 6d9e ec3f 9fcb 1240 f9d0 0a40
00000040: d6de 0240 9aeb 0c40 479a 2a40 f04b 1d40
00000050: 670e d2bd a1db 0540 cae2 1240 e373 1540
00000060: 3d4d 68be d004 0f40 b3af 243f 2c57 0340
00000070: 59ab 1f40 6f78 0740 ae2e 1c40 e2b2 fb3f
00000080: 0af1 0440 32ae 1f40 09b0 1840 cbf4 1f40
00000090: dd57 90be 2a14 dc3f 5ddb 1640 67b0 0e40
000000a0: 150b ef3f 760f 32be b035 1940 7bf1 033f
000000b0: 52eb 0c40 825c 0540 78f9 5cbe 898a 1240
000000c0: a7ba 0c40 9472 1440 0f4f f33f 6899 d43f
000000d0: 3405 fb3f b7d5 0b40 3053 1740 a03f 0940
000000e0: afdb 0f40 35d8 2140 0a75 1340 562f 1e40
000000f0: 1111 1640 28fa fb3f a7e8 0140 9572 2540

linear2.weight f4 [5, 64]
-1.0873473 -1.1793151 -0.9196504 -0.13526951 -1.0558151 -1.2564874 -1.3164591 -1.0706781
-1.1576997 -1.2292099 -1.1955365 -1.1996101 -1.0947597 -1.0038866 -1.1920712 -1.1445409
-1.2038612 -1.2950815 -1.2022669 -1.1971333 0.071681 -1.1238117 -1.0868301 -1.2310582
0.048684508 -1.041511 -0.3230069 -1.1123987 -1.2403995 -1.1317285 -1.2438935 -1.134218
-1.3081788 -1.2507794 -1.264311 -1.1839141 -0.02523255 -1.1788533 -1.0532649 -1.1399306
-1.1179425 0.070307136 -1.0770389 -0.21689786 -1.2255907 -1.1574069 0.08347598 -1.1440432
-1.0884064 -1.111831 -1.205262 -1.1330057 -1.2944531 -1.1740673 -1.219826 -1.1346189
-1.038123 -1.2104537 -1.1648579 -1.2981344 -1.2400662 -1.1483145 -1.1980768 -1.1528876
-1.1024209 -1.1749411 -0.96800363 -0.25285235 -1.1560507 -1.1044092 -1.2085841 -1.31126
-1.2783501 -1.2417164 -1.165856 -1.1124433 -1.2789222 -0.896483 -1.2354412 -1.1435754
-1.1308571 -1.2039967 -1.1807435 -1.1784561 -0.012841864 -1.2859116 -1.2584672 -1.2887499
0.0008255514 -1.2386065 -0.65937877 -1.2754785 -1.2108103 -1.1202155 -1.2962427 -1.1436896
-1.258829 -1.1852475 -1.1397305 -1.0808538 -0.032545757 -1.2167524 -1.3210108 -1.0912142
-1.2022212 0.012696773 -1.1191752 -0.50103456 -1.1274948 -1.1336313 -0.01956372 -1.0742613
-1.1027662 -1.0578446 -1.032417 -0.97282773 -1.1523662 -1.0773557 -1.1044215 -1.0462121
-1.2338876 -1.2291224 -1.092091 -1.2101465 -1.2243367 -1.0776502 -1.1509112 -1.3170167
-1.2818972 -1.2357373 -1.0728323 -0.46191078 -1.2480394 -1.2510601 -1.2797018 -1.2660387
-1.1834773 -1.1749582 -1.1781883 -1.265726 -1.2761868 -1.0180802 -0.931088 -1.1262167
-1.1781847 -1.271523 -1.0452833 -1.108787 -0.034471422 -1.2972077 -1.2083834 -1.2196466
-0.077668235 -1.0535134 -0.29755026 -1.3095973 -1.1867644 -1.1726453 -1.1139237 -1.2090567
-1.1943355 -1.1109658 -1.0875748 -1.1609503 -0.07508327 -0.97938985 -1.2262753 -1.1381534
-1.0340723 -0.09310779 -1.1591314 -0.38677388 -1.1946177 -1.2469286 -0.09211527 -1.2785059
-1.1517378 -1.2089082 -1.3264468 -0.9846666 -1.2137754 -1.077253 -1.1608677 -1.1679624
-0.93226206 -1.2353566 -1.1588725 -1.019235 -1.1312251 -1.1228215 -1.1093401 -1.2027081
-1.2532127 -1.2565744 -1.04109 0.10543655 -1.297034 -0.95873463 -1.4577259 -1.1965414
-1.2090877 -1.1957998 -1.1577018 -1.1408892 -1.4046234 -0.5712332 -1.045443 -1.2465508
-1.3228928 -1.3163408 -1.1348491 -1.1092366 0.024989333 -1.215836 -0.80887574 -1.0612863
-0.103899956 -1.1791158 -0.6782291 -1.313594 -1.0336713 -1.1262287 -1.0579079 -1.0659373
-1.1984833 -1.2357717 -1.1568484 -1.199921 0.027973616 -0.90882725 -0.9812581 -1.2627126
-1.3418094 0.028376356 -0.9725349 -0.37208712 -1.1361884 -1.449752 0.12369557 -1.1080998
-1.1035053 -1.2716627 -1.223417 -0.7676447 -1.2541195 -0.9817244 -1.1256919 -1.3008456
-0.8809557 -1.1157798 -1.3402717 -1.1939285 -1.2986581 -1.3935257 -1.3823037 -1.1146353
00000000: 322e 8bbf ccf3 96bf 356e 6bbf 1784 0abe
00000010: f324 87bf 94d4 a0bf bb81 a8bf fb0b 89bf
00000020: 812f 94bf c056 9dbf 5707 99bf d38c 99bf
00000030: 1621 8cbf 5b7f 80bf ca95 98bf 5180 92bf
00000040: 2018 9abf 3bc5 a5bf e2e3 99bf aa3b 99bf
00000050: 7dcd 923d 10d9 8fbf 401d 8bbf 5193 9dbf
00000060: 6869 473d 3c50 85bf 2961 a5be 1563 8ebf
00000070: 69c5 9ebf 7bdc 90bf e737 9fbf 0e2e 91bf
00000080: 6772 a7bf 8a19 a0bf f1d4 a1bf 7f8a 97bf
00000090: 7eb4 cebc aae4 96bf 62d1 86bf 3fe9 91bf
000000a0: bd18 8fbf 30fd 8f3d 69dc 89bf 791a 5ebe
000000b0: 28e0 9cbf e925 94bf 74f5 aa3d 0270 92bf
000000c0: e750 8bbf 7a50 8ebf 0646 9abf 5506 91bf
000000d0: a4b0 a5bf d647 96bf 4223 9cbf 313b 91bf
000000e0: 37e1 84bf 26f0 9abf 101a 95bf 4529 a6bf
000000f0: 7dba 9ebf f8fb 92bf 955a 99bf d291 93bf
00000100: 211c 8dbf 7864 96bf 16cf 77bf dd75 81be
00000110: 78f9 93bf 485d 8dbf e2b2 9abf 5ed7 a7bf
00000120: faa0 a3bf 90f0 9ebf c53a 95bf 8b64 8ebf
00000130: b9b3 a3bf e97f 65bf f022 9ebf ae60 92bf
00000140: edbf 90bf 901c 9abf 9a22 97bf a6d7 96bf
00000150: ae66 52bc c098 a4bf 7415 a1bf c2f5 a4bf
00000160: d169 583a a88a 9ebf 0ccd 28bf e142 a3bf
00000170: d5fb 9abf 3963 8fbf 48eb a5bf 6c64 92bf
00000180: 4f21 a1bf 31b6 97bf b0e2 91bf 6b59 8abf
00000190: b34e 05bd 8bbe 9bbf e216 a9bf e8ac 8bbf
000001a0: 62e2 99bf 2006 503c 2241 8fbf cd43 00bf
000001b0: c051 90bf d51a 91bf 1844 a0bc 6581 89bf
000001c0: 7127 8dbf 7467 87bf 3e26 84bf 3d0b 79bf
000001d0: bc80 93bf cbe6 89bf af5d 8dbf 47ea 85bf
000001e0: 07f0 9dbf e253 9dbf a3c9 8bbf 15e6 9abf
000001f0: 11b7 9cbf 71f0 89bf 0f51 93bf 0194 a8bf
00000200: 3515 a4bf a42c 9ebf 9252 89bf 927f ecbe
00000210: c1bf 9fbf bd22 a0bf 45cd a3bf 8e0d a2bf
00000220: 2f7c 97bf 0865 96bf e0ce 96bf 4f03 a2bf
00000230: 175a a3bf 7450 82bf c85b 6ebf de27 90bf
00000240: c2ce 96bf 44c1 a2bf d8cb 85bf bbec 8dbf
00000250: e831 0dbd e70a a6bf 4fac 9abf 611d 9cbf
00000260: 8610 9fbd 87d9 86bf 8258 98be e2a0 a7bf
00000270: e5e7 97bf 3e19 96bf 0d95 8ebf 5fc2 9abf
00000280: fcdf 98bf 2134 8ebf a735 8bbf 059a 94bf
00000290: 42c5 99bd 4bb9 7abf 97f6 9cbf 03af 91bf
000002a0: 7b5c 84bf 4caf bebd 6b5e 94bf 3a07 c6be
000002b0: 3ce9 98bf 5b9b 9fbf eea6 bcbd 15a6 a3bf
000002c0: 256c 93bf 81bd 9abf 02c9 a9bf 1c13 7cbf
000002d0: fe5c 9bbf 6de3 89bf 5097 94bf cb7f 95bf
000002e0: baa8 6ebf 2a20 9ebf ef55 94bf 4b76 82bf
000002f0: fccb 90bf 9db8 8fbf dbfe 8dbf 57f2 99bf
00000300: 4669 a0bf 6ed7 a0bf 7042 85bf 1eef d73d
00000310: 3605 a6bf a26f 75bf c396 babf 4528 99bf
00000320: 63c3 9abf f80f 99bf 932f 94bf a808 92bf
00000330: b3ca b3bf 573c 12bf 14d1 85bf fa8e 9fbf
00000340: 8d54 a9bf db7d a8bf bc42 91bf 77fb 8dbf
00000350: 6eb6 cc3c 84a0 9bbf 7b12 4fbf 3bd8 87bf
00000360: 80c9 d4bd 44ed 96bf 6ca0 2dbf d923 a8bf
00000370: 574f 84bf 4328 90bf 8769 87bf a270 88bf
00000380: e767 99bf c42d 9ebf 9c13 94bf 0397 99bf
00000390: ed28 e53c e7a8 68bf bb33 7bbf 91a0 a1bf
000003a0: 69c0 abbf 8875 e83c 0cf8 78bf 3482 bebe
000003b0: 9f6e 91bf 7991 b9bf 1a54 fd3d 37d6 8dbf
000003c0: a93f 8dbf d8c5 a2bf ee98 9cbf 5d84 44bf
000003d0: fd86 a0bf 4a52 7bbf ac16 90bf 1c82 a6bf
000003e0: 5086 61bf dfd1 8ebf 068e abbf a6d2 98bf
000003f0: 6e3a a6bf 0d5f b2bf 54ef b0bf 5fac 8ebf

linear2.bias f4 [5]
-0.83160746 -0.7654748 -0.8997805 -0.672551 -0.8853649
00000000: 3ae4 54bf 28f6 43bf 0458 66bf 4d2c 2cbf
00000010: 46a7 62bf
