examples/minecraft/model/model12_2.pth (torch, 280384 bytes, 4 tensors)

linear1.weight f4 [4096, 11]
-1.8820567 0.10828553 0.76582325 -0.4576274 1.0357475 0.7229504 0.42558825 0.031100012
0.66958624 -0.06504395 0.5100474 -1.5020993 -0.22291857 0.23867391 -0.08872648 0.5104212
0.82707083 0.62340105 0.3202106 0.2075016 0.07001397 0.81038594 -1.8500366 0.26087245
0.49523157 -0.18361165 0.82784235 0.65720665 0.39300305 0.4917288 0.17246766 -0.18797053
0.673533 4.2652774 3.2046044 1.9531572 2.7970285 -0.61543876 0.10633411 -0.029816782
0.35061827 -0.020126747 1.2596289 -0.25463167 -1.7501944 0.21596932 0.69657147 -0.38640824
0.7591261 0.78719836 0.3614856 0.17765081 0.13227612 0.060974047 0.4339732 2.6909044
2.5717945 1.4680513 1.2881497 -0.40380338 -0.22029683 1.4957813 1.124234 1.1195647
1.2582791 -0.033477537 7.1427226 6.148125 2.936094 2.9709866 -0.27428392 -0.34072787
-0.13523446 0.17279847 0.4879392 3.0958552 -0.0799118 0.113456964 0.19866711 -0.2569257
-0.15575074 -0.21962388 -0.23548016 -0.15336204 -0.12190275 -0.2939766 -0.101479426 0.29926044
-3.7225158 -2.15837 0.3545019 -0.7738758 1.2557164 1.733176 1.2124563 1.4634942
1.2652301 -0.2465883 1.0156536 -1.4798844 -0.13667881 0.3423256 -0.15290457 0.49963063
0.581418 0.07945072 0.42126355 0.09612976 0.07872473 0.24128969 7.6696267 6.5976434
3.0577316 3.4990578 -0.05780461 -0.581871 -0.16980012 0.41628286 0.23880844 3.2247202
-0.2611452 -0.47890788 0.64712995 0.8857784 0.66218907 0.6396433 0.4326986 0.55344385
0.31815344 0.28788662 0.56876135 1.345687 -1.7320435 0.088994764 0.6700015 -0.56871367
0.72764647 0.58487993 0.043615583 0.3535042 0.2885262 -0.005570751 0.61355424 6.6212487
5.4586306 2.5991027 2.960525 -0.30060545 -0.06384713 0.22823139 0.21376407 0.10770794
2.7610924 0.061514545 -1.16636 -0.2432637 0.9053784 0.6646921 0.3955767 0.78407
0.67131984 0.21613991 0.70473325 0.30492565 0.81229454 -1.2796903 -0.0049823727 0.78767186
-0.11930232 0.82465756 0.789105 0.41020045 0.19188492 0.16745484 0.1082853 0.3001546
-2.077579 -0.026864927 0.7284993 -0.5013562 0.6489927 0.48688373 0.60032 0.5459542
0.080826014 0.01718537 0.37554124 -1.5407935 -0.8706774 0.58075774 -0.07599605 0.65223444
0.58239657 0.3685184 0.5865671 0.78894764 -0.019924887 1.0085841 -1.9513819 0.23255505
0.5989218 -0.34578785 0.7245549 0.63492316 0.62963396 0.21176313 0.12159531 0.10934325
0.6016888 6.485381 5.7837873 2.4668481 2.5746686 -0.3702179 -0.26128608 0.3192014
0.24362278 0.084804595 2.3488936 0.12319738 6.3164825 5.543476 2.6819446 2.9262693
-0.35971433 -0.44883737 0.23795237 0.3262183 0.31213677 2.5561314 -0.2725848 -1.4206781
-0.46011505 0.5611379 -0.39531636 0.5051228 0.60786176 0.30805627 0.3978201 0.42596886
0.09610287 0.53658205 -0.72781265 0.00062309334 0.90123785 0.5323231 0.32114685 0.3744838
0.3608091 0.32480407 0.3242184 0.4473658 0.5196078 6.359545 5.4591236 2.4670303
00000000: 3ce7 f0bf cec4 dd3d fe0c 443f 234e eabe
00000010: 6093 843f 4713 393f b4e6 d93e 74c5 fe3c
00000020: 016a 2b3f c335 85bd 7792 023f ca44 c0bf
00000030: c444 64be ef66 743e 3bb6 b5bd f7aa 023f
00000040: eaba 533f 3697 1f3f a5f2 a33e 4d7b 543e
00000050: 7c63 8f3d 7475 4f3f 00ce ecbf 1391 853e
00000060: fe8e fd3e b104 3cbe 7aed 533f b23e 283f
00000070: b237 c93e e1c3 fb3e 5d9b 303e 597b 40be
00000080: a96c 2c3f 277d 8840 3d18 4d40 0e01 fa3f
00000090: 8402 3340 658d 1dbf b3c5 d93d 5342 f4bc
000000a0: 3d84 b33e d9e0 a4bc 853b a13f 155f 82be
000000b0: 5f06 e0bf 1027 5d3e 8252 323f 4dd7 c5be
000000c0: 1756 423f d585 493f a414 b93e 18ea 353e
000000d0: 6473 073e ecbf 793d bc31 de3e c737 2c40
000000e0: 4898 2440 1be9 bb3f 17e2 a43f 51bf cebe
000000f0: 7e95 61be c375 bf3f e6e6 8f3f e54d 8f3f
00000100: 4a0f a13f be1f 09bd 2f91 e440 71bd c440
00000110: f7e8 3b40 a524 3e40 f16e 8cbe e273 aebe
00000120: e77a 0abe 15f2 303e 2bd3 f93e 7e22 4640
00000130: cca8 a3bd 205c e83d 646f 4b3e c48b 83be
00000140: 1f7d 1fbe 15e5 60be b621 71be f00a 1dbe
00000150: 26a8 f9bd 1a84 96be 72d4 cfbd aa38 993e
00000160: b33d 6ec0 bc22 0ac0 4681 b53e b91c 46bf
00000170: 51bb a03f b6d8 dd3f c531 9b3f c753 bb3f
00000180: 0ff3 a13f a581 7cbe f000 823f da6c bdbf
00000190: 88f5 0bbe 4d45 af3e 0493 1cbe 96cf ff3e
000001a0: cfd7 143f 0fb7 a23d dbaf d73e aedf c43d
000001b0: 6e3a a13d a514 773e 956d f540 e51f d340
000001c0: e0b1 4340 90f0 5f40 87c4 6cbd 7ff5 14bf
000001d0: 15e0 2dbe 0723 d53e 338a 743e d161 4e40
000001e0: d3b4 85be 6a33 f5be 4faa 253f 60c2 623f
000001f0: 3985 293f aabf 233f ac8a dd3e 7fae 0d3f
00000200: 02e5 a23e e065 933e 589a 113f 793f ac3f
00000210: 9ab3 ddbf e342 b63d 3885 2b3f 3897 11bf
00000220: 0a47 3a3f b1ba 153f 41a6 323d 81fe b43e
00000230: b5b9 933e d98a b6bb e411 1d3f 45e1 d340
00000240: 1aad ae40 b357 2640 3e79 3d40 f5e8 99be
00000250: 49c2 82bd 7db5 693e f8e4 5a3e fb95 dc3d
00000260: bdb5 3040 adf6 7b3d 494b 95bf 1f1a 79be
00000270: e1c6 673f 4329 2a3f 0789 ca3e d0b8 483f
00000280: 9edb 2b3f c853 5d3e 6669 343f 371f 9c3e
00000290: 89f2 4f3f e4cc a3bf 2c43 a3bb dda4 493f
000002a0: c654 f4bd c21c 533f c902 4a3f cb05 d23e
000002b0: 7b7d 443e 4879 2b3e afc4 dd3d ddad 993e
000002c0: 0ef7 04c0 d613 dcbc ee7e 3a3f e158 00bf
000002d0: 6324 263f d348 f93e 92ae 193f a8c3 0b3f
000002e0: 1c88 a53d 55c8 8c3c f146 c03e b938 c5bf
000002f0: b7e4 5ebf 8aac 143f d1a3 9bbd d6f8 263f
00000300: f117 153f 72ae bc3e 4329 163f 79f8 493f
00000310: 8439 a3bc 4919 813f e2c6 f9bf e922 6e3e
00000320: f052 193f 1b0b b1be 6e7c 393f 538a 223f
00000330: b12f 213f 6fd8 583e f606 f93d 5bef df3d
00000340: 4708 1a3f 3e88 cf40 c914 b940 d7e0 1d40
00000350: 5fc7 2440 338d bdbe 4ac7 85be 5e6e a33e
00000360: 4078 793e 08ae ad3d 4654 1640 e84e fc3d
00000370: a020 ca40 2864 b140 fba4 2b40 ff47 3b40
00000380: 7a2c b8be 03ce e5be c9a9 733e 1606 a73e
00000390: 64d0 9f3e a897 2340 3c90 8bbe c8d8 b5bf
000003a0: 3394 ebbe bca6 0f3f e866 cabe ba4f 013f
000003b0: d49c 1b3f 8db9 9d3e 13af cb3e 9718 da3e
000003c0: 95d1 c43d 715d 093f ee51 3abf 1657 233a
000003d0: 86b7 663f 5446 083f 5c6d a43e 57bc bf3e
000003e0: f8bb b83e b84c a63e f4ff a53e 210d e53e
000003f0: 0405 053f 6581 cb40 24b1 ae40 d3e3 1d40

linear1.bias f4 [4096]
0.53382295 0.374289 0.36559242 0.20037635 0.6739896 0.3081605 0.062045574 -0.26153508
1.5090793 0.7853917 0.13008091 0.64637345 0.7071826 -0.29094508 0.44328463 0.36215433
0.68955004 0.70521516 0.56754285 -0.052748222 -0.1694931 0.6300597 0.54776543 -0.16884518
0.7466155 1.8885984 0.2922608 0.2920362 0.13491938 0.16589066 0.23028874 0.2118989
-0.07017448 0.7823776 0.35023755 0.098624855 0.52395594 0.8387531 0.43461192 0.75681907
0.5948999 0.038689423 0.7038335 1.4808986 -0.2669783 0.64390343 0.014800565 -0.021963658
0.47042832 -0.28438848 0.6408264 0.26649636 0.41869813 0.5532668 0.31396773 0.534551
0.18719411 -0.17802428 0.51746047 0.34520027 0.5833416 -0.15479757 0.7789753 0.5337902
-0.15897128 0.09902231 -0.0568064 0.505418 -0.26338905 0.21200648 0.2824094 0.1913372
0.58056474 0.6397678 0.5427018 0.74776435 0.79665923 -0.006752463 1.2044641 0.75950813
1.8004055 0.17252481 0.004848782 0.8814558 0.42463818 0.32487592 0.56125176 0.43684718
0.020899829 0.3102429 -0.1789622 0.54791903 0.42223084 0.81599456 0.9097977 0.030307628
-0.048458505 -0.26607534 0.6645302 0.27264535 0.29756758 0.60679114 0.3328874 0.8078754
0.6095461 1.820342 -0.17861295 0.24995217 0.48988327 0.8010248 0.09732412 0.7924888
0.48634508 -0.09571054 1.4111959 0.5291634 0.81219655 0.47387308 0.55870074 0.5987256
0.49858516 0.3564254 0.3254402 0.8474775 0.7130701 0.7575344 -0.0076854182 0.5274439
0.8794584 0.7450612 0.33976442 0.4809368 0.8550467 0.6491775 -0.047356397 0.54197115
0.36587366 0.15519845 -0.032015834 0.15881503 0.5344958 0.4685252 0.58081776 0.53341204
0.32485983 0.5767599 -0.1691344 0.6681454 0.7647943 -0.071815684 0.49776885 0.5073522
0.13344179 -0.062526576 0.69014126 0.43878675 0.58706445 -0.18590473 -0.18559486 -0.094202995
-0.041389223 0.16103545 0.76744056 0.3961125 0.3536046 -0.30114987 0.37822178 0.21625757
0.5350773 0.73508376 -0.06327165 0.077406086 0.8421513 0.43497622 0.8541585 0.5882187
0.8114784 0.48105595 0.2724276 0.66212136 0.7417295 0.39805952 0.74359477 0.6764709
0.4899071 0.6977073 0.7021981 0.60417277 0.5179886 0.46149582 0.3018949 1.345529
0.062359836 -0.096385896 0.46697974 0.57013327 -0.12688662 0.6715554 0.009348988 0.3112269
0.59455866 0.7630542 0.8883021 0.53604245 0.7482399 0.08487235 0.052554514 -0.056819033
-0.20512603 0.30974197 0.8542803 0.6591224 0.72555625 0.79325867 0.79695815 0.8232522
0.11164162 0.33106515 0.34412113 1.6768516 0.01442595 0.4717346 0.6488018 0.7620578
-0.12351898 0.7194519 -0.1283225 -0.12566179 0.28508627 0.22822453 1.4702972 -0.0815614
0.221425 0.7477832 0.8083668 -0.15789527 0.74222875 0.1606208 0.3489143 0.13430099
0.60154355 0.6011971 0.41236073 0.54731035 0.68020815 -0.20511441 0.4424462 0.38411614
0.2549412 0.56039953 0.73390496 0.51150453 0.39940214 0.6839111 0.36258963 0.20772077
00000000: 9fa8 083f cfa2 bf3e ee2e bb3e 752f 4d3e
00000010: 958a 2c3f 37c7 9d3e 8023 7e3d ede7 85be
00000020: 8329 c13f 6e0f 493f ee33 053e bb78 253f
00000030: eb09 353f c1f6 94be 34f6 e23e 4b6c b93e
00000040: 5a86 303f fb88 343f 7d4a 113f 850e 58bd
00000050: 998f 2dbe 984b 213f 5b3a 0c3f c0e5 2cbe
00000060: 3222 3f3f 98bd f13f 35a3 953e c585 953e
00000070: 4e28 0a3e 3edf 293e d0d0 6b3e 06fc 583e
00000080: a3b7 8fbd e649 483f 5652 b33e d4fb c93d
00000090: fa21 063f 86b8 563f 7485 de3e e5be 413f
000000a0: 5c4b 183f cd78 1e3d 6f2e 343f 168e bd3f
000000b0: 61b1 88be dbd6 243f 127e 723c 21ed b3bc
000000c0: fbdb f03e 5e9b 91be 330d 243f 3672 883e
000000d0: 9a5f d63e e5a2 0d3f 61c0 a03e 56d8 083f
000000e0: d0af 3f3e ff4b 36be 4a78 043f 17be b03e
000000f0: e055 153f 4183 1ebe ed6a 473f 79a6 083f
00000100: 5ec9 22be 35cc ca3d d4ad 68bd 1363 013f
00000110: eeda 86be 3a18 593e f797 903e e6ed 433e
00000120: e49f 143f d3c7 233f 81ee 0a3f 7c6d 3f3f
00000130: dcf1 4b3f c443 ddbb e12b 9a3f 206f 423f
00000140: b073 e63f 58aa 303e 88e2 9e3b 16a7 613f
00000150: 2d6a d93e 2356 a63e 32ae 0f3f 6faa df3e
00000160: 1e36 ab3c 28d8 9e3e de41 37be 6c44 0c3f
00000170: a42e d83e 05e5 503f 81e8 683f b447 f83c
00000180: 6d7c 46bd 073b 88be a71e 2a3f 2c98 8b3e
00000190: c75a 983e aa56 1b3f 3870 aa3e ecd0 4e3f
000001a0: 370b 1c3f f700 e93f 50e6 36be 76f3 7f3e
000001b0: fbd1 fa3e f60f 4d3f de51 c73d 8ce0 4a3f
000001c0: 3902 f93e e303 c4bd 11a2 b43f 4177 073f
000001d0: 1dec 4f3f 7e9f f23e 0307 0f3f 1546 193f
000001e0: 8e46 ff3e 647d b63e 19a0 a63e 49f4 583f
000001f0: c38b 363f c6ed 413f f6d5 fbbb 9006 073f
00000200: 3024 613f 55bc 3e3f 9af5 ad3e 593d f63e
00000210: 57e4 5a3f 7f30 263f c8f8 41bd 9fbe 0a3f
00000220: cb53 bb3e 58ec 1e3e 0923 03bd 68a0 223e
00000230: b7d4 083f 89e2 ef3e 79b0 143f b18d 083f
00000240: 0754 a63e 89a6 133f 9131 2dbe 940b 2b3f
00000250: 8fc9 433f 1a14 93bd 8fdb fe3e d5e1 013f
00000260: f7a4 083e ef0d 80bd 19ad 303f a8a8 e03e
00000270: db49 163f cf5d 3ebe 940c 3ebe 80ed c0bd
00000280: bf87 29bd 7ae6 243e fc76 443f 42cf ca3e
00000290: aa0b b53e 5130 9abe 49a6 c13e a072 5d3e
000002a0: d3fa 083f 732e 3c3f 9194 81bd 1587 9e3d
000002b0: 3a97 573f 34b5 de3e 22aa 5a3f 8095 163f
000002c0: 0cbd 4f3f f74c f63e a17b 8b3e c980 293f
000002d0: fce1 3d3f 75ce cb3e 3a5c 3e3f 322d 2d3f
000002e0: 1ad5 fa3e f29c 323f 41c3 333f 11ab 1a3f
000002f0: e79a 043f 2e49 ec3e f891 9a3e 4b3a ac3f
00000300: 076d 7f3d f865 c5bd f817 ef3e 41f4 113f
00000310: 91ee 01be 0eeb 2b3f 7f2c 193c 2259 9f3e
00000320: ff34 183f 8557 433f c467 633f 143a 093f
00000330: a68c 3f3f 8ed1 ad3d 6743 573d 13bb 68bd
00000340: 8f0c 52be 8096 9e3e 1db2 5a3f 3fbc 283f
00000350: 0ebe 393f 0013 4b3f 7305 4c3f a8c0 523f
00000360: 5da4 e43d 5f81 a93e a530 b03e 13a3 d63f
00000370: d25a 6c3c 3387 f13e e017 263f 3816 433f
00000380: 85f7 fcbd 002e 383f f966 03be 7cad 00be
00000390: d4f6 913e b1b3 693e b332 bc3f aa09 a7bd
000003a0: 3cbd 623e b86e 3f3f 20f1 4e3f 4caf 21be
000003b0: b402 3e3f c779 243e e5a4 b23e 3386 093e
000003c0: c2fe 193f 0ee8 193f f220 d33e 881c 0c3f
000003d0: 1f22 2e3f 8309 52be 4f88 e23e dfaa c43e
000003e0: a787 823e 5876 0f3f 32e1 3b3f f6f1 023f
000003f0: 707e cc3e cc14 2f3f 59a5 b93e c1b4 543e

linear2.weight f4 [5, 4096]
0.4590762 0.78199255 0.1686732 -0.9537258 0.15553597 -2.0069714 -0.8942309 -0.015543345
1.16373 0.1817603 -1.1951231 -1.3899422 0.341322 -0.56861705 -0.055028506 0.49782085
0.10366098 0.03913746 0.14609498 -0.5568707 -0.5577378 1.2652595 -1.2470775 -0.56347054
0.11435305 1.1949365 -2.4047842 0.22943136 -0.653065 -0.56050587 -1.6335387 -0.856943
-1.0321587 0.05666382 0.7338442 -1.5922353 0.23456614 -0.049979556 0.17236187 0.10964638
0.3991566 -0.5508384 0.14659269 0.71600306 0.0033298004 0.09743318 -0.6774575 -0.6424174
0.15790471 0.004334569 0.2839291 -1.3183126 0.19870238 0.100144155 0.23210672 0.16643554
-0.896684 -0.9934721 0.1535531 0.15928313 0.14442512 -0.0067104828 0.16399036 0.46788192
-1.064409 -0.5893722 -0.0031330958 0.14740194 0.0061916225 -0.5994218 -0.8837621 -1.2197436
0.24476513 0.12851973 -0.07794425 0.03782116 0.06305311 -0.6561463 0.50885445 0.9254359
0.9796567 -0.9393926 -0.90601873 -1.0254308 -1.9589328 0.18163443 0.3901297 0.30017695
-0.60258 -1.0490986 -0.47262025 0.19211307 -0.3922005 0.28092256 0.6141401 -0.71463436
-1.2297204 -0.41759354 0.012924162 -0.4678916 -0.6073937 0.14769974 -1.3523437 0.26275137
0.09985686 1.2084084 0.0064193998 -0.99852914 0.11542919 0.30435717 -1.4856085 0.0917043
0.3442005 -0.76478 1.0620344 0.052995563 -1.8286546 0.03616871 -0.053287946 0.1740254
0.34953174 -1.3428787 0.13741171 1.1806749 0.1613533 0.2889104 -0.4560454 -0.15581997
1.0702747 -0.015086938 -1.0335963 0.16509524 -1.1973944 0.44422424 0.006289238 0.1568839
0.33720043 -1.1872731 -0.5931346 -1.9909055 -1.9650924 0.38440052 0.15724614 -0.42666942
0.41910893 0.1229233 -0.7052231 0.23159085 -0.02073649 -0.8262562 0.011153284 0.11956442
-0.78831166 -0.70371747 0.20555808 0.059830762 -2.0625505 -0.50259864 -0.5294042 0.008856993
0.32084936 -2.5548508 -0.15928406 -2.1093 -0.40320176 -0.07835054 -2.4660223 -1.0911593
-0.0052332417 -0.034528237 -0.4963179 -0.8680911 0.11822229 0.12342815 0.15449694 -1.6675482
0.38042566 -2.233189 -0.6783368 0.040685896 -0.04990927 0.17267731 0.11980876 0.16262211
0.055793263 0.37870765 0.2706039 0.37373358 0.11921519 0.23917477 0.038851842 1.158084
-0.51558447 -0.5069345 0.2128894 0.37255216 -0.8046714 0.33705625 -0.59510225 0.24551375
0.201657 0.3664038 1.0274701 0.20966713 0.86303467 -2.6474876 -0.6913616 -0.43525532
-0.61094654 0.261029 0.9369325 0.21737869 0.11325408 0.112231575 0.17326063 0.10382602
-0.61371285 -2.3406506 0.20457998 1.1491836 -0.46623117 0.33530337 0.16057266 0.6870728
-0.80514 0.18453604 -0.5775284 -2.4749243 0.14112301 0.17218123 0.67523974 -0.81645423
-0.59255 0.28843647 -0.034353226 -0.013205925 0.20004417 -1.2801956 -2.1549082 -0.76212925
0.7103266 0.102649614 -2.201524 0.11476754 0.31036016 -0.72042865 0.19079429 -1.0612317
-0.42999017 0.08104513 0.11595614 0.14127612 0.3116816 -0.10375648 0.22338049 -0.60768414
00000000: 090c eb3e aa30 483f abb8 2c3e 6027 74bf
00000010: d244 1f3e 3872 00c0 51ec 64bf 84a9 7ebc
00000020: 1bf5 943f 5f1f 3a3e cbf9 98bf a0e9 b1bf
00000030: c2c1 ae3e e390 11bf 9265 61bd 60e2 fe3e
00000040: 354c d43d 9a4e 203d ec99 153e 148f 0ebf
00000050: e8c7 0ebf 06f4 a13f 3ca0 9fbf 9b3f 10bf
00000060: ef31 ea3d aef3 983f fce7 19c0 0ef0 6a3e
00000070: 452f 27bf 507d 0fbf cc17 d1bf 9e60 5bbf
00000080: c71d 84bf 5218 683d 37dd 3b3f 5ece cbbf
00000090: 1b32 703e 5db7 4cbd a17f 303e 488e e03d
000000a0: 415e cc3e bf03 0dbf 651c 163e fa4b 373f
000000b0: c838 5a3b 0c8b c73d db6d 2dbf 7775 24bf
000000c0: c6b1 213e 0009 8e3b 285f 913e 78be a8bf
000000d0: a378 4b3e 6118 cd3d 62ad 6d3e 146e 2a3e
000000e0: 158d 65bf 3054 7ebf 063d 1d3e 1e1b 233e
000000f0: 2ee4 133e 9ce3 dbbb 17ed 273e 388e ef3e
00000100: 8e3e 88bf 19e1 16bf a054 4dbb 89f0 163e
00000110: 18e3 ca3b b573 19bf 3c3e 62bf 8f20 9cbf
00000120: b6a3 7a3e ad9a 033e 3ca1 9fbd 5cea 1a3d
00000130: fd21 813d 34f9 27bf 4944 023f 5ee9 6c3f
00000140: c8ca 7a3f 097c 70bf d8f0 67bf 5141 83bf
00000150: 4fbe fabf 60fe 393e 14bf c73e cbb0 993e
00000160: af42 1abf dd48 86bf 48fb f1be 4ab9 443e
00000170: 81ce c8be 15d5 8f3e 4938 1d3f 47f2 36bf
00000180: 7a67 9dbf d2ce d5be ddbf 533c 7d8f efbe
00000190: 277e 1bbf 9a3e 173e 9919 adbf 5987 863e
000001a0: c181 cc3d 20ad 9a3f d459 d23b 9b9f 7fbf
000001b0: 2466 ec3d b4d4 9b3e 6b28 bebf 77cf bb3d
000001c0: 0c3b b03e 9fc8 43bf bef0 873f e011 593d
000001d0: 5b11 eabf a425 143d 7644 5abd b733 323e
000001e0: d3f5 b23e 73e3 abbf a8b5 0c3e 5b20 973f
000001f0: cd39 253e 10ec 933e c87e e9be 458f 1fbe
00000200: c3fe 883f 342f 77bc e24c 84bf ba0e 293e
00000210: 3844 99bf 5c71 e33e f415 ce3b 2ca6 203e
00000220: 89a5 ac3e 91f8 97bf abd7 17bf fed5 febf
00000230: 2688 fbbf 25d0 c43e 2205 213e 6a74 dabe
00000240: 7295 d63e 36bf fb3d 8089 34bf 2726 6d3e
00000250: 92df a9bc 8785 53bf 44bc 363c 31de f43d
00000260: cbce 49bf d426 34bf d17d 523e 1a11 753d
00000270: d400 04c0 4eaa 00bf 0987 07bf ec1c 113c
00000280: 5e46 a43e ad82 23c0 5c1b 23be c5fe 06c0
00000290: 7670 cebe 3f76 a0bd 4fd3 1dc0 1cab 8bbf
000002a0: 9d7b abbb 7b6d 0dbd 611d febe 383b 5ebf
000002b0: 871e f23d e6c7 fc3d 7234 1e3e 3872 d5bf
000002c0: 27c7 c23e 92ec 0ec0 7ba7 2dbf 41a6 263d
000002d0: aa6d 4cbd 52d2 303e 4c5e f53d 6986 263e
000002e0: 7a87 643d f8e5 c13e 988c 8a3e 025a bf3e
000002f0: 1827 f43d 3bea 743e 1c23 1f3d 193c 943f
00000300: 58fd 03bf 76c6 01bf aeff 593e 28bf be3e
00000310: f2fe 4dbf a392 ac3e 9f58 18bf f567 7b3e
00000320: 2c7f 4e3e 4799 bb3e 2484 833f fbb2 563e
00000330: d7ef 5c3f 7070 29c0 13fd 30bf c9d9 debe
00000340: fe66 1cbf 98a5 853e cfda 6f3f 8598 5e3e
00000350: c1f1 e73d abd9 e53d 3c6b 313e bda2 d43d
00000360: 491c 1dbf 38cd 15c0 6a7d 513e 7318 933f
00000370: dab5 eebe e2ac ab3e 296d 243e 01e4 2f3f
00000380: a81d 4ebf 04f7 3c3e e7d8 13bf 2965 1ec0
00000390: 8d82 103e 4750 303e 83dc 2c3f 2503 51bf
000003a0: 5bb1 17bf f2ad 933e f8b5 0cbd aa5d 58bc
000003b0: 61d8 4c3e 73dd a3bf 04ea 09c0 e71a 43bf
000003c0: f7d7 353f f639 d23d c5e5 0cc0 3e0b eb3d
000003d0: 87e7 9e3e 036e 38bf 945f 433e 71d6 87bf
000003e0: ac27 dcbe fdfa a53d 6a7a ed3d b0aa 103e
000003f0: bb94 9f3e 477e d4bd dbbd 643e 3091 1bbf

linear2.bias f4 [5]
-0.0110108815 -1.1478224 0.31529814 -0.9368465 -0.9290823
00000000: fc66 34bc d8eb 92bf c26e a13e 2cd5 6fbf
00000010: 56d8 6dbf
