examples/minecraft/model/model2.pth (torch, 6720 bytes, 4 tensors)

linear1.weight f4 [64, 13]
0	0xbfcfc35c	-1.6231494
1	0x3f87fb76	1.0623615
2	0x3f4fc8fd	0.8116606
3	0x3fc4d373	1.5377029
4	0xbf90cf43	-1.1313251
5	0xbec5850d	-0.38578072
6	0x3e9c9879	0.30585077
7	0xbf83ce6e	-1.0297372
8	0x3f153ae2	0.58292973
9	0x3eed4829	0.46344116
10	0x3f873251	1.056223
11	0xbfcc9246	-1.5982139
12	0xbf087584	-0.53304315
13	0x3f982a7b	1.1887964
14	0xbf280c3b	-0.6564366
15	0xbeb05236	-0.34437722
16	0xbfa63a02	-1.2986453
17	0x3fac5f54	1.3466592
18	0x3fbaecc9	1.4603511
19	0x3f175bee	0.5912465
20	0x3f6a7c87	0.91596264
21	0x3dea9ad3	0.114553116
22	0x3f5061f7	0.8139948
23	0x3e8c75d3	0.27433643
24	0x3fd10cb3	1.6332
25	0x3d1c844d	0.03821211
26	0x3f86609b	1.0498232
27	0x3e86c021	0.26318458
28	0x3f102492	0.563058
29	0xbf4cce9d	-0.80002767
30	0x3f9656b5	1.1745211
31	0xba1e97d9	-0.0006049849
32	0x3e8d876a	0.27642375
33	0x3fd76844	1.6828694
34	0x3f535d67	0.82564396
35	0x3cc8b1f6	0.02449892
36	0x3e4c2df5	0.19939406
37	0x3fd2eef2	1.647917
38	0xbed617fb	-0.4181517
39	0x3fe7d85f	1.8112906
40	0xbf1f595a	-0.62245715
41	0x3e86e3ef	0.26345775
42	0xbfb259df	-1.3933676
43	0x3f94d873	1.1628555
44	0x3f19b04c	0.6003463
45	0x3ee59a0b	0.44844088
46	0x3fae6e3f	1.3627394
47	0x3eef2cf3	0.4671398
48	0x3ecd43ed	0.40090886
49	0x3e8e9a9d	0.27852336
50	0x3fdd9c7e	1.7313383
51	0xbef611d9	-0.48060492
52	0xbfc34265	-1.5254637
53	0x3fba9c8b	1.4579023
54	0x3f3f4cb8	0.7472644
55	0x3fe238c8	1.7673578
56	0xbfa28848	-1.269784
57	0x3e895912	0.26825768
58	0x3f298ac9	0.66227394
59	0xbf8d6fda	-1.1049759
60	0xbebfb790	-0.37444735
61	0x3ecb7a69	0.3974183
62	0x3f850a9a	1.039386
63	0xbfd3db63	-1.6551327
64	0xbe807bd1	-0.25094464
65	0xbf8e963c	-1.1139598
66	0x3f2f6338	0.6851077
67	0x3e9fa0e4	0.31177437
68	0x3fdf660b	1.7453016
69	0xbf944e4f	-1.1586398
70	0x3f3f6bdc	0.74773955
71	0x3f1fc31e	0.624071
72	0xbf317550	-0.6931963
73	0x3dd924bb	0.10602709
74	0x3e48503f	0.19561861
75	0x3ec647b9	0.38726595
76	0xbfdec68a	-1.7404339
77	0x3f41a371	0.75640017
78	0xbfab0e8d	-1.3363816
79	0x3f88097b	1.0627893
80	0x3f349764	0.70543504
81	0x3fb790d5	1.4341074
82	0xbfbacdb7	-1.4594029
83	0x3ee8d1ee	0.45472664
84	0x3ecf868f	0.40532348
85	0xbf8c4d64	-1.0961118
86	0x3e383ce9	0.17991985
87	0x3eb0169e	0.34392256
88	0x3f7dce05	0.99142486
89	0xbfe85ca0	-1.8153267
90	0x3f1883ca	0.59576094
91	0x3ff8500a	1.9399426
92	0xbf1f584a	-0.62244093
93	0x3c2d771d	0.010587481
94	0xbf8d01fd	-1.1016232
95	0x3f76c4e6	0.96394193
96	0x3f59de57	0.8510489
97	0x3eaa5f5d	0.3327588
98	0x3fa9d973	1.3269485
99	0x3e9dfd4e	0.3085732
100	0x3ecc2d0d	0.3987812
101	0x3e89abc6	0.26888865
102	0x3ffab2f9	1.9585868
103	0xbeff7f7d	-0.49901953
104	0x3fda9696	1.7077205
105	0xbeba3fe9	-0.36376885
106	0x3f12056b	0.5703952
107	0xbf8e2117	-1.1103848
108	0x3f857b09	1.0428172
109	0x3f071246	0.5276226
110	0x3ee7d75b	0.4528149
111	0x3fadadf6	1.3568714
112	0x3ef42c86	0.4769022
113	0x3e02bf75	0.12768348
114	0x3e52b878	0.20578182
115	0x3fe4fa00	1.7888794
116	0xbe62c105	-0.22143944
117	0x3fc0c22e	1.5059259
118	0xbeddd07a	-0.43323117
119	0x3eb52a6a	0.35383922
120	0xbf9aa620	-1.2081947
121	0x3fa45d2f	1.2840937
122	0x3ec695bb	0.3878611
123	0x3eaceabe	0.33772844
124	0x3faf0a34	1.3674989
125	0x3f1df2c6	0.6169857
126	0x3eb9d189	0.36292675
127	0x3dda7ba9	0.106681176
128	0x4003546a	2.0520272
129	0xbebb2b83	-0.36556634
130	0x3fcce741	1.6008073
131	0xbec3ca32	-0.382402
132	0x3e72c042	0.23706153
133	0xbfbc9a87	-1.4734658
134	0x3fc1bdc8	1.5136042
135	0x3e8a3726	0.269952
136	0x3e431b98	0.19053495
137	0x3fbe7868	1.4880495
138	0x3edd516c	0.43226182
139	0x3ea45303	0.32094583
140	0x3db8b000	0.09017944
141	0x40035e90	2.0526466
142	0xbf10297e	-0.5631331
143	0xbfc67947	-1.5505761
144	0x3f94e2c6	1.1631706
145	0x3f19d74c	0.6009414
146	0x3fc5e2ec	1.5459876
147	0xbfa8e481	-1.3194734
148	0x3d5d6a93	0.054056715
149	0x3e2cc5a7	0.16872273
150	0xbf367fc8	-0.7128873
151	0x3ec1dcf6	0.37863892
152	0x3f0a9e57	0.5414786
153	0x3f80c33b	1.005958
154	0xbfd341a0	-1.6504402
155	0xbeb394a0	-0.3507433
156	0xbf75e74c	-0.96056056
157	0x3d33ac0c	0.04386525
158	0x3ecddc1b	0.4020699
159	0x3f4eb341	0.8074227
160	0xbf47deed	-0.7807453
161	0xbf84bac2	-1.0369494
162	0xbe1eba11	-0.15500666
163	0xbcf19675	-0.029490689
164	0x3f99a614	1.2003808
165	0xbe78a585	-0.2428189
166	0x3ec37884	0.38177884
167	0xbf2296ba	-0.6351124
168	0x3d154282	0.03644038
169	0xbfbebdf8	-1.4901724
170	0x3fa1e028	1.2646532
171	0x3ef994bb	0.48746285
172	0x3fcf21c6	1.6182182
173	0xbf34ed22	-0.70674336
174	0xbf6753d4	-0.90362287
175	0x3f1ae51d	0.6050585
176	0xbfb563cd	-1.4171082
177	0x3e7e3336	0.24824223
178	0x3e7b1751	0.24520613
179	0x3f5ec4f1	0.8701926
180	0xbfd26e51	-1.6439916
181	0x3f373cac	0.7157695
182	0xbeb7aa37	-0.3587205
183	0x3fa620b4	1.297873
184	0x3fb1e612	1.3898337
185	0x3fcddfea	1.6083958
186	0xbe194082	-0.14966014
187	0xbfad70ad	-1.3550011
188	0xbcf66ca4	-0.0300811
189	0x3ea681de	0.32520956
190	0x3f4ab045	0.79175216
191	0x3ce20b25	0.027593205
192	0x3f717afb	0.9432828
193	0xbf2bd90d	-0.6712807
194	0xbefe5076	-0.49670762
195	0x3f8918cb	1.0710691
196	0x3f11af1d	0.56907827
197	0x3f8c3443	1.0953449
198	0xbf0a4e14	-0.5402539
199	0x3f2af37b	0.6677777
200	0xbe8dbdf2	-0.2768398
201	0xbe423e17	-0.18968998
202	0x3fbceb72	1.4759352
203	0x3fd649c4	1.6741261
204	0x3e14c06d	0.1452653
205	0x3ee8beb7	0.45458004
206	0x3f8c7249	1.0972377
207	0xbea63a60	-0.32466412
208	0xbfa1f98a	-1.2654278
209	0x3f987109	1.1909496
210	0x3ef89e6b	0.48558363
211	0x3fe4e18c	1.7881331
212	0xbf9e091f	-1.2346534
213	0x3f2b43ab	0.6690013
214	0x3f1152f0	0.5676718
215	0xbfae93a6	-1.3638809
216	0x3d4eb26d	0.05046313
217	0x3efc32a1	0.49257377
218	0x3f508e4d	0.81467134
219	0xbfc3d298	-1.5298643
220	0x3e580b53	0.2109807
221	0xbb2bd800	-0.0026221275
222	0x3e7291f1	0.23688485
223	0xbcadf6b2	-0.021235798
224	0x3d55b3e0	0.052173495
225	0xbe16aea6	-0.1471506
226	0x3e05d685	0.13070114
227	0xbe481642	-0.1953974
228	0xbd642e6b	-0.05570833
229	0x3e58cfc7	0.21173011
230	0xbe0712a1	-0.131907
231	0xbe89d395	-0.26919237
232	0xbd1f6d24	-0.038922444
233	0xbcec6e88	-0.0288613
234	0xbfa2ded8	-1.2724257
235	0x3ea27025	0.31726184
236	0xbf5888ad	-0.8458355
237	0x3fcaa092	1.5830252
238	0xbebb4f96	-0.36584157
239	0xbef16ff6	-0.47155732
240	0x3f162e55	0.5866445
241	0xbd4af7f9	-0.04955289
242	0x3f49a86a	0.78772604
243	0xbf971197	-1.1802243
244	0xbe04146d	-0.12898417
245	0xbf84165b	-1.0319322
246	0x3e860474	0.26175272
247	0x3fcbe55e	1.5929372
248	0xbf48fe72	-0.7851325
249	0x3d98af4f	0.074553125
250	0xbf6ea70c	-0.93223643
251	0x3f6677b8	0.90026426
252	0x3f8abb54	1.0838418
253	0x3edac4f9	0.42728403
254	0x3f982bfe	1.1888425
255	0x3ec306d6	0.38091153

linear1.bias f4 [64]
0	0x40056119	2.0840514
1	0xbf2100a1	-0.62891585
2	0xbf0070b2	-0.5017196
3	0xbf668934	-0.90053105
4	0x3ff79b2e	1.9344232
5	0x401b8919	2.4302428
6	0x401a6e33	2.412976
7	0xbf22c945	-0.6358836
8	0xbf632e36	-0.8874239
9	0xbf52bdce	-0.8232087
10	0xbf1df9a1	-0.6170903
11	0x400de51b	2.2171085
12	0x3f98b9e2	1.1931727
13	0x3feefe41	1.8671342
14	0x3fde6460	1.7374382
15	0xbdfa5ed8	-0.12225121
16	0x4024bde1	2.5740893
17	0xbea63b64	-0.32467186
18	0x3fd5793e	1.6677625
19	0xbf4afecb	-0.79295033
20	0xbf08c91d	-0.53431875
21	0x400fb809	2.2456076
22	0x3f9ff5e6	1.2496917
23	0x401e4912	2.4732099
24	0x401ee422	2.4826741
25	0xbe91baca	-0.2846282
26	0x402470a2	2.5693746
27	0x4006d952	2.1070142
28	0x3fae658f	1.3624743
29	0x4002f92b	2.046458
30	0xbf46fc33	-0.77728575
31	0x4004642d	2.0686142
32	0x3fef7f0c	1.8710647
33	0xbf32823c	-0.6972997
34	0x3fb935af	1.4469508
35	0x3fe92294	1.8213677
36	0xbf15e0ef	-0.58546346
37	0x4024cf13	2.5751388
38	0xbda1830b	-0.078863226
39	0x3fb69b45	1.4266135
40	0x3fce7e02	1.6132205
41	0x3f288580	0.65828705
42	0xbf1ce549	-0.6128736
43	0x4016e5ab	2.3577678
44	0xbf14dae0	-0.58146477
45	0x3fcb6846	1.5891197
46	0x4004c4fd	2.0745232
47	0x401c8c3c	2.4460592
48	0x40096283	2.1466377
49	0xbf135b35	-0.57561046
50	0x3ffe1426	1.9849899
51	0x3fd8fac7	1.6951531
52	0x3faf013c	1.3672252
53	0xbf62ae92	-0.88547623
54	0x3f71114f	0.94167036
55	0x3f92e0c4	1.1474843
56	0x40029d4c	2.0408506
57	0xbf2a876a	-0.66612875
58	0xbf2121ba	-0.6294209
59	0xbf49393b	-0.7860295
60	0xbe7b3241	-0.24530889
61	0xbe401162	-0.18756631
62	0xbec9bfc6	-0.39404124
63	0x401e942b	2.4777935

linear2.weight f4 [5, 64]
0	0xbe744c94	-0.23857337
1	0xbde647b2	-0.112441435
2	0xbec57855	-0.3856837
3	0xbe2a6b32	-0.16642454
4	0xbe8f91f1	-0.28041032
5	0xbe4fd7a5	-0.20297106
6	0xbf0187af	-0.5059766
7	0xbeed8dc1	-0.46397212
8	0xbf00311c	-0.50074935
9	0xbede946e	-0.43472618
10	0xbea5636a	-0.3230241
11	0xbef440dd	-0.47705737
12	0xbe318f64	-0.17339855
13	0xbe2e240d	-0.1700594
14	0xbee746db	-0.45171246
15	0xbed0795a	-0.40717584
16	0xbf03ea2e	-0.51529205
17	0x3d908ff3	0.07058706
18	0xbcc06865	-0.02348728
19	0xbebdd0f2	-0.37073475
20	0xbed690aa	-0.41907245
21	0xbf056526	-0.52107465
22	0xbf0cce19	-0.5500198
23	0xbed15c2d	-0.40890637
24	0xbec617d0	-0.38690042
25	0x3ce0d3b7	0.027444704
26	0xbec537e6	-0.3851921
27	0xbedd6c41	-0.43246654
28	0xbe9f10e2	-0.31067568
29	0xbefbfeab	-0.49217734
30	0xbe5cfd4e	-0.21581003
31	0xbeb9e541	-0.3630772
32	0xbea96315	-0.33083406
33	0xbe86b17f	-0.26307294
34	0xbd910866	-0.0708168
35	0xbf09e643	-0.53866976
36	0xbed3038d	-0.41213647
37	0xbeead4cf	-0.45865485
38	0xbd2f8970	-0.04285568
39	0xbef24bfc	-0.47323596
40	0xbec7ff59	-0.39062002
41	0xbd863a2a	-0.06554063
42	0xbe58c725	-0.21169718
43	0xbef58b40	-0.47957802
44	0xbe220a51	-0.15824248
45	0xbe3a4d27	-0.18193494
46	0xbed960c1	-0.4245663
47	0xbed20dcb	-0.41026148
48	0xbe880016	-0.26562566
49	0xbf04626c	-0.5171268
50	0xbee311d1	-0.4434953
51	0xbf0e568d	-0.55600816
52	0xbf09cce8	-0.5382829
53	0xbecd6096	-0.40112752
54	0xbe89d61d	-0.26921168
55	0xbecca5bb	-0.39970192
56	0xbe37785a	-0.17917004
57	0xbeb09a6e	-0.3449282
58	0xbea24b45	-0.3169805
59	0xbef32c5b	-0.47494778
60	0x3ce1b068	0.027549937
61	0xbc14900a	-0.009067545
62	0xbeb101e5	-0.34571758
63	0xbf11c82d	-0.5694607
64	0xbf2f17c4	-0.6839564
65	0xbef7bdfa	-0.48387128
66	0xbf388ff8	-0.7209468
67	0xbf1a6b4e	-0.60319984
68	0xbf53abec	-0.82684207
69	0xbf378ae7	-0.71696323
70	0xbf629f17	-0.88524
71	0xbf26b790	-0.65123844
72	0xbedf7299	-0.4364212
73	0xbedd387d	-0.4320716
74	0xbf038be3	-0.51385325
75	0xbf69d470	-0.9133978
76	0xbf152492	-0.58258927
77	0xbf2b3c09	-0.6688848
78	0xbf315902	-0.6927644
79	0xbf221cac	-0.63325
80	0xbf48aaf2	-0.7838584
81	0xba277263	-0.00063875894
82	0xbf0f4303	-0.55961627
83	0xbef18f88	-0.47179818
84	0xbf2c336e	-0.67265975
85	0xbf71c176	-0.9443582
86	0xbf439148	-0.76393557
87	0xbf4955a3	-0.78646296
88	0xbf73aa48	-0.95181704
89	0xba2e8600	-0.0006657541
90	0xbf36117a	-0.7112042
91	0xbf4ff9ce	-0.81240547
92	0xbeca638f	-0.39529082
93	0xbf14e01e	-0.58154476
94	0xbf17df20	-0.59324837
95	0xbf3759ef	-0.716216
96	0xbf36a4ef	-0.7134542
97	0xbecc9d53	-0.3996378
98	0xbf2f2523	-0.6841604
99	0xbf431cac	-0.76215625
100	0xbf3a311f	-0.727312
101	0xbf78be78	-0.9716563
102	0x3cc2c690	0.023776323
103	0xbf1da82d	-0.6158474
104	0xbf0f6a48	-0.5602155
105	0xbf1c45e3	-0.6104414
106	0xbf08db3c	-0.53459525
107	0xbf4bf379	-0.79668385
108	0xbf0df29d	-0.55448323
109	0xbf543a7b	-0.82901734
110	0xbf3da83d	-0.74084836
111	0xbf3fcdc6	-0.7492336
112	0xbf1c2a85	-0.6100238
113	0xbf25e601	-0.64804083
114	0xbf45e1a9	-0.77297455
115	0xbf4df719	-0.80455166
116	0xbf5bf91c	-0.85926986
117	0xbf0a5eee	-0.540511
118	0xbf4a40d3	-0.79005164
119	0xbf43ee78	-0.7653575
120	0xbf172ebb	-0.5905568
121	0xbf1f7d6b	-0.6230075
122	0xbf0ef0bd	-0.5583609
123	0xbf103fcc	-0.56347346
124	0xbdd48846	-0.103775546
125	0x3d698318	0.057009786
126	0xbf26d035	-0.6516145
127	0xbf686e7d	-0.9079359
128	0x3fe60f8d	1.7973496
129	0xbfc4da63	-1.5379146
130	0xbe905061	-0.28186324
131	0xbfb47035	-1.4096743
132	0x3ff6d941	1.9285051
133	0x3ff53197	1.9155759
134	0x3ff52aeb	1.9153723
135	0xbfc2af08	-1.5209665
136	0xbf94579f	-1.158924
137	0xbf90a85b	-1.1301378
138	0xbfbffcbf	-1.4999007
139	0x3fe7cc47	1.8109215
140	0x3fe5333a	1.7906258
141	0x4032ef0b	2.79584
142	0x3fa17860	1.261486
143	0x3db15ecd	0.0866066
144	0x3fdd977e	1.7311857
145	0xbdfe0928	-0.1240409
146	0x40143861	2.315941
147	0xbfb14ef5	-1.3852221
148	0xbf4329da	-0.76235735
149	0x3fc5a2aa	1.5440266
150	0x40151947	2.3296678
151	0x4009a1a3	2.1504905
152	0x401843ee	2.379146
153	0xb884e000	-6.335974e-05
154	0x3fa9090f	1.320589
155	0x40212e7e	2.5184627
156	0x40217fa4	2.5234156
157	0x40084622	2.1292806
158	0xbfb1fb47	-1.3904809
159	0x40152dcc	2.3309202
160	0x3f9747b3	1.1818756
161	0xbfcba141	-1.5908586
162	0x4013414e	2.300861
163	0x3ff37222	1.9019206
164	0xbf85f503	-1.0465397
165	0x4009ca9e	2.1529918
166	0xbc8ca298	-0.017167374
167	0x3ff9c710	1.9513874
168	0x4008530a	2.1300683
169	0xbed3c085	-0.41357818
170	0xbfbf8975	-1.4963824
171	0x4018c69f	2.3871229
172	0xbfc6e2f5	-1.5538012
173	0x4002f732	2.0463376
174	0x4007fca9	2.1247962
175	0x3fedaed8	1.8568983
176	0x4027fac2	2.62468
177	0xbfa78769	-1.3088199
178	0x401a255b	2.40853
179	0x4002aa5a	2.0416474
180	0x3f955b4e	1.1668489
181	0xbf90ea48	-1.1321497
182	0xbe8be68a	-0.27324325
183	0x3f5d8cc2	0.86542904
184	0x40202f5f	2.5028913
185	0xbf6b6262	-0.91946995
186	0xbf9cfb13	-1.2264122
187	0xbfa78a8d	-1.3089157
188	0x3dd662d4	0.10468069
189	0xbd32ac80	-0.04362154
190	0xbf83f791	-1.0309926
191	0x3fa3e0f6	1.2803028
192	0x3f9cea61	1.2259027
193	0x3ec29887	0.38006994
194	0xbf8bc95a	-1.0920823
195	0xbf20a874	-0.6275704
196	0x4003f65b	2.0619113
197	0x401140c8	2.269579
198	0x40078c8b	2.117953
199	0xbe9d2619	-0.3069313
200	0xbf3abecd	-0.7294739
201	0xbf4af020	-0.7927265
202	0xbf95a950	-1.1692295
203	0x3fc9c90c	1.576448
204	0xbf2859a5	-0.65761787
205	0x3fe4cab3	1.7874359
206	0xbe56a0b0	-0.20959735
207	0xbf70f3de	-0.9412211
208	0x400501ca	2.0782342
209	0xbdb56fb5	-0.08859197
210	0x3fa17e2c	1.261663
211	0xbdce0f91	-0.10061563
212	0xbdf20b87	-0.11818605
213	0x3fca6410	1.5811787
214	0x3e1d3004	0.15350348
215	0x4009b3ad	2.1515915
216	0x4001c80f	2.0278356
217	0xbd473403	-0.048633587
218	0x3fbbba06	1.4666145
219	0x3fe70eb7	1.8051366
220	0x3fa61331	1.2974607
221	0x3fd9dd31	1.7020627
222	0xbf4b4b68	-0.79411936
223	0x3f50a6e4	0.81504655
224	0x400526f7	2.0805032
225	0xbf3a0c94	-0.7267544
226	0x3f55d40c	0.8352668
227	0x400b0567	2.1722047
228	0xbcf3787c	-0.029720537
229	0x3ff7bf9d	1.9355351
230	0xbdcad0d8	-0.09903115
231	0xbf6a88fb	-0.91615266
232	0x400dba39	2.2144911
233	0x3ff6a156	1.9267986
234	0xbdfb8bfa	-0.12282558
235	0x3fd38742	1.6525652
236	0xbd8934ce	-0.06699525
237	0x3e958887	0.29205725
238	0x400d6c6e	2.209743
239	0x3fc0de8f	1.506792
240	0x3fd1f4aa	1.640279
241	0xbeddffb9	-0.43359163
242	0x3fcb4b5b	1.5882372
243	0x3daf74cd	0.085672
244	0xbf3909c1	-0.7228051
245	0xbf09c2cf	-0.5381288
246	0x400bcc4c	2.1843443
247	0xbf9b1548	-1.211587
248	0x3f7ec851	0.9952441
249	0xbf865519	-1.049472
250	0xbf54258f	-0.8286981
251	0xbee67529	-0.4501126
252	0x3df68dec	0.12038788
253	0xbce8a17d	-0.028397316
254	0x3e1d1a58	0.1534208
255	0x3f68098b	0.9063956

linear2.bias f4 [5]
0	0xbe310544	-0.17287165
1	0xbf14d969	-0.5814424
2	0x3fa3828a	1.2774212
3	0x3f9dea5a	1.2337143
4	0xbecaccfc	-0.39609516
