examples/minecraft/model/model.pth (torch, 34624 bytes, 4 tensors)

linear1.weight f4 [1024, 4]
00000000: 78f1 51be 5360 c73d b86a 153f 0fa0 cabd
00000010: 2beb 8bbd 730c d9bd 7840 8dbe 62ea 1a3e
00000020: 619b 263e fa95 c73d 667b b1be b65a 5e3e
00000030: 3817 c73e 4260 75be 74f3 8ebe 9cc6 d33e
00000040: 68e1 eb3d 3027 05bd 7868 4fbe 782d 4c3e
00000050: 156f 1d3f e746 f23e b750 b93e d775 553d
00000060: 0052 a6ba 7806 acbe b4e5 96be f845 f1bd
00000070: 4bf9 e63e d72c 053f a97a ddbe e703 a5be
00000080: f832 84be a0c9 123e 80ca a9bb e4e4 713e
00000090: 355a 983e 8dfb b43e f554 943e d0bf c9be
000000a0: 1c6e 3abe b453 333e 6089 b7ba 4773 053f
000000b0: 00ce c0be 4709 b53e fc75 4e3f d1b9 9e3e
000000c0: 3ef9 febe a09e cd3e a07c b0bd 0c55 1ebe
000000d0: 00ab 643d 95a9 0e3f 1917 0dbf e134 42be
000000e0: a4ea dcbe 3a26 70be a185 043f ec37 943e
000000f0: 10b1 803e 92e6 d33d baa6 c3bd 7c90 843e
00000100: a8ad df3d 641d ba3e 6a11 c63e 2746 aabe
00000110: c6c9 25be 8149 f83e cef0 b93e 1e9b 733e
00000120: 7b04 0c3f 3bd9 91be 9c80 1bbd 1c13 0f3f
00000130: 3ad6 87be aa8b ddbd d285 dabc 77b0 023f
00000140: 4da7 fbbd 37cf bfbe 8300 913e b99d 853c
00000150: 3c7e 413e a5d3 5e3e 6727 f53e 51fc c53e
00000160: 908c c7be 8080 9b3c fa35 f7be 5b9b f73e
00000170: 40f0 d0bd 78d4 58be f81f 68be 709b 393d
00000180: 2b20 873e 06c1 3fbe 6d08 393f 6636 d0be
00000190: c293 fdbe 247e e5bd 8eed 9a3d c15c 7cbe
000001a0: 4d0d 04bf 5ba2 193e b91f 5bbd b25c a2bc
000001b0: 008a 88ba 7056 c0be b00d b2bd a006 6e3e
000001c0: 9326 603e 497c 92be 1368 af3e 61dd 613e
000001d0: defa 54be 3a38 d8bd 34ee 07bf 5093 db3e
000001e0: 6269 93be 107b fdbe 4433 35be de7d a1be
000001f0: 6e9b ecbd 9f42 13be d09c 383f 31f4 e2be
00000200: 685d d23d f43b 86be 0c37 56be 5856 d4bd
00000210: 7803 1a3e 4c43 b0be c602 c53e 8244 83be
00000220: 9469 6c3e b04c 9ebd 368d a0be 53f2 a6be
00000230: 1fd8 993e c4af 843e 7f8e 2fbe 124d 0dbf
00000240: 2e36 353f b1cd d53e 9ec1 5c3e 1810 aabe
00000250: 5988 71be a6c4 a63e f7f7 70bd 1a9c adbe
00000260: b62e 2b3f ccf5 8a3e 70ae 613e 3fbb 47be
00000270: dc39 3fbe 2d5b d33e 3760 4bbe 9c83 3a3e
00000280: bd3c e33e bcbd 933e 4ef9 6fbe 3742 00bf
00000290: 2cc6 1bbe a875 b3be 181e 003e e806 c83d
000002a0: e95f f83e bdfc 36be 3326 293f 294d cc3e
000002b0: b6ae fabe 97f2 6a3e 97c6 aa3e 7097 1e3e
000002c0: c00f 96be b06e 893d 7009 dabd 7048 d6bd
000002d0: e29d bb3d e4e4 5bbc 83b3 413f 019d 03bf
000002e0: 743e 60be 5460 e6be 06bc f4be 3fad be3c
000002f0: 6adf b0be 90c5 dbbe 1063 433e 0aa8 b5be
00000300: 53df 803b 0fde f4be b5ab 333f a99f 15bf
00000310: c739 dabe e30f 953e e4a5 03bf 34a3 c8be
00000320: 0ccd 313d dd8d 07bf 0354 7bbe 6462 ea3e
00000330: c088 d7bd e0bc acbe 549c 79be c8d4 f5bd
00000340: 9173 333f 0981 833e 8436 a13b 2d5d 27be
00000350: 76e0 f23e 2bc6 5abe 92e3 9e3e ad6b 413e
00000360: 0cf5 3ebe 3222 fdbe 3eaa acbe 5d67 cc3e
00000370: 3863 12be f0d7 82bd 8472 e2be f475 e8be
00000380: 1b4e 083d 2a4d ed3c 3c6f 473f b3f3 48be
00000390: e880 23bf c117 3f3e 3115 2b3d 04bc 08bf
000003a0: c449 223e 2728 293f 168f 06bf 2f50 ae3d
000003b0: b990 2c3f b54e f73e 7d56 223f 7acc 9c3d
000003c0: 80af 9c3b e8ae c4be a63b 86be f2fe cbbe
000003d0: 7459 fbbe 0075 73bd 5ce5 b0be c0b7 f7bc
000003e0: 4079 d83e 7957 d23e 0fde f73e 212c eebe
000003f0: 1019 3c3d a009 c7bc 244b afbe 2003 eabe
-0.2050227 0.09735169 0.58365965 -0.0989381 -0.06831964 -0.105980776 -0.27588248 0.15128472
0.1627021 0.09745403 -0.34664458 0.21714291 0.38884902 -0.239625 -0.27920115 0.41362464
0.11517602 -0.032508075 -0.20254695 0.1993922 0.6149762 0.4731972 0.36194393 0.052114334
-0.0012689233 -0.33598685 -0.29472125 -0.117809236 0.4511207 0.52021545 -0.43257645 -0.3222954
-0.25820136 0.14334726 -0.0051816106 0.23622471 0.29756323 0.35348168 0.28971067 -0.39404154
-0.18206066 0.17512399 -0.0014002733 0.52129024 -0.37657166 0.3535864 0.8064878 0.31001142
-0.49799532 0.40160084 -0.0861752 -0.1546213 0.05582714 0.5572751 -0.5511337 -0.18965484
-0.43147767 -0.23452082 0.517664 0.28948915 0.25135088 0.10346712 -0.09553285 0.25891483
0.10921794 0.36350548 0.3868516 -0.33256647 -0.16190252 0.4849358 0.36316532 0.23789641
0.54694337 -0.28486046 -0.03796445 0.55888534 -0.2653063 -0.108176544 -0.026675139 0.51050514
-0.122877695 -0.3746278 0.28320703 0.01631056 0.18895811 0.21760423 0.47881624 0.38669065
-0.38974428 0.018982172 -0.48283368 0.48360714 -0.10202074 -0.211748 -0.22668445 0.045314252
0.2639173 -0.18725976 0.7227848 -0.40666503 -0.49526793 -0.112057 0.07564841 -0.24644758
-0.51582795 0.1500334 -0.05349705 -0.019819591 -0.0010417104 -0.37565947 -0.08694017 0.23244715
0.21889715 -0.28610447 0.3425909 0.22057106 -0.20798823 -0.10557599 -0.53097844 0.42885828
-0.28791338 -0.49507952 -0.17695338 -0.31541342 -0.11553083 -0.14380883 0.72114277 -0.44326928
0.10271722 -0.26217616 -0.20919436 -0.10368031 0.15040386 -0.34426343 0.38478678 -0.25638205
0.2308715 -0.07729471 -0.31357735 -0.32606754 0.300477 0.2591535 -0.17144202 -0.55195725
0.70785797 0.41758493 0.21558234 -0.33215404 -0.23587169 0.32571906 -0.058830228 -0.3390816
0.6686815 0.27140653 0.22039199 -0.19505022 -0.18674415 0.412805 -0.19860922 0.18214267
0.44382277 0.28855693 -0.23434946 -0.50101036 -0.15212315 -0.35050702 0.1251148 0.09766942
0.48510674 -0.1786985 0.6607391 0.3990262 -0.4896142 0.22944103 0.33354637 0.15487456
-0.2930889 0.06710565 -0.10646331 -0.10463035 0.09160973 -0.013421271 0.7566454 -0.51411444
-0.21898824 -0.44995368 -0.477997 0.02327597 -0.3454545 -0.42924166 0.19080758 -0.35479766
0.0039328723 -0.47825667 0.7018388 -0.5844675 -0.42622206 0.29113683 -0.51425004 -0.39187014
0.04340844 -0.5295084 -0.24543767 0.4577819 -0.1052413 -0.3373785 -0.2437604 -0.120034754
0.70098215 0.25684384 0.004919829 -0.16344137 0.47436875 -0.21364658 0.31032997 0.18888731
-0.18648165 -0.4944015 -0.33723634 0.3992261 -0.14295661 -0.06388843 -0.44227993 -0.4540249
0.033277612 0.028967459 0.77904105 -0.19624214 -0.6386857 0.18661405 0.041768257 -0.5341189
0.15848452 0.6607689 -0.5256208 0.085113876 0.6740833 0.48302236 0.6341322 0.07656188
0.0047816634 -0.38414693 -0.26217383 -0.39842945 -0.49091685 -0.05943775 -0.34549987 -0.030238986
0.42280006 0.4108236 0.48411605 -0.46518043 0.04592234 -0.024296582 -0.34237015 -0.4570551

linear1.bias f4 [1024]
00000000: c6b5 b03e 5384 f93e 522b bd3e 26a2 94bd
00000010: 34aa cfbe 33f6 c2be 8a59 85be 1700 003e
00000020: 425b 83be 5906 a0be cca2 b2be 03ac 4a3e
00000030: 4ef0 f3be 8d67 abbd 124d ff3d 6680 bc3e
00000040: 80ff 9b3e fa32 dd3e 9c67 89be f062 3bbe
00000050: 84b6 843e 8724 c1be 6faf aebe 3828 c7be
00000060: 4586 bc3e 7f54 193f 8dae ee3e 94e9 ebbe
00000070: 6f46 1abc 2a92 013f 9a87 abbe c612 a43d
00000080: b0af babd b4d4 fabe 907d d63e c9ff c53c
00000090: 96dc 6abe 0040 e93e 47cf 8fbe 8731 f73e
000000a0: 3449 70bd d07b 9fbe 7778 34be 20f3 3a3f
000000b0: 36de e0be 4adf f83e 4d92 b13e 8639 fabe
000000c0: dfca f6bd 7746 963e cf9f 843e 929c b9be
000000d0: 6389 0f3d 6139 a43e c079 5cbe 00f6 00bc
000000e0: ab7c fe3e e30b 013f ba94 6dbe 15e1 b43c
000000f0: 4120 a23e be24 f2be 229f d8be ea28 dfbe
00000100: a16a 023f 96b5 333f 0d1a 613e 900d 8e3e
00000110: a062 d0be 8018 26bd 2d04 2a3e 1c78 d23e
00000120: d54f d53e cc2e 4cbe c8cc 66be eacc 953e
00000130: aec4 d8be 1683 8fbe 5e20 dc3e 5507 9a3e
00000140: 15e9 80be 241f 233e 4ab0 a33e 0d18 123f
00000150: 9bfa 863e fa84 cd3e 3207 a73e b8dd d8bd
00000160: 665e 81be c2d5 cabe 38b4 8cbe 073c 9abe
00000170: adda 1cbb 153e c13e 8728 e63e db6c dfbd
00000180: 3a47 b5be 03ce fb3e d7f3 99bd 6d1e 773e
00000190: 780d a43e fae7 be3e 7240 a3be 20ff 303e
000001a0: e6a2 f3be f202 ad3e 12eb 073f 528d 073f
000001b0: d594 dc3d a3a3 ab3e e5bf 113e 9bf3 bd3e
000001c0: 75e7 ed3d 0347 033f d6e8 ffbe 96ec 6abe
000001d0: cafb db3c fc2f 073f d20b 803d 86b1 9ebe
000001e0: 3589 033f a125 8bbd 98ca 653d 01e0 81bc
000001f0: 25e4 b8be f2fe 9bbe 1125 1d3f 9129 da3e
00000200: d3a7 143f 7e65 0aba d80e 64be 0867 73bd
00000210: 5bc0 693d 0de0 6b3e 683a c0be d567 e43e
00000220: 347b bb3e 17cd 213f 473a a53e 498c 99bd
00000230: e9a6 093f 089c 093e 4096 c93e 79f6 943e
00000240: a3e6 0e3d c8eb 6f3d 4735 43bc 25bf 333f
00000250: 8041 02be 9eb3 f63e 1013 94bd 3fea 97bd
00000260: 585c bcbe 8861 1ebe ec65 38bc ab4c ca3e
00000270: 97c5 be3e 5dc4 7f3d 5ea2 dcbe ab94 c63d
00000280: f118 253e 85fe 013f 2b5c 913e 7c42 aebe
00000290: de25 4b3e b695 a5be a028 61be f031 8bbe
000002a0: 545f 863e d2cf f9be 42df 5bbe c14e 0b3f
000002b0: 277a 113f b2ab b0be cbb5 93be 8662 e1bd
000002c0: 428d 853e fc0e 6e3e 5c51 003f e6e4 e73d
000002d0: ebf3 98bd 50dd fa3b 7b4e 343f 39be d53e
000002e0: bd05 ab3e d1d0 133f 31ad a4be 3acc 103f
000002f0: feb0 4abe 2034 fb3d e39c 133f 5117 35be
00000300: c84c ab3e 6c87 e0be 4609 ba3e 4489 5cbe
00000310: 266e e5bd 2737 8b3e eeda b6be b0e5 013e
00000320: c435 c4be 27e8 81be cf98 073e 74fd 0f3d
00000330: 583c 023f ac91 773e d0b1 193e c215 463e
00000340: 2f96 853e 90bf d53e 7df1 703e 8e3d 02bf
00000350: 111c 2d3e 1a99 0e3f 2abf f33e 462d fdbd
00000360: 0f8e f9be b613 be3e ee6d aebd 8ac4 b93d
00000370: c0ea 54bd 9efd 093d c823 edbe 0f8b 673e
00000380: eb5a 0bbe eea5 d2be 9e3d b2be cd91 b33e
00000390: 394c 9d3e ee31 c03e 799d 6b3c 428f b0be
000003a0: 553a a9be f894 143f 7ca1 8abd 4196 06bd
000003b0: ed87 febe 70dc f5be aa6d 853e 59b9 013f
000003c0: 139c e53e a112 783d 7525 f93e 5291 f0be
000003d0: bafa 7fbd 3843 103e a7ed 263f 0097 ab3d
000003e0: 2ade eebe b3c9 b6be c832 8d3e 50ac ccbe
000003f0: 7a71 923e ee54 803d 3d17 d13d 7ac9 2bbc
0.34513682 0.48733768 0.36947113 -0.0725749 -0.40559542 -0.3807846 -0.26044875 0.12500034
-0.25655562 -0.31254843 -0.3488983 0.1979218 -0.47644275 -0.0836936 0.12465872 0.3681671
0.3046837 0.43202955 -0.2683686 -0.1829946 0.25920498 -0.3772318 -0.3411822 -0.38897872
0.3682119 0.59894556 0.46617547 -0.46076643 -0.009416207 0.50613654 -0.33501893 0.08011393
-0.09115541 -0.48990405 0.41892672 0.02416982 -0.2293571 0.4555664 -0.28087828 0.48279974
-0.058663562 -0.3114915 -0.17624079 0.7302723 -0.43919533 0.48607856 0.3468193 -0.48872012
-0.12050413 0.29350635 0.25903174 -0.36252266 0.03504313 0.32075027 -0.21530819 -0.007871151
0.4970449 0.5040876 -0.23201266 0.022079984 0.31665233 -0.47293657 -0.4230891 -0.43585902
0.5094395 0.70198953 0.21982594 0.27744722 -0.40700245 -0.04055071 0.16603155 0.4110726
0.4166247 -0.19939727 -0.22539055 0.292579 -0.42337555 -0.28029698 0.42993444 0.3008372
-0.25177827 0.15929848 0.31970435 0.5706795 0.26363072 0.40140516 0.32622677 -0.105891645
-0.25267333 -0.3961621 -0.27481246 -0.30123922 -0.0023934052 0.37742677 0.44952795 -0.109094344
-0.35405904 0.49180612 -0.07517212 0.241327 0.32041526 0.3728636 -0.31885105 0.17284822
-0.4758522 0.3379131 0.53093064 0.5295001 0.10770575 0.33523282 0.14233358 0.3709992
0.116164126 0.5128023 -0.49982327 -0.22941813 0.02685346 0.52807593 0.062522545 -0.30994815
0.51381236 -0.067942865 0.05610141 -0.015853884 -0.3611156 -0.30467945 0.61384684 0.42609838
0.5806858 -0.0005279406 -0.22271287 -0.05942443 0.05706821 0.23034687 -0.3754456 0.44610468
0.36617434 0.6320357 0.32271025 -0.074974604 0.5377031 0.13438427 0.39372444 0.29094294
0.03488792 0.058574468 -0.011914558 0.7021354 -0.12720299 0.48183912 -0.072301984 -0.07417726
-0.36789203 -0.15466893 -0.011254769 0.39511618 0.37260124 0.062443126 -0.43092626 0.09696325
0.16122796 0.5077899 0.2839063 -0.340351 0.19838664 -0.32340783 -0.21988153 -0.27186537
0.26244605 -0.48791367 -0.21471885 0.54417044 0.56827015 -0.34505993 -0.28849635 -0.1100512
0.26084334 0.23247904 0.50124145 0.11322956 -0.07468399 0.007655777 0.7043225 0.4174669
0.33402815 0.57740504 -0.32163385 0.56561625 -0.1979408 0.122658014 0.57661265 -0.17684676
0.33457017 -0.4385332 0.363352 -0.21536738 -0.1120265 0.27190515 -0.35713905 0.12685275
-0.3832227 -0.2537243 0.13241886 0.03515382 0.5087333 0.24176663 0.15009236 0.19344237
0.26091143 0.41747713 0.2352962 -0.50875175 0.16905238 0.55702364 0.47606784 -0.12362151
-0.48741195 0.37124413 -0.08517061 0.0907069 -0.051981688 0.033689134 -0.4631636 0.2261164
-0.13608901 -0.4114222 -0.34812635 0.35072175 0.30722216 0.37538093 0.014380806 -0.34484297
-0.33052316 0.5803981 -0.06769082 -0.032858137 -0.49713078 -0.48019743 0.2606023 0.50673443
0.44845638 0.06056464 0.4866139 -0.4698587 -0.06249497 0.14088142 0.6520638 0.0837841
-0.46653873 -0.3570076 0.27577806 -0.39975214 0.286022 0.06266199 0.102095105 -0.0104850475

linear2.weight f4 [3, 1024]
00000000: 0520 b7bd bf0f a5bd fb7b aa3c 3756 8cbc
00000010: 6057 f73b 1d40 723e 7c73 e33c 9087 43bb
00000020: 982f 463c 7304 763e 88fd 393c fe12 fabd
00000030: d065 e23b d5b2 77be 17fe 57be fee0 a33b
00000040: 8c59 b1bc e9b0 d1bd f379 c7bd b614 303d
00000050: 58ac e0bd 4825 153e 0b6c 59bc 80c5 4abc
00000060: 601d 42bd 4331 26be 7662 4cbe fc4f 0a3c
00000070: bbfe 7dbd 34b1 c63c 20c3 5e3b 0634 debd
00000080: 4088 d2ba 0a46 efbc 4d22 f43c c42e 223c
00000090: 05b4 563e 3b7d d0bd 4018 bf3e e80b 65bd
000000a0: 7cfc 6a3d 6039 c13c 7c07 2b3c 6f11 16be
000000b0: 1621 ee3c d4d0 7cbd bbdd 643e 4c8d b0bc
000000c0: 4fbc 84be 2058 bfbd 9fa8 723e e6b3 dabc
000000d0: ab01 293e 876b 733c 23c4 83bd d864 813c
000000e0: e173 8fbd ab6c 4fbe 51db 8dbe 6b58 6f3d
000000f0: 6b0e 843e 347d 93bc 542d 6d3e e86b f0bb
00000100: 0f0e c83d 081d 45be 6aa0 60be efda ee3d
00000110: 5084 5dbb 790f 0d3e 2f4f 86bd 4919 a43d
00000120: 5b40 643e 1886 d0bb 8441 57bc 1fcf aebd
00000130: 30e1 763c 943a 23bc b943 133e 5eca 28bd
00000140: 7db3 323d f0ce 1dbd b015 273c a918 c6bd
00000150: 8b52 313e c931 f6bd 7c1b 19bd 0a7d 903c
00000160: 30c8 91bb 7032 a4bc 5f04 2f3e f278 893e
00000170: 8dea 58be c148 15bd 236a 10be 6c31 183e
00000180: 3286 f93c 6205 3a3e e25c e1bc 7e78 a13d
00000190: 8cc2 9fba 4930 273d d9b4 4d3d b7a0 eb3d
000001a0: 3838 b33b 50b6 81bc a661 0c3b 800f 85bc
000001b0: a9be cabd eb43 d0bc 51a9 52be b25d 2ebe
000001c0: 7161 99bd 8aaf 2abd 0874 f6bb af2c a5bd
000001d0: dd28 71be 35ce 06be 92d0 043e b85e fa3c
000001e0: a75b 403c 0fa3 813e b559 6fbe 284a 59be
000001f0: 5f4f dd3d a8a0 a43b 70e2 7fbd b942 bebd
00000200: 8adb d7bd 927f 58be 79ea 873d 145f 8bbe
00000210: 738d 56be 0ade 01bc 90c7 ef3c 2bbb a83c
00000220: dfb1 d3bc 12cc b7bd 2d93 6d3e c7da 3bbe
00000230: 4ba3 3c3e 3dba 2e3e b038 e4bd 1d89 fcbd
00000240: adfd 513d f71d 133d dd13 3dbe 99ac 7fbd
00000250: a369 75be 65d8 cdbd 2aea 6a3d e099 fa3d
00000260: 3eab 693e 80c6 b53b 2afd ed3b 1d83 d03d
00000270: 56a7 363e 6f8b 0b3e 10be f53b c209 d73d
00000280: 38f6 8e3d e762 3fbd e489 d7bd 5cda f5bd
00000290: 6c2c 763d 7d28 833e dee6 bebc ee21 b3bc
000002a0: fafb 513e aa3e f53c c53e 83be a512 863b
000002b0: 9bc0 e8bd f8ee 3c3c c2aa 5c3e 1998 1ebd
000002c0: 1e03 0dbe 4386 e7bd 598d efbc c263 273d
000002d0: 2e7b 143e d8ec 273d 54f2 b6bd d666 9abd
000002e0: a23f 3fbd 6aae 15be 64fa 363e f61e 3bbe
000002f0: 0148 883e 89e6 2b3e db64 debb b172 623e
00000300: 8d11 c3bc 0099 8239 6f8d 773c 1c43 433c
00000310: 8ad8 c5bc fee6 413e c000 eaba 9cb9 37be
00000320: 0ccc ecbc b194 d13b 7544 2abe ed7d 8b3d
00000330: ea99 53bd 58af d03d 0213 853c 7be8 a83d
00000340: e24a 2bbe d489 8ebc dd85 ae3d 0900 89bd
00000350: fa2f 1c3d 9909 52bd 764a 7cbd b6e9 7ebe
00000360: 86ad 793e 8f99 4ebd 47fc 3e3e e224 3bbe
00000370: d02b 9ebc 5289 703e c0eb 8b3c 202a 503d
00000380: b038 89be 5c47 f2bb 7483 fabc 8c00 c3bd
00000390: cde4 babc db07 483e 6dab a4be 6a3c 353e
000003a0: baf9 273e 5cd7 92bd 7b06 923d 0bee c6bd
000003b0: 7b7d d1bb 5cf0 f7bc 9910 333c 8900 08be
000003c0: c40e 38be cf69 76be bd75 e0bd fce7 3f3c
000003d0: 456b 2b3d 7a65 5ebe 1a47 ffbd 9e5c 43be
000003e0: 4e1b d73c d070 303c ad5b 4cbd f412 95bc
000003f0: d3e9 dcbd b792 2abc f25c 433c db3f 80be
-0.08941654 -0.08059644 0.020811072 -0.017130954 0.0075482577 0.2365727 0.027765028 -0.002983544
0.012096308 0.24025135 0.0113519505 -0.12210654 0.0069091097 -0.24189313 -0.21093021 0.0050011864
-0.021649145 -0.10238821 -0.09740057 0.0429885 -0.10970372 0.14565003 -0.013270388 -0.012376189
-0.047391295 -0.1622973 -0.19959435 0.008441921 -0.062010508 0.024254419 0.0033990815 -0.108497664
-0.0016062334 -0.029208202 0.029801512 0.009898845 0.2096711 -0.10180136 0.3732319 -0.055919558
0.057369694 0.023586929 0.010438796 -0.14655088 0.029068511 -0.06172259 0.22350208 -0.02155175
-0.25924918 -0.093429804 0.23697136 -0.02669711 0.16504543 0.0148571795 -0.064338945 0.015795156
-0.07004524 -0.20256297 -0.27706388 0.05843393 0.2579225 -0.018004037 0.23161823 -0.007337082
0.097683065 -0.19249356 -0.21936193 0.11662852 -0.0033800788 0.13775434 -0.06558072 0.08012635
0.22290175 -0.0063636415 -0.013138179 -0.08535599 0.015068337 -0.009962697 0.14381303 -0.041208617
0.043628205 -0.03852743 0.010198042 -0.09672672 0.17316644 -0.120212145 -0.037379727 0.017637748
-0.004448913 -0.020043582 0.17091511 0.26850086 -0.21183224 -0.036446337 -0.14102988 0.14862603
0.030459497 0.18166116 -0.02751011 0.0788431 -0.0012188717 0.040817533 0.050221298 0.11505263
0.0054693483 -0.015834004 0.0021420508 -0.016242743 -0.09899647 -0.02542301 -0.20572402 -0.1702793
-0.074892886 -0.041671313 -0.007521156 -0.08065163 -0.23550744 -0.13164599 0.12970188 0.030562744
0.011740602 0.25319716 -0.23374064 -0.21219695 0.108061545 0.0050240345 -0.062471807 -0.0929007
-0.10539921 -0.21142414 0.06636519 -0.27220976 -0.20952396 -0.007926473 0.029269964 0.020597061
-0.025841651 -0.0897447 0.23200674 -0.18345176 0.18421666 0.17063232 -0.11143625 -0.1233084
0.051267315 0.03591725 -0.18464608 -0.06242046 -0.23966078 -0.100510396 0.057352223 0.122363806
0.2281923 0.0055473447 0.0072628455 0.10181258 0.17837271 0.13627408 0.007499464 0.10499908
0.06980556 -0.04672518 -0.105243474 -0.12004539 0.060100958 0.25616828 -0.023303445 -0.021866765
0.20506278 0.029937107 -0.25633827 0.004091578 -0.113648616 0.011531584 0.21549514 -0.03871927
-0.1377072 -0.11304905 -0.029242205 0.04086662 0.14500114 0.040997356 -0.08932939 -0.07539146
-0.046691544 -0.14617315 0.17868954 -0.1827353 0.26617435 0.16787161 -0.0067869253 0.22114064
-0.02381208 0.00024909526 0.015109404 0.011917856 -0.024151105 0.18935773 -0.0017853007 -0.17941898
-0.02890589 0.006395899 -0.16627677 0.06811128 -0.051660456 0.10189694 0.016244415 0.08247467
-0.16727784 -0.017399706 0.08521626 -0.0668946 0.03813169 -0.051278684 -0.06159445 -0.24893841
0.243826 -0.050439414 0.18650924 -0.18275788 -0.019308 0.23489884 0.017080188 0.050821424
-0.26801062 -0.0073937606 -0.03058026 -0.09521589 -0.022814179 0.19534247 -0.32162037 0.17698827
0.16403857 -0.07169983 0.07130142 -0.09713372 -0.0063931323 -0.03026598 0.01092925 -0.13281454
-0.17974383 -0.240638 -0.10959957 0.011713024 0.041850347 -0.21718398 -0.124647334 -0.190783
0.026258137 0.010769084 -0.049892116 -0.018197514 -0.10786786 -0.010410956 0.011924015 -0.25048718

linear2.bias f4 [3]
00000000: 3628 a1bd ed49 f8bd a254 29bc
-0.07868998 -0.12123475 -0.010335119
